…
I0427 19:27:26.299216 12665 net.cpp:257] The NetState phase (0) differed from the phase (1) specified by a rule in layer accuracy
I0427 19:27:26.299413 12665 net.cpp:42] Initializing net from parameters: 
name: "SeaNet"
state {
  phase: TRAIN
}
layer {
  name: "ndsb"
  type: "Data"
  top: "data"
  top: "label"
  include {
    phase: TRAIN
  }
  transform_param {
    scale: 0.00390625
    mean_file: "../train_all_48_mean.binaryproto"
  }
  data_param {
    source: "/home/nitini/data_files/cross_val_files/cv_training_lmdb"
    batch_size: 256
    backend: LMDB
  }
}
layer {
  name: "conv1"
  type: "Convolution"
  bottom: "data"
  top: "conv1"
  param {
    lr_mult: 1
  }
  param {
    lr_mult: 2
  }
  convolution_param {
    num_output: 32
    kernel_size: 7
    stride: 1
    weight_filler {
      type: "xavier"
    }
    bias_filler {
      type: "constant"
    }
  }
}
layer {
  name: "reLU1"
  type: "ReLU"
  bottom: "conv1"
  top: "conv1"
}
layer {
  name: "conv2"
  type: "Convolution"
  bottom: "conv1"
  top: "conv2"
  param {
    lr_mult: 1
  }
  param {
    lr_mult: 2
  }
  convolution_param {
    num_output: 64
    kernel_size: 5
    stride: 1
    weight_filler {
      type: "xavier"
    }
    bias_filler {
      type: "constant"
    }
  }
}
layer {
  name: "reLU2"
  type: "ReLU"
  bottom: "conv2"
  top: "conv2"
}
layer {
  name: "pool1"
  type: "Pooling"
  bottom: "conv2"
  top: "pool1"
  pooling_param {
    pool: MAX
    kernel_size: 2
    stride: 2
  }
}
layer {
  name: "conv3"
  type: "Convolution"
  bottom: "pool1"
  top: "conv3"
  param {
    lr_mult: 1
  }
  param {
    lr_mult: 2
  }
  convolution_param {
    num_output: 256
    kernel_size: 4
    stride: 1
    weight_filler {
      type: "xavier"
    }
    bias_filler {
      type: "constant"
    }
  }
}
layer {
  name: "reLU3"
  type: "ReLU"
  bottom: "conv3"
  top: "conv3"
}
layer {
  name: "pool2"
  type: "Pooling"
  bottom: "conv3"
  top: "pool2"
  pooling_param {
    pool: MAX
    kernel_size: 2
    stride: 2
  }
}
layer {
  name: "conv4"
  type: "Convolution"
  bottom: "pool2"
  top: "conv4"
  param {
    lr_mult: 1
  }
  param {
    lr_mult: 2
  }
  convolution_param {
    num_output: 1024
    kernel_size: 3
    stride: 1
    weight_filler {
      type: "xavier"
    }
    bias_filler {
      type: "constant"
    }
  }
}
layer {
  name: "reLU4"
  type: "ReLU"
  bottom: "conv4"
  top: "conv4"
}
layer {
  name: "pool3"
  type: "Pooling"
  bottom: "conv4"
  top: "pool3"
  pooling_param {
    pool: MAX
    kernel_size: 2
    stride: 2
  }
}
layer {
  name: "norm1"
  type: "LRN"
  bottom: "pool3"
  top: "norm1"
  lrn_param {
    local_size: 5
    alpha: 0.0001
    beta: 0.75
  }
}
layer {
  name: "ip1"
  type: "InnerProduct"
  bottom: "norm1"
  top: "ip1"
  param {
    lr_mult: 1
  }
  param {
    lr_mult: 2
  }
  inner_product_param {
    num_output: 1024
    weight_filler {
      type: "xavier"
    }
    bias_filler {
      type: "constant"
    }
  }
}
layer {
  name: "ip2"
  type: "InnerProduct"
  bottom: "ip1"
  top: "ip2"
  param {
    lr_mult: 1
  }
  param {
    lr_mult: 2
  }
  inner_product_param {
    num_output: 512
    weight_filler {
      type: "xavier"
      std: 0.01
    }
    bias_filler {
      type: "constant"
      value: 0
    }
  }
}
layer {
  name: "ip3"
  type: "InnerProduct"
  bottom: "ip2"
  top: "ip3"
  param {
    lr_mult: 1
  }
  param {
    lr_mult: 2
  }
  inner_product_param {
    num_output: 256
    weight_filler {
      type: "xavier"
      std: 0.01
    }
    bias_filler {
      type: "constant"
      value: 0
    }
  }
}
layer {
  name: "ip4"
  type: "InnerProduct"
  bottom: "ip3"
  top: "ip4"
  param {
    lr_mult: 1
  }
  param {
    lr_mult: 2
  }
  inner_product_param {
    num_output: 121
    weight_filler {
      type: "xavier"
      std: 0.01
    }
    bias_filler {
      type: "constant"
      value: 0
    }
  }
}
layer {
  name: "accuracy"
  type: "Accuracy"
  bottom: "ip4"
  bottom: "label"
  top: "accuracy"
  include {
    phase: TRAIN
  }
}
layer {
  name: "loss"
  type: "SoftmaxWithLoss"
  bottom: "ip4"
  bottom: "label"
  top: "loss"
}
I0427 19:27:26.299620 12665 layer_factory.hpp:74] Creating layer ndsb
I0427 19:27:26.299659 12665 net.cpp:84] Creating Layer ndsb
I0427 19:27:26.299674 12665 net.cpp:338] ndsb -> data
I0427 19:27:26.299711 12665 net.cpp:338] ndsb -> label
I0427 19:27:26.299729 12665 net.cpp:113] Setting up ndsb
I0427 19:27:26.372125 12665 db.cpp:34] Opened lmdb /home/nitini/data_files/cross_val_files/cv_training_lmdb
I0427 19:27:26.378577 12665 data_layer.cpp:67] output data size: 256,3,48,48
I0427 19:27:26.378597 12665 data_transformer.cpp:22] Loading mean file from: ../train_all_48_mean.binaryproto
I0427 19:27:26.401384 12665 net.cpp:120] Top shape: 256 3 48 48 (1769472)
I0427 19:27:26.401399 12665 net.cpp:120] Top shape: 256 (256)
I0427 19:27:26.401407 12665 layer_factory.hpp:74] Creating layer label_ndsb_1_split
I0427 19:27:26.401435 12665 net.cpp:84] Creating Layer label_ndsb_1_split
I0427 19:27:26.401446 12665 net.cpp:380] label_ndsb_1_split <- label
I0427 19:27:26.401468 12665 net.cpp:338] label_ndsb_1_split -> label_ndsb_1_split_0
I0427 19:27:26.401479 12665 net.cpp:338] label_ndsb_1_split -> label_ndsb_1_split_1
I0427 19:27:26.401489 12665 net.cpp:113] Setting up label_ndsb_1_split
I0427 19:27:26.401499 12665 net.cpp:120] Top shape: 256 (256)
I0427 19:27:26.401506 12665 net.cpp:120] Top shape: 256 (256)
I0427 19:27:26.401512 12665 layer_factory.hpp:74] Creating layer conv1
I0427 19:27:26.401526 12665 net.cpp:84] Creating Layer conv1
I0427 19:27:26.401533 12665 net.cpp:380] conv1 <- data
I0427 19:27:26.401541 12665 net.cpp:338] conv1 -> conv1
I0427 19:27:26.401553 12665 net.cpp:113] Setting up conv1
I0427 19:27:27.067667 12665 net.cpp:120] Top shape: 256 32 42 42 (14450688)
I0427 19:27:27.067718 12665 layer_factory.hpp:74] Creating layer reLU1
I0427 19:27:27.067736 12665 net.cpp:84] Creating Layer reLU1
I0427 19:27:27.067744 12665 net.cpp:380] reLU1 <- conv1
I0427 19:27:27.067756 12665 net.cpp:327] reLU1 -> conv1 (in-place)
I0427 19:27:27.067770 12665 net.cpp:113] Setting up reLU1
I0427 19:27:27.067919 12665 net.cpp:120] Top shape: 256 32 42 42 (14450688)
I0427 19:27:27.067930 12665 layer_factory.hpp:74] Creating layer conv2
I0427 19:27:27.067948 12665 net.cpp:84] Creating Layer conv2
I0427 19:27:27.067955 12665 net.cpp:380] conv2 <- conv1
I0427 19:27:27.067963 12665 net.cpp:338] conv2 -> conv2
I0427 19:27:27.067976 12665 net.cpp:113] Setting up conv2
I0427 19:27:27.068569 12665 net.cpp:120] Top shape: 256 64 38 38 (23658496)
I0427 19:27:27.068586 12665 layer_factory.hpp:74] Creating layer reLU2
I0427 19:27:27.068598 12665 net.cpp:84] Creating Layer reLU2
I0427 19:27:27.068603 12665 net.cpp:380] reLU2 <- conv2
I0427 19:27:27.068611 12665 net.cpp:327] reLU2 -> conv2 (in-place)
I0427 19:27:27.068619 12665 net.cpp:113] Setting up reLU2
I0427 19:27:27.068684 12665 net.cpp:120] Top shape: 256 64 38 38 (23658496)
I0427 19:27:27.068694 12665 layer_factory.hpp:74] Creating layer pool1
I0427 19:27:27.068716 12665 net.cpp:84] Creating Layer pool1
I0427 19:27:27.068722 12665 net.cpp:380] pool1 <- conv2
I0427 19:27:27.068730 12665 net.cpp:338] pool1 -> pool1
I0427 19:27:27.068740 12665 net.cpp:113] Setting up pool1
I0427 19:27:27.068812 12665 net.cpp:120] Top shape: 256 64 19 19 (5914624)
I0427 19:27:27.068824 12665 layer_factory.hpp:74] Creating layer conv3
I0427 19:27:27.068835 12665 net.cpp:84] Creating Layer conv3
I0427 19:27:27.068845 12665 net.cpp:380] conv3 <- pool1
I0427 19:27:27.068889 12665 net.cpp:338] conv3 -> conv3
I0427 19:27:27.068900 12665 net.cpp:113] Setting up conv3
I0427 19:27:27.071293 12665 net.cpp:120] Top shape: 256 256 16 16 (16777216)
I0427 19:27:27.071312 12665 layer_factory.hpp:74] Creating layer reLU3
I0427 19:27:27.071322 12665 net.cpp:84] Creating Layer reLU3
I0427 19:27:27.071328 12665 net.cpp:380] reLU3 <- conv3
I0427 19:27:27.071336 12665 net.cpp:327] reLU3 -> conv3 (in-place)
I0427 19:27:27.071344 12665 net.cpp:113] Setting up reLU3
I0427 19:27:27.071472 12665 net.cpp:120] Top shape: 256 256 16 16 (16777216)
I0427 19:27:27.071485 12665 layer_factory.hpp:74] Creating layer pool2
I0427 19:27:27.071494 12665 net.cpp:84] Creating Layer pool2
I0427 19:27:27.071501 12665 net.cpp:380] pool2 <- conv3
I0427 19:27:27.071508 12665 net.cpp:338] pool2 -> pool2
I0427 19:27:27.071517 12665 net.cpp:113] Setting up pool2
I0427 19:27:27.071568 12665 net.cpp:120] Top shape: 256 256 8 8 (4194304)
I0427 19:27:27.071578 12665 layer_factory.hpp:74] Creating layer conv4
I0427 19:27:27.071588 12665 net.cpp:84] Creating Layer conv4
I0427 19:27:27.071593 12665 net.cpp:380] conv4 <- pool2
I0427 19:27:27.071601 12665 net.cpp:338] conv4 -> conv4
I0427 19:27:27.071624 12665 net.cpp:113] Setting up conv4
I0427 19:27:27.092164 12665 net.cpp:120] Top shape: 256 1024 6 6 (9437184)
I0427 19:27:27.092182 12665 layer_factory.hpp:74] Creating layer reLU4
I0427 19:27:27.092193 12665 net.cpp:84] Creating Layer reLU4
I0427 19:27:27.092200 12665 net.cpp:380] reLU4 <- conv4
I0427 19:27:27.092207 12665 net.cpp:327] reLU4 -> conv4 (in-place)
I0427 19:27:27.092216 12665 net.cpp:113] Setting up reLU4
I0427 19:27:27.092267 12665 net.cpp:120] Top shape: 256 1024 6 6 (9437184)
I0427 19:27:27.092275 12665 layer_factory.hpp:74] Creating layer pool3
I0427 19:27:27.092284 12665 net.cpp:84] Creating Layer pool3
I0427 19:27:27.092290 12665 net.cpp:380] pool3 <- conv4
I0427 19:27:27.092298 12665 net.cpp:338] pool3 -> pool3
I0427 19:27:27.092306 12665 net.cpp:113] Setting up pool3
I0427 19:27:27.092355 12665 net.cpp:120] Top shape: 256 1024 3 3 (2359296)
I0427 19:27:27.092365 12665 layer_factory.hpp:74] Creating layer norm1
I0427 19:27:27.092380 12665 net.cpp:84] Creating Layer norm1
I0427 19:27:27.092386 12665 net.cpp:380] norm1 <- pool3
I0427 19:27:27.092393 12665 net.cpp:338] norm1 -> norm1
I0427 19:27:27.092404 12665 net.cpp:113] Setting up norm1
I0427 19:27:27.092417 12665 net.cpp:120] Top shape: 256 1024 3 3 (2359296)
I0427 19:27:27.092423 12665 layer_factory.hpp:74] Creating layer ip1
I0427 19:27:27.092435 12665 net.cpp:84] Creating Layer ip1
I0427 19:27:27.092442 12665 net.cpp:380] ip1 <- norm1
I0427 19:27:27.092452 12665 net.cpp:338] ip1 -> ip1
I0427 19:27:27.092463 12665 net.cpp:113] Setting up ip1
I0427 19:27:27.175138 12665 net.cpp:120] Top shape: 256 1024 (262144)
I0427 19:27:27.175192 12665 layer_factory.hpp:74] Creating layer ip2
I0427 19:27:27.175214 12665 net.cpp:84] Creating Layer ip2
I0427 19:27:27.175222 12665 net.cpp:380] ip2 <- ip1
I0427 19:27:27.175236 12665 net.cpp:338] ip2 -> ip2
I0427 19:27:27.175252 12665 net.cpp:113] Setting up ip2
I0427 19:27:27.179738 12665 net.cpp:120] Top shape: 256 512 (131072)
I0427 19:27:27.179755 12665 layer_factory.hpp:74] Creating layer ip3
I0427 19:27:27.179771 12665 net.cpp:84] Creating Layer ip3
I0427 19:27:27.179777 12665 net.cpp:380] ip3 <- ip2
I0427 19:27:27.179787 12665 net.cpp:338] ip3 -> ip3
I0427 19:27:27.179796 12665 net.cpp:113] Setting up ip3
I0427 19:27:27.180922 12665 net.cpp:120] Top shape: 256 256 (65536)
I0427 19:27:27.180935 12665 layer_factory.hpp:74] Creating layer ip4
I0427 19:27:27.180948 12665 net.cpp:84] Creating Layer ip4
I0427 19:27:27.180953 12665 net.cpp:380] ip4 <- ip3
I0427 19:27:27.180963 12665 net.cpp:338] ip4 -> ip4
I0427 19:27:27.180973 12665 net.cpp:113] Setting up ip4
I0427 19:27:27.181212 12665 net.cpp:120] Top shape: 256 121 (30976)
I0427 19:27:27.181222 12665 layer_factory.hpp:74] Creating layer ip4_ip4_0_split
I0427 19:27:27.181241 12665 net.cpp:84] Creating Layer ip4_ip4_0_split
I0427 19:27:27.181287 12665 net.cpp:380] ip4_ip4_0_split <- ip4
I0427 19:27:27.181296 12665 net.cpp:338] ip4_ip4_0_split -> ip4_ip4_0_split_0
I0427 19:27:27.181308 12665 net.cpp:338] ip4_ip4_0_split -> ip4_ip4_0_split_1
I0427 19:27:27.181318 12665 net.cpp:113] Setting up ip4_ip4_0_split
I0427 19:27:27.181329 12665 net.cpp:120] Top shape: 256 121 (30976)
I0427 19:27:27.181335 12665 net.cpp:120] Top shape: 256 121 (30976)
I0427 19:27:27.181341 12665 layer_factory.hpp:74] Creating layer accuracy
I0427 19:27:27.181357 12665 net.cpp:84] Creating Layer accuracy
I0427 19:27:27.181363 12665 net.cpp:380] accuracy <- ip4_ip4_0_split_0
I0427 19:27:27.181370 12665 net.cpp:380] accuracy <- label_ndsb_1_split_0
I0427 19:27:27.181378 12665 net.cpp:338] accuracy -> accuracy
I0427 19:27:27.181387 12665 net.cpp:113] Setting up accuracy
…
