…
I0427 16:57:04.562647  2863 net.cpp:257] The NetState phase (0) differed from the phase (1) specified by a rule in layer accuracy
I0427 16:57:04.562892  2863 net.cpp:42] Initializing net from parameters: 
name: "SeaNet"
state {
  phase: TRAIN
}
layer {
  name: "ndsb"
  type: "Data"
  top: "data"
  top: "label"
  include {
    phase: TRAIN
  }
  transform_param {
    scale: 0.00390625
    mean_file: "../train_all_48_mean.binaryproto"
  }
  data_param {
    source: "/home/nitini/data_files/cross_val_files/cv_training_lmdb"
    batch_size: 256
    backend: LMDB
  }
}
layer {
  name: "conv1"
  type: "Convolution"
  bottom: "data"
  top: "conv1"
  param {
    lr_mult: 1
  }
  param {
    lr_mult: 2
  }
  convolution_param {
    num_output: 128
    kernel_size: 3
    stride: 2
    weight_filler {
      type: "xavier"
    }
    bias_filler {
      type: "constant"
    }
  }
}
layer {
  name: "reLU1"
  type: "ReLU"
  bottom: "conv1"
  top: "conv1"
}
layer {
  name: "norm1"
  type: "LRN"
  bottom: "conv1"
  top: "norm1"
  lrn_param {
    local_size: 5
    alpha: 0.0001
    beta: 0.75
  }
}
layer {
  name: "conv2"
  type: "Convolution"
  bottom: "norm1"
  top: "conv2"
  param {
    lr_mult: 1
  }
  param {
    lr_mult: 2
  }
  convolution_param {
    num_output: 128
    kernel_size: 3
    stride: 1
    weight_filler {
      type: "xavier"
    }
    bias_filler {
      type: "constant"
    }
  }
}
layer {
  name: "reLU2"
  type: "ReLU"
  bottom: "conv2"
  top: "conv2"
}
layer {
  name: "norm2"
  type: "LRN"
  bottom: "conv2"
  top: "norm2"
  lrn_param {
    local_size: 5
    alpha: 0.0001
    beta: 0.75
  }
}
layer {
  name: "conv2b"
  type: "Convolution"
  bottom: "norm2"
  top: "conv2b"
  param {
    lr_mult: 1
  }
  param {
    lr_mult: 2
  }
  convolution_param {
    num_output: 128
    kernel_size: 3
    stride: 1
    weight_filler {
      type: "xavier"
    }
    bias_filler {
      type: "constant"
    }
  }
}
layer {
  name: "reLU2"
  type: "ReLU"
  bottom: "conv2b"
  top: "conv2b"
}
layer {
  name: "norm2b"
  type: "LRN"
  bottom: "conv2b"
  top: "norm2b"
  lrn_param {
    local_size: 5
    alpha: 0.0001
    beta: 0.75
  }
}
layer {
  name: "dropout1"
  type: "Dropout"
  bottom: "norm2b"
  top: "norm2b"
  dropout_param {
    dropout_ratio: 0.5
  }
}
layer {
  name: "conv3"
  type: "Convolution"
  bottom: "norm2b"
  top: "conv3"
  param {
    lr_mult: 1
  }
  param {
    lr_mult: 2
  }
  convolution_param {
    num_output: 256
    kernel_size: 2
    stride: 2
    weight_filler {
      type: "xavier"
    }
    bias_filler {
      type: "constant"
    }
  }
}
layer {
  name: "reLU3"
  type: "ReLU"
  bottom: "conv3"
  top: "conv3"
}
layer {
  name: "norm3"
  type: "LRN"
  bottom: "conv3"
  top: "norm3"
  lrn_param {
    local_size: 5
    alpha: 0.0001
    beta: 0.75
  }
}
layer {
  name: "conv3b"
  type: "Convolution"
  bottom: "norm3"
  top: "conv3b"
  param {
    lr_mult: 1
  }
  param {
    lr_mult: 2
  }
  convolution_param {
    num_output: 256
    kernel_size: 2
    stride: 1
    weight_filler {
      type: "xavier"
    }
    bias_filler {
      type: "constant"
    }
  }
}
layer {
  name: "reLU3b"
  type: "ReLU"
  bottom: "conv3b"
  top: "conv3b"
}
layer {
  name: "norm3b"
  type: "LRN"
  bottom: "conv3b"
  top: "norm3b"
  lrn_param {
    local_size: 5
    alpha: 0.0001
    beta: 0.75
  }
}
layer {
  name: "conv4"
  type: "Convolution"
  bottom: "norm3b"
  top: "conv4"
  param {
    lr_mult: 1
  }
  param {
    lr_mult: 2
  }
  convolution_param {
    num_output: 256
    kernel_size: 2
    stride: 1
    weight_filler {
      type: "xavier"
    }
    bias_filler {
      type: "constant"
    }
  }
}
layer {
  name: "pool1"
  type: "Pooling"
  bottom: "conv4"
  top: "pool1"
  pooling_param {
    pool: MAX
    kernel_size: 3
    stride: 3
  }
}
layer {
  name: "norm4"
  type: "LRN"
  bottom: "pool1"
  top: "norm4"
  lrn_param {
    local_size: 5
    alpha: 0.0001
    beta: 0.75
  }
}
layer {
  name: "dropout2"
  type: "Dropout"
  bottom: "norm4"
  top: "norm4"
  dropout_param {
    dropout_ratio: 0.5
  }
}
layer {
  name: "ip1"
  type: "InnerProduct"
  bottom: "norm4"
  top: "ip1"
  param {
    lr_mult: 1
  }
  param {
    lr_mult: 2
  }
  inner_product_param {
    num_output: 256
    weight_filler {
      type: "xavier"
    }
    bias_filler {
      type: "constant"
    }
  }
}
layer {
  name: "reLU4"
  type: "ReLU"
  bottom: "ip1"
  top: "ip1"
}
layer {
  name: "dropout3"
  type: "Dropout"
  bottom: "ip1"
  top: "ip1"
  dropout_param {
    dropout_ratio: 0.5
  }
}
layer {
  name: "ip2"
  type: "InnerProduct"
  bottom: "ip1"
  top: "ip2"
  param {
    lr_mult: 1
  }
  param {
    lr_mult: 2
  }
  inner_product_param {
    num_output: 256
    weight_filler {
      type: "xavier"
      std: 0.01
    }
    bias_filler {
      type: "constant"
      value: 0
    }
  }
}
layer {
  name: "reLU5"
  type: "ReLU"
  bottom: "ip2"
  top: "ip2"
}
layer {
  name: "dropout4"
  type: "Dropout"
  bottom: "ip2"
  top: "ip2"
  dropout_param {
    dropout_ratio: 0.5
  }
}
layer {
  name: "ip3"
  type: "InnerProduct"
  bottom: "ip2"
  top: "ip3"
  param {
    lr_mult: 1
  }
  param {
    lr_mult: 2
  }
  inner_product_param {
    num_output: 121
    weight_filler {
      type: "xavier"
      std: 0.01
    }
    bias_filler {
      type: "constant"
      value: 0
    }
  }
}
layer {
  name: "accuracy"
  type: "Accuracy"
  bottom: "ip3"
  bottom: "label"
  top: "accuracy"
  include {
    phase: TRAIN
  }
}
layer {
  name: "loss"
  type: "SoftmaxWithLoss"
  bottom: "ip3"
  bottom: "label"
  top: "loss"
}
I0427 16:57:04.563140  2863 layer_factory.hpp:74] Creating layer ndsb
I0427 16:57:04.563166  2863 net.cpp:84] Creating Layer ndsb
I0427 16:57:04.563179  2863 net.cpp:338] ndsb -> data
I0427 16:57:04.563213  2863 net.cpp:338] ndsb -> label
I0427 16:57:04.563230  2863 net.cpp:113] Setting up ndsb
I0427 16:57:04.629369  2863 db.cpp:34] Opened lmdb /home/nitini/data_files/cross_val_files/cv_training_lmdb
I0427 16:57:04.636013  2863 data_layer.cpp:67] output data size: 256,3,48,48
I0427 16:57:04.636031  2863 data_transformer.cpp:22] Loading mean file from: ../train_all_48_mean.binaryproto
I0427 16:57:04.663924  2863 net.cpp:120] Top shape: 256 3 48 48 (1769472)
I0427 16:57:04.663939  2863 net.cpp:120] Top shape: 256 (256)
I0427 16:57:04.663949  2863 layer_factory.hpp:74] Creating layer label_ndsb_1_split
I0427 16:57:04.663960  2863 net.cpp:84] Creating Layer label_ndsb_1_split
I0427 16:57:04.663969  2863 net.cpp:380] label_ndsb_1_split <- label
I0427 16:57:04.663985  2863 net.cpp:338] label_ndsb_1_split -> label_ndsb_1_split_0
I0427 16:57:04.663996  2863 net.cpp:338] label_ndsb_1_split -> label_ndsb_1_split_1
I0427 16:57:04.664005  2863 net.cpp:113] Setting up label_ndsb_1_split
I0427 16:57:04.664017  2863 net.cpp:120] Top shape: 256 (256)
I0427 16:57:04.664024  2863 net.cpp:120] Top shape: 256 (256)
I0427 16:57:04.664029  2863 layer_factory.hpp:74] Creating layer conv1
I0427 16:57:04.664043  2863 net.cpp:84] Creating Layer conv1
I0427 16:57:04.664049  2863 net.cpp:380] conv1 <- data
I0427 16:57:04.664058  2863 net.cpp:338] conv1 -> conv1
I0427 16:57:04.664070  2863 net.cpp:113] Setting up conv1
I0427 16:57:05.117962  2863 net.cpp:120] Top shape: 256 128 23 23 (17334272)
I0427 16:57:05.118008  2863 layer_factory.hpp:74] Creating layer reLU1
I0427 16:57:05.118026  2863 net.cpp:84] Creating Layer reLU1
I0427 16:57:05.118034  2863 net.cpp:380] reLU1 <- conv1
I0427 16:57:05.118052  2863 net.cpp:327] reLU1 -> conv1 (in-place)
I0427 16:57:05.118088  2863 net.cpp:113] Setting up reLU1
I0427 16:57:05.118235  2863 net.cpp:120] Top shape: 256 128 23 23 (17334272)
I0427 16:57:05.118247  2863 layer_factory.hpp:74] Creating layer norm1
I0427 16:57:05.118262  2863 net.cpp:84] Creating Layer norm1
I0427 16:57:05.118268  2863 net.cpp:380] norm1 <- conv1
I0427 16:57:05.118276  2863 net.cpp:338] norm1 -> norm1
I0427 16:57:05.118288  2863 net.cpp:113] Setting up norm1
I0427 16:57:05.118300  2863 net.cpp:120] Top shape: 256 128 23 23 (17334272)
I0427 16:57:05.118306  2863 layer_factory.hpp:74] Creating layer conv2
I0427 16:57:05.118319  2863 net.cpp:84] Creating Layer conv2
I0427 16:57:05.118324  2863 net.cpp:380] conv2 <- norm1
I0427 16:57:05.118332  2863 net.cpp:338] conv2 -> conv2
I0427 16:57:05.118342  2863 net.cpp:113] Setting up conv2
I0427 16:57:05.119704  2863 net.cpp:120] Top shape: 256 128 21 21 (14450688)
I0427 16:57:05.119721  2863 layer_factory.hpp:74] Creating layer reLU2
I0427 16:57:05.119730  2863 net.cpp:84] Creating Layer reLU2
I0427 16:57:05.119736  2863 net.cpp:380] reLU2 <- conv2
I0427 16:57:05.119745  2863 net.cpp:327] reLU2 -> conv2 (in-place)
I0427 16:57:05.119752  2863 net.cpp:113] Setting up reLU2
I0427 16:57:05.119801  2863 net.cpp:120] Top shape: 256 128 21 21 (14450688)
I0427 16:57:05.119809  2863 layer_factory.hpp:74] Creating layer norm2
I0427 16:57:05.119818  2863 net.cpp:84] Creating Layer norm2
I0427 16:57:05.119823  2863 net.cpp:380] norm2 <- conv2
I0427 16:57:05.119832  2863 net.cpp:338] norm2 -> norm2
I0427 16:57:05.119842  2863 net.cpp:113] Setting up norm2
I0427 16:57:05.119850  2863 net.cpp:120] Top shape: 256 128 21 21 (14450688)
I0427 16:57:05.119855  2863 layer_factory.hpp:74] Creating layer conv2b
I0427 16:57:05.119865  2863 net.cpp:84] Creating Layer conv2b
I0427 16:57:05.119871  2863 net.cpp:380] conv2b <- norm2
I0427 16:57:05.119879  2863 net.cpp:338] conv2b -> conv2b
I0427 16:57:05.119889  2863 net.cpp:113] Setting up conv2b
I0427 16:57:05.121393  2863 net.cpp:120] Top shape: 256 128 19 19 (11829248)
I0427 16:57:05.121412  2863 layer_factory.hpp:74] Creating layer reLU2
I0427 16:57:05.121422  2863 net.cpp:84] Creating Layer reLU2
I0427 16:57:05.121428  2863 net.cpp:380] reLU2 <- conv2b
I0427 16:57:05.121435  2863 net.cpp:327] reLU2 -> conv2b (in-place)
I0427 16:57:05.121443  2863 net.cpp:113] Setting up reLU2
I0427 16:57:05.121491  2863 net.cpp:120] Top shape: 256 128 19 19 (11829248)
I0427 16:57:05.121500  2863 layer_factory.hpp:74] Creating layer norm2b
I0427 16:57:05.121508  2863 net.cpp:84] Creating Layer norm2b
I0427 16:57:05.121515  2863 net.cpp:380] norm2b <- conv2b
I0427 16:57:05.121521  2863 net.cpp:338] norm2b -> norm2b
I0427 16:57:05.121531  2863 net.cpp:113] Setting up norm2b
I0427 16:57:05.121538  2863 net.cpp:120] Top shape: 256 128 19 19 (11829248)
I0427 16:57:05.121544  2863 layer_factory.hpp:74] Creating layer dropout1
I0427 16:57:05.121556  2863 net.cpp:84] Creating Layer dropout1
I0427 16:57:05.121561  2863 net.cpp:380] dropout1 <- norm2b
I0427 16:57:05.121567  2863 net.cpp:327] dropout1 -> norm2b (in-place)
I0427 16:57:05.121578  2863 net.cpp:113] Setting up dropout1
I0427 16:57:05.121590  2863 net.cpp:120] Top shape: 256 128 19 19 (11829248)
I0427 16:57:05.121597  2863 layer_factory.hpp:74] Creating layer conv3
I0427 16:57:05.121604  2863 net.cpp:84] Creating Layer conv3
I0427 16:57:05.121610  2863 net.cpp:380] conv3 <- norm2b
I0427 16:57:05.121618  2863 net.cpp:338] conv3 -> conv3
I0427 16:57:05.121626  2863 net.cpp:113] Setting up conv3
I0427 16:57:05.122997  2863 net.cpp:120] Top shape: 256 256 9 9 (5308416)
I0427 16:57:05.123015  2863 layer_factory.hpp:74] Creating layer reLU3
I0427 16:57:05.123024  2863 net.cpp:84] Creating Layer reLU3
I0427 16:57:05.123030  2863 net.cpp:380] reLU3 <- conv3
I0427 16:57:05.123038  2863 net.cpp:327] reLU3 -> conv3 (in-place)
I0427 16:57:05.123045  2863 net.cpp:113] Setting up reLU3
I0427 16:57:05.123191  2863 net.cpp:120] Top shape: 256 256 9 9 (5308416)
I0427 16:57:05.123208  2863 layer_factory.hpp:74] Creating layer norm3
I0427 16:57:05.123234  2863 net.cpp:84] Creating Layer norm3
I0427 16:57:05.123240  2863 net.cpp:380] norm3 <- conv3
I0427 16:57:05.123249  2863 net.cpp:338] norm3 -> norm3
I0427 16:57:05.123257  2863 net.cpp:113] Setting up norm3
I0427 16:57:05.123270  2863 net.cpp:120] Top shape: 256 256 9 9 (5308416)
I0427 16:57:05.123275  2863 layer_factory.hpp:74] Creating layer conv3b
I0427 16:57:05.123287  2863 net.cpp:84] Creating Layer conv3b
I0427 16:57:05.123293  2863 net.cpp:380] conv3b <- norm3
I0427 16:57:05.123301  2863 net.cpp:338] conv3b -> conv3b
I0427 16:57:05.123311  2863 net.cpp:113] Setting up conv3b
I0427 16:57:05.125735  2863 net.cpp:120] Top shape: 256 256 8 8 (4194304)
I0427 16:57:05.125756  2863 layer_factory.hpp:74] Creating layer reLU3b
I0427 16:57:05.125767  2863 net.cpp:84] Creating Layer reLU3b
I0427 16:57:05.125773  2863 net.cpp:380] reLU3b <- conv3b
I0427 16:57:05.125780  2863 net.cpp:327] reLU3b -> conv3b (in-place)
I0427 16:57:05.125788  2863 net.cpp:113] Setting up reLU3b
I0427 16:57:05.125844  2863 net.cpp:120] Top shape: 256 256 8 8 (4194304)
I0427 16:57:05.125854  2863 layer_factory.hpp:74] Creating layer norm3b
I0427 16:57:05.125862  2863 net.cpp:84] Creating Layer norm3b
I0427 16:57:05.125870  2863 net.cpp:380] norm3b <- conv3b
I0427 16:57:05.125877  2863 net.cpp:338] norm3b -> norm3b
I0427 16:57:05.125886  2863 net.cpp:113] Setting up norm3b
I0427 16:57:05.125895  2863 net.cpp:120] Top shape: 256 256 8 8 (4194304)
I0427 16:57:05.125900  2863 layer_factory.hpp:74] Creating layer conv4
I0427 16:57:05.125921  2863 net.cpp:84] Creating Layer conv4
I0427 16:57:05.125929  2863 net.cpp:380] conv4 <- norm3b
I0427 16:57:05.125941  2863 net.cpp:338] conv4 -> conv4
I0427 16:57:05.125949  2863 net.cpp:113] Setting up conv4
I0427 16:57:05.128372  2863 net.cpp:120] Top shape: 256 256 7 7 (3211264)
I0427 16:57:05.128389  2863 layer_factory.hpp:74] Creating layer pool1
I0427 16:57:05.128408  2863 net.cpp:84] Creating Layer pool1
I0427 16:57:05.128415  2863 net.cpp:380] pool1 <- conv4
I0427 16:57:05.128427  2863 net.cpp:338] pool1 -> pool1
I0427 16:57:05.128438  2863 net.cpp:113] Setting up pool1
I0427 16:57:05.128516  2863 net.cpp:120] Top shape: 256 256 3 3 (589824)
I0427 16:57:05.128531  2863 layer_factory.hpp:74] Creating layer norm4
I0427 16:57:05.128540  2863 net.cpp:84] Creating Layer norm4
I0427 16:57:05.128546  2863 net.cpp:380] norm4 <- pool1
I0427 16:57:05.128556  2863 net.cpp:338] norm4 -> norm4
I0427 16:57:05.128566  2863 net.cpp:113] Setting up norm4
I0427 16:57:05.128576  2863 net.cpp:120] Top shape: 256 256 3 3 (589824)
I0427 16:57:05.128582  2863 layer_factory.hpp:74] Creating layer dropout2
I0427 16:57:05.128590  2863 net.cpp:84] Creating Layer dropout2
I0427 16:57:05.128595  2863 net.cpp:380] dropout2 <- norm4
I0427 16:57:05.128604  2863 net.cpp:327] dropout2 -> norm4 (in-place)
I0427 16:57:05.128612  2863 net.cpp:113] Setting up dropout2
I0427 16:57:05.128620  2863 net.cpp:120] Top shape: 256 256 3 3 (589824)
I0427 16:57:05.128626  2863 layer_factory.hpp:74] Creating layer ip1
I0427 16:57:05.128638  2863 net.cpp:84] Creating Layer ip1
I0427 16:57:05.128643  2863 net.cpp:380] ip1 <- norm4
I0427 16:57:05.128654  2863 net.cpp:338] ip1 -> ip1
I0427 16:57:05.128664  2863 net.cpp:113] Setting up ip1
I0427 16:57:05.133563  2863 net.cpp:120] Top shape: 256 256 (65536)
I0427 16:57:05.133579  2863 layer_factory.hpp:74] Creating layer reLU4
I0427 16:57:05.133589  2863 net.cpp:84] Creating Layer reLU4
I0427 16:57:05.133594  2863 net.cpp:380] reLU4 <- ip1
I0427 16:57:05.133604  2863 net.cpp:327] reLU4 -> ip1 (in-place)
I0427 16:57:05.133611  2863 net.cpp:113] Setting up reLU4
I0427 16:57:05.133671  2863 net.cpp:120] Top shape: 256 256 (65536)
I0427 16:57:05.133682  2863 layer_factory.hpp:74] Creating layer dropout3
I0427 16:57:05.133693  2863 net.cpp:84] Creating Layer dropout3
I0427 16:57:05.133699  2863 net.cpp:380] dropout3 <- ip1
I0427 16:57:05.133707  2863 net.cpp:327] dropout3 -> ip1 (in-place)
I0427 16:57:05.133714  2863 net.cpp:113] Setting up dropout3
I0427 16:57:05.133728  2863 net.cpp:120] Top shape: 256 256 (65536)
I0427 16:57:05.133747  2863 layer_factory.hpp:74] Creating layer ip2
I0427 16:57:05.133761  2863 net.cpp:84] Creating Layer ip2
I0427 16:57:05.133767  2863 net.cpp:380] ip2 <- ip1
I0427 16:57:05.133779  2863 net.cpp:338] ip2 -> ip2
I0427 16:57:05.133787  2863 net.cpp:113] Setting up ip2
I0427 16:57:05.134349  2863 net.cpp:120] Top shape: 256 256 (65536)
I0427 16:57:05.134362  2863 layer_factory.hpp:74] Creating layer reLU5
I0427 16:57:05.134371  2863 net.cpp:84] Creating Layer reLU5
I0427 16:57:05.134376  2863 net.cpp:380] reLU5 <- ip2
I0427 16:57:05.134384  2863 net.cpp:327] reLU5 -> ip2 (in-place)
I0427 16:57:05.134392  2863 net.cpp:113] Setting up reLU5
I0427 16:57:05.134534  2863 net.cpp:120] Top shape: 256 256 (65536)
I0427 16:57:05.134548  2863 layer_factory.hpp:74] Creating layer dropout4
I0427 16:57:05.134557  2863 net.cpp:84] Creating Layer dropout4
I0427 16:57:05.134562  2863 net.cpp:380] dropout4 <- ip2
I0427 16:57:05.134572  2863 net.cpp:327] dropout4 -> ip2 (in-place)
I0427 16:57:05.134580  2863 net.cpp:113] Setting up dropout4
I0427 16:57:05.134589  2863 net.cpp:120] Top shape: 256 256 (65536)
I0427 16:57:05.134594  2863 layer_factory.hpp:74] Creating layer ip3
I0427 16:57:05.134603  2863 net.cpp:84] Creating Layer ip3
I0427 16:57:05.134609  2863 net.cpp:380] ip3 <- ip2
I0427 16:57:05.134619  2863 net.cpp:338] ip3 -> ip3
I0427 16:57:05.134629  2863 net.cpp:113] Setting up ip3
I0427 16:57:05.134922  2863 net.cpp:120] Top shape: 256 121 (30976)
I0427 16:57:05.134938  2863 layer_factory.hpp:74] Creating layer ip3_ip3_0_split
I0427 16:57:05.134949  2863 net.cpp:84] Creating Layer ip3_ip3_0_split
I0427 16:57:05.134955  2863 net.cpp:380] ip3_ip3_0_split <- ip3
I0427 16:57:05.134963  2863 net.cpp:338] ip3_ip3_0_split -> ip3_ip3_0_split_0
I0427 16:57:05.134971  2863 net.cpp:338] ip3_ip3_0_split -> ip3_ip3_0_split_1
I0427 16:57:05.134979  2863 net.cpp:113] Setting up ip3_ip3_0_split
I0427 16:57:05.134991  2863 net.cpp:120] Top shape: 256 121 (30976)
I0427 16:57:05.134999  2863 net.cpp:120] Top shape: 256 121 (30976)
I0427 16:57:05.135004  2863 layer_factory.hpp:74] Creating layer accuracy
I0427 16:57:05.135016  2863 net.cpp:84] Creating Layer accuracy
I0427 16:57:05.135021  2863 net.cpp:380] accuracy <- ip3_ip3_0_split_0
I0427 16:57:05.135028  2863 net.cpp:380] accuracy <- label_ndsb_1_split_0
I0427 16:57:05.135035  2863 net.cpp:338] accuracy -> accuracy
I0427 16:57:05.135043  2863 net.cpp:113] Setting up accuracy
…
