…
I0427 17:35:13.926532  2369 net.cpp:257] The NetState phase (0) differed from the phase (1) specified by a rule in layer accuracy
I0427 17:35:13.926743  2369 net.cpp:42] Initializing net from parameters: 
name: "SeaNet"
state {
  phase: TRAIN
}
layer {
  name: "ndsb"
  type: "Data"
  top: "data"
  top: "label"
  include {
    phase: TRAIN
  }
  transform_param {
    scale: 0.00390625
    mean_file: "../train_all_48_mean.binaryproto"
  }
  data_param {
    source: "/home/nitini/data_files/cross_val_files/cv_training_lmdb"
    batch_size: 256
    backend: LMDB
  }
}
layer {
  name: "conv1"
  type: "Convolution"
  bottom: "data"
  top: "conv1"
  param {
    lr_mult: 1
  }
  param {
    lr_mult: 2
  }
  convolution_param {
    num_output: 64
    kernel_size: 4
    stride: 1
    weight_filler {
      type: "xavier"
    }
    bias_filler {
      type: "constant"
    }
  }
}
layer {
  name: "reLU1"
  type: "ReLU"
  bottom: "conv1"
  top: "conv1"
}
layer {
  name: "pool1"
  type: "Pooling"
  bottom: "conv1"
  top: "pool1"
  pooling_param {
    pool: MAX
    kernel_size: 3
    stride: 3
  }
}
layer {
  name: "conv2"
  type: "Convolution"
  bottom: "pool1"
  top: "conv2"
  param {
    lr_mult: 1
  }
  param {
    lr_mult: 2
  }
  convolution_param {
    num_output: 64
    kernel_size: 3
    stride: 1
    weight_filler {
      type: "xavier"
    }
    bias_filler {
      type: "constant"
    }
  }
}
layer {
  name: "reLU2"
  type: "ReLU"
  bottom: "conv2"
  top: "conv2"
}
layer {
  name: "pool2"
  type: "Pooling"
  bottom: "conv2"
  top: "pool2"
  pooling_param {
    pool: MAX
    kernel_size: 3
    stride: 2
  }
}
layer {
  name: "conv3"
  type: "Convolution"
  bottom: "pool2"
  top: "conv3"
  param {
    lr_mult: 1
  }
  param {
    lr_mult: 2
  }
  convolution_param {
    num_output: 64
    kernel_size: 3
    stride: 1
    weight_filler {
      type: "xavier"
    }
    bias_filler {
      type: "constant"
    }
  }
}
layer {
  name: "reLU3"
  type: "ReLU"
  bottom: "conv3"
  top: "conv3"
}
layer {
  name: "pool3"
  type: "Pooling"
  bottom: "conv3"
  top: "pool3"
  pooling_param {
    pool: MAX
    kernel_size: 3
    stride: 1
  }
}
layer {
  name: "norm1"
  type: "LRN"
  bottom: "pool3"
  top: "norm1"
  lrn_param {
    local_size: 5
    alpha: 0.0001
    beta: 0.75
  }
}
layer {
  name: "ip1"
  type: "InnerProduct"
  bottom: "norm1"
  top: "ip1"
  param {
    lr_mult: 1
  }
  param {
    lr_mult: 2
  }
  inner_product_param {
    num_output: 128
    weight_filler {
      type: "xavier"
    }
    bias_filler {
      type: "constant"
    }
  }
}
layer {
  name: "ip2"
  type: "InnerProduct"
  bottom: "ip1"
  top: "ip2"
  param {
    lr_mult: 1
  }
  param {
    lr_mult: 2
  }
  inner_product_param {
    num_output: 128
    weight_filler {
      type: "xavier"
      std: 0.01
    }
    bias_filler {
      type: "constant"
      value: 0
    }
  }
}
layer {
  name: "ip3"
  type: "InnerProduct"
  bottom: "ip2"
  top: "ip3"
  param {
    lr_mult: 1
  }
  param {
    lr_mult: 2
  }
  inner_product_param {
    num_output: 121
    weight_filler {
      type: "xavier"
      std: 0.01
    }
    bias_filler {
      type: "constant"
      value: 0
    }
  }
}
layer {
  name: "accuracy"
  type: "Accuracy"
  bottom: "ip3"
  bottom: "label"
  top: "accuracy"
  include {
    phase: TRAIN
  }
}
layer {
  name: "loss"
  type: "SoftmaxWithLoss"
  bottom: "ip3"
  bottom: "label"
  top: "loss"
}
I0427 17:35:13.926949  2369 layer_factory.hpp:74] Creating layer ndsb
I0427 17:35:13.928486  2369 net.cpp:84] Creating Layer ndsb
I0427 17:35:13.928504  2369 net.cpp:338] ndsb -> data
I0427 17:35:13.928542  2369 net.cpp:338] ndsb -> label
I0427 17:35:13.928562  2369 net.cpp:113] Setting up ndsb
I0427 17:35:14.019752  2369 db.cpp:34] Opened lmdb /home/nitini/data_files/cross_val_files/cv_training_lmdb
I0427 17:35:14.305439  2369 data_layer.cpp:67] output data size: 256,3,48,48
I0427 17:35:14.305470  2369 data_transformer.cpp:22] Loading mean file from: ../train_all_48_mean.binaryproto
I0427 17:35:14.537488  2369 net.cpp:120] Top shape: 256 3 48 48 (1769472)
I0427 17:35:14.537505  2369 net.cpp:120] Top shape: 256 (256)
I0427 17:35:14.537518  2369 layer_factory.hpp:74] Creating layer label_ndsb_1_split
I0427 17:35:14.537538  2369 net.cpp:84] Creating Layer label_ndsb_1_split
I0427 17:35:14.537549  2369 net.cpp:380] label_ndsb_1_split <- label
I0427 17:35:14.537567  2369 net.cpp:338] label_ndsb_1_split -> label_ndsb_1_split_0
I0427 17:35:14.537582  2369 net.cpp:338] label_ndsb_1_split -> label_ndsb_1_split_1
I0427 17:35:14.537591  2369 net.cpp:113] Setting up label_ndsb_1_split
I0427 17:35:14.537603  2369 net.cpp:120] Top shape: 256 (256)
I0427 17:35:14.537611  2369 net.cpp:120] Top shape: 256 (256)
I0427 17:35:14.537616  2369 layer_factory.hpp:74] Creating layer conv1
I0427 17:35:14.537633  2369 net.cpp:84] Creating Layer conv1
I0427 17:35:14.537641  2369 net.cpp:380] conv1 <- data
I0427 17:35:14.537660  2369 net.cpp:338] conv1 -> conv1
I0427 17:35:14.537677  2369 net.cpp:113] Setting up conv1
I0427 17:35:17.749466  2369 net.cpp:120] Top shape: 256 64 45 45 (33177600)
I0427 17:35:17.749517  2369 layer_factory.hpp:74] Creating layer reLU1
I0427 17:35:17.749536  2369 net.cpp:84] Creating Layer reLU1
I0427 17:35:17.749544  2369 net.cpp:380] reLU1 <- conv1
I0427 17:35:17.749557  2369 net.cpp:327] reLU1 -> conv1 (in-place)
I0427 17:35:17.749569  2369 net.cpp:113] Setting up reLU1
I0427 17:35:17.750555  2369 net.cpp:120] Top shape: 256 64 45 45 (33177600)
I0427 17:35:17.750567  2369 layer_factory.hpp:74] Creating layer pool1
I0427 17:35:17.750588  2369 net.cpp:84] Creating Layer pool1
I0427 17:35:17.750594  2369 net.cpp:380] pool1 <- conv1
I0427 17:35:17.750603  2369 net.cpp:338] pool1 -> pool1
I0427 17:35:17.750612  2369 net.cpp:113] Setting up pool1
I0427 17:35:17.750685  2369 net.cpp:120] Top shape: 256 64 15 15 (3686400)
I0427 17:35:17.750712  2369 layer_factory.hpp:74] Creating layer conv2
I0427 17:35:17.750727  2369 net.cpp:84] Creating Layer conv2
I0427 17:35:17.750733  2369 net.cpp:380] conv2 <- pool1
I0427 17:35:17.750742  2369 net.cpp:338] conv2 -> conv2
I0427 17:35:17.750753  2369 net.cpp:113] Setting up conv2
I0427 17:35:17.751282  2369 net.cpp:120] Top shape: 256 64 13 13 (2768896)
I0427 17:35:17.751302  2369 layer_factory.hpp:74] Creating layer reLU2
I0427 17:35:17.751312  2369 net.cpp:84] Creating Layer reLU2
I0427 17:35:17.751317  2369 net.cpp:380] reLU2 <- conv2
I0427 17:35:17.751325  2369 net.cpp:327] reLU2 -> conv2 (in-place)
I0427 17:35:17.751333  2369 net.cpp:113] Setting up reLU2
I0427 17:35:17.751384  2369 net.cpp:120] Top shape: 256 64 13 13 (2768896)
I0427 17:35:17.751391  2369 layer_factory.hpp:74] Creating layer pool2
I0427 17:35:17.751401  2369 net.cpp:84] Creating Layer pool2
I0427 17:35:17.751406  2369 net.cpp:380] pool2 <- conv2
I0427 17:35:17.751415  2369 net.cpp:338] pool2 -> pool2
I0427 17:35:17.751422  2369 net.cpp:113] Setting up pool2
I0427 17:35:17.751557  2369 net.cpp:120] Top shape: 256 64 6 6 (589824)
I0427 17:35:17.751572  2369 layer_factory.hpp:74] Creating layer conv3
I0427 17:35:17.751585  2369 net.cpp:84] Creating Layer conv3
I0427 17:35:17.751592  2369 net.cpp:380] conv3 <- pool2
I0427 17:35:17.751601  2369 net.cpp:338] conv3 -> conv3
I0427 17:35:17.751612  2369 net.cpp:113] Setting up conv3
I0427 17:35:17.752136  2369 net.cpp:120] Top shape: 256 64 4 4 (262144)
I0427 17:35:17.752154  2369 layer_factory.hpp:74] Creating layer reLU3
I0427 17:35:17.752169  2369 net.cpp:84] Creating Layer reLU3
I0427 17:35:17.752205  2369 net.cpp:380] reLU3 <- conv3
I0427 17:35:17.752214  2369 net.cpp:327] reLU3 -> conv3 (in-place)
I0427 17:35:17.752223  2369 net.cpp:113] Setting up reLU3
I0427 17:35:17.752276  2369 net.cpp:120] Top shape: 256 64 4 4 (262144)
I0427 17:35:17.752286  2369 layer_factory.hpp:74] Creating layer pool3
I0427 17:35:17.752297  2369 net.cpp:84] Creating Layer pool3
I0427 17:35:17.752303  2369 net.cpp:380] pool3 <- conv3
I0427 17:35:17.752311  2369 net.cpp:338] pool3 -> pool3
I0427 17:35:17.752320  2369 net.cpp:113] Setting up pool3
I0427 17:35:17.752372  2369 net.cpp:120] Top shape: 256 64 2 2 (65536)
I0427 17:35:17.752380  2369 layer_factory.hpp:74] Creating layer norm1
I0427 17:35:17.752393  2369 net.cpp:84] Creating Layer norm1
I0427 17:35:17.752399  2369 net.cpp:380] norm1 <- pool3
I0427 17:35:17.752408  2369 net.cpp:338] norm1 -> norm1
I0427 17:35:17.752418  2369 net.cpp:113] Setting up norm1
I0427 17:35:17.752430  2369 net.cpp:120] Top shape: 256 64 2 2 (65536)
I0427 17:35:17.752436  2369 layer_factory.hpp:74] Creating layer ip1
I0427 17:35:17.752449  2369 net.cpp:84] Creating Layer ip1
I0427 17:35:17.752454  2369 net.cpp:380] ip1 <- norm1
I0427 17:35:17.752462  2369 net.cpp:338] ip1 -> ip1
I0427 17:35:17.752473  2369 net.cpp:113] Setting up ip1
I0427 17:35:17.752746  2369 net.cpp:120] Top shape: 256 128 (32768)
I0427 17:35:17.752759  2369 layer_factory.hpp:74] Creating layer ip2
I0427 17:35:17.752769  2369 net.cpp:84] Creating Layer ip2
I0427 17:35:17.752775  2369 net.cpp:380] ip2 <- ip1
I0427 17:35:17.752784  2369 net.cpp:338] ip2 -> ip2
I0427 17:35:17.752794  2369 net.cpp:113] Setting up ip2
I0427 17:35:17.752923  2369 net.cpp:120] Top shape: 256 128 (32768)
I0427 17:35:17.752935  2369 layer_factory.hpp:74] Creating layer ip3
I0427 17:35:17.752945  2369 net.cpp:84] Creating Layer ip3
I0427 17:35:17.752950  2369 net.cpp:380] ip3 <- ip2
I0427 17:35:17.752959  2369 net.cpp:338] ip3 -> ip3
I0427 17:35:17.752966  2369 net.cpp:113] Setting up ip3
I0427 17:35:17.753100  2369 net.cpp:120] Top shape: 256 121 (30976)
I0427 17:35:17.753109  2369 layer_factory.hpp:74] Creating layer ip3_ip3_0_split
I0427 17:35:17.753118  2369 net.cpp:84] Creating Layer ip3_ip3_0_split
I0427 17:35:17.753124  2369 net.cpp:380] ip3_ip3_0_split <- ip3
I0427 17:35:17.753132  2369 net.cpp:338] ip3_ip3_0_split -> ip3_ip3_0_split_0
I0427 17:35:17.753141  2369 net.cpp:338] ip3_ip3_0_split -> ip3_ip3_0_split_1
I0427 17:35:17.753149  2369 net.cpp:113] Setting up ip3_ip3_0_split
I0427 17:35:17.753157  2369 net.cpp:120] Top shape: 256 121 (30976)
I0427 17:35:17.753164  2369 net.cpp:120] Top shape: 256 121 (30976)
I0427 17:35:17.753170  2369 layer_factory.hpp:74] Creating layer accuracy
I0427 17:35:17.753185  2369 net.cpp:84] Creating Layer accuracy
I0427 17:35:17.753190  2369 net.cpp:380] accuracy <- ip3_ip3_0_split_0
I0427 17:35:17.753197  2369 net.cpp:380] accuracy <- label_ndsb_1_split_0
I0427 17:35:17.753206  2369 net.cpp:338] accuracy -> accuracy
I0427 17:35:17.753216  2369 net.cpp:113] Setting up accuracy
…
