…
I0426 15:02:13.092496  2631 net.cpp:257] The NetState phase (0) differed from the phase (1) specified by a rule in layer accuracy
I0426 15:02:13.092725  2631 net.cpp:42] Initializing net from parameters: 
name: "SeaNet"
state {
  phase: TRAIN
}
layer {
  name: "ndsb"
  type: "Data"
  top: "data"
  top: "label"
  include {
    phase: TRAIN
  }
  transform_param {
    scale: 0.00390625
    mean_file: "./train_all_48_mean.binaryproto"
  }
  data_param {
    source: "/home/nitini/data_files/cross_val_files/cv_training_lmdb"
    batch_size: 256
    backend: LMDB
  }
}
layer {
  name: "conv1"
  type: "Convolution"
  bottom: "data"
  top: "conv1"
  param {
    lr_mult: 1
  }
  param {
    lr_mult: 2
  }
  convolution_param {
    num_output: 128
    kernel_size: 5
    stride: 2
    weight_filler {
      type: "xavier"
    }
    bias_filler {
      type: "constant"
    }
  }
}
layer {
  name: "reLU1"
  type: "ReLU"
  bottom: "conv1"
  top: "conv1"
}
layer {
  name: "norm1"
  type: "LRN"
  bottom: "conv1"
  top: "norm1"
  lrn_param {
    local_size: 5
    alpha: 0.0001
    beta: 0.75
  }
}
layer {
  name: "conv2"
  type: "Convolution"
  bottom: "norm1"
  top: "conv2"
  param {
    lr_mult: 1
  }
  param {
    lr_mult: 2
  }
  convolution_param {
    num_output: 128
    kernel_size: 4
    stride: 2
    weight_filler {
      type: "xavier"
    }
    bias_filler {
      type: "constant"
    }
  }
}
layer {
  name: "reLU2"
  type: "ReLU"
  bottom: "conv2"
  top: "conv2"
}
layer {
  name: "norm2"
  type: "LRN"
  bottom: "conv2"
  top: "norm2"
  lrn_param {
    local_size: 5
    alpha: 0.0001
    beta: 0.75
  }
}
layer {
  name: "dropout1"
  type: "Dropout"
  bottom: "norm2"
  top: "norm2"
  dropout_param {
    dropout_ratio: 0.5
  }
}
layer {
  name: "conv3"
  type: "Convolution"
  bottom: "norm2"
  top: "conv3"
  param {
    lr_mult: 1
  }
  param {
    lr_mult: 2
  }
  convolution_param {
    num_output: 128
    kernel_size: 3
    stride: 2
    weight_filler {
      type: "xavier"
    }
    bias_filler {
      type: "constant"
    }
  }
}
layer {
  name: "reLU3"
  type: "ReLU"
  bottom: "conv3"
  top: "conv3"
}
layer {
  name: "norm3"
  type: "LRN"
  bottom: "conv3"
  top: "norm3"
  lrn_param {
    local_size: 5
    alpha: 0.0001
    beta: 0.75
  }
}
layer {
  name: "conv4"
  type: "Convolution"
  bottom: "norm3"
  top: "conv4"
  param {
    lr_mult: 1
  }
  param {
    lr_mult: 2
  }
  convolution_param {
    num_output: 128
    kernel_size: 2
    stride: 2
    weight_filler {
      type: "xavier"
    }
    bias_filler {
      type: "constant"
    }
  }
}
layer {
  name: "pool1"
  type: "Pooling"
  bottom: "conv4"
  top: "pool1"
  pooling_param {
    pool: MAX
    kernel_size: 3
    stride: 3
  }
}
layer {
  name: "norm4"
  type: "LRN"
  bottom: "pool1"
  top: "norm4"
  lrn_param {
    local_size: 5
    alpha: 0.0001
    beta: 0.75
  }
}
layer {
  name: "dropout2"
  type: "Dropout"
  bottom: "norm4"
  top: "norm4"
  dropout_param {
    dropout_ratio: 0.5
  }
}
layer {
  name: "ip1"
  type: "InnerProduct"
  bottom: "norm4"
  top: "ip1"
  param {
    lr_mult: 1
  }
  param {
    lr_mult: 2
  }
  inner_product_param {
    num_output: 512
    weight_filler {
      type: "xavier"
    }
    bias_filler {
      type: "constant"
    }
  }
}
layer {
  name: "reLU4"
  type: "ReLU"
  bottom: "ip1"
  top: "ip1"
}
layer {
  name: "dropout3"
  type: "Dropout"
  bottom: "ip1"
  top: "ip1"
  dropout_param {
    dropout_ratio: 0.5
  }
}
layer {
  name: "ip2"
  type: "InnerProduct"
  bottom: "ip1"
  top: "ip2"
  param {
    lr_mult: 1
  }
  param {
    lr_mult: 2
  }
  inner_product_param {
    num_output: 256
    weight_filler {
      type: "xavier"
      std: 0.01
    }
    bias_filler {
      type: "constant"
      value: 0
    }
  }
}
layer {
  name: "reLU5"
  type: "ReLU"
  bottom: "ip2"
  top: "ip2"
}
layer {
  name: "dropout4"
  type: "Dropout"
  bottom: "ip2"
  top: "ip2"
  dropout_param {
    dropout_ratio: 0.5
  }
}
layer {
  name: "ip3"
  type: "InnerProduct"
  bottom: "ip2"
  top: "ip3"
  param {
    lr_mult: 1
  }
  param {
    lr_mult: 2
  }
  inner_product_param {
    num_output: 121
    weight_filler {
      type: "xavier"
      std: 0.01
    }
    bias_filler {
      type: "constant"
      value: 0
    }
  }
}
layer {
  name: "loss"
  type: "SoftmaxWithLoss"
  bottom: "ip3"
  bottom: "label"
  top: "loss"
}
I0426 15:02:13.092896  2631 layer_factory.hpp:74] Creating layer ndsb
I0426 15:02:13.092922  2631 net.cpp:84] Creating Layer ndsb
I0426 15:02:13.092934  2631 net.cpp:338] ndsb -> data
I0426 15:02:13.092969  2631 net.cpp:338] ndsb -> label
I0426 15:02:13.092986  2631 net.cpp:113] Setting up ndsb
I0426 15:02:13.471698  2631 db.cpp:34] Opened lmdb /home/nitini/data_files/cross_val_files/cv_training_lmdb
I0426 15:02:13.502729  2631 data_layer.cpp:67] output data size: 256,3,48,48
I0426 15:02:13.502748  2631 data_transformer.cpp:22] Loading mean file from: ./train_all_48_mean.binaryproto
I0426 15:02:13.599917  2631 net.cpp:120] Top shape: 256 3 48 48 (1769472)
I0426 15:02:13.599934  2631 net.cpp:120] Top shape: 256 (256)
I0426 15:02:13.599943  2631 layer_factory.hpp:74] Creating layer conv1
I0426 15:02:13.600003  2631 net.cpp:84] Creating Layer conv1
I0426 15:02:13.600015  2631 net.cpp:380] conv1 <- data
I0426 15:02:13.600035  2631 net.cpp:338] conv1 -> conv1
I0426 15:02:13.600060  2631 net.cpp:113] Setting up conv1
I0426 15:02:15.680037  2631 net.cpp:120] Top shape: 256 128 22 22 (15859712)
I0426 15:02:15.680089  2631 layer_factory.hpp:74] Creating layer reLU1
I0426 15:02:15.680110  2631 net.cpp:84] Creating Layer reLU1
I0426 15:02:15.680119  2631 net.cpp:380] reLU1 <- conv1
I0426 15:02:15.680129  2631 net.cpp:327] reLU1 -> conv1 (in-place)
I0426 15:02:15.680141  2631 net.cpp:113] Setting up reLU1
I0426 15:02:15.680289  2631 net.cpp:120] Top shape: 256 128 22 22 (15859712)
I0426 15:02:15.680301  2631 layer_factory.hpp:74] Creating layer norm1
I0426 15:02:15.680316  2631 net.cpp:84] Creating Layer norm1
I0426 15:02:15.680323  2631 net.cpp:380] norm1 <- conv1
I0426 15:02:15.680331  2631 net.cpp:338] norm1 -> norm1
I0426 15:02:15.680342  2631 net.cpp:113] Setting up norm1
I0426 15:02:15.680357  2631 net.cpp:120] Top shape: 256 128 22 22 (15859712)
I0426 15:02:15.680363  2631 layer_factory.hpp:74] Creating layer conv2
I0426 15:02:15.680377  2631 net.cpp:84] Creating Layer conv2
I0426 15:02:15.680382  2631 net.cpp:380] conv2 <- norm1
I0426 15:02:15.680390  2631 net.cpp:338] conv2 -> conv2
I0426 15:02:15.680402  2631 net.cpp:113] Setting up conv2
I0426 15:02:15.682847  2631 net.cpp:120] Top shape: 256 128 10 10 (3276800)
I0426 15:02:15.682865  2631 layer_factory.hpp:74] Creating layer reLU2
I0426 15:02:15.682874  2631 net.cpp:84] Creating Layer reLU2
I0426 15:02:15.682880  2631 net.cpp:380] reLU2 <- conv2
I0426 15:02:15.682888  2631 net.cpp:327] reLU2 -> conv2 (in-place)
I0426 15:02:15.682896  2631 net.cpp:113] Setting up reLU2
I0426 15:02:15.682945  2631 net.cpp:120] Top shape: 256 128 10 10 (3276800)
I0426 15:02:15.682953  2631 layer_factory.hpp:74] Creating layer norm2
I0426 15:02:15.682961  2631 net.cpp:84] Creating Layer norm2
I0426 15:02:15.682967  2631 net.cpp:380] norm2 <- conv2
I0426 15:02:15.682975  2631 net.cpp:338] norm2 -> norm2
I0426 15:02:15.682982  2631 net.cpp:113] Setting up norm2
I0426 15:02:15.682991  2631 net.cpp:120] Top shape: 256 128 10 10 (3276800)
I0426 15:02:15.682997  2631 layer_factory.hpp:74] Creating layer dropout1
I0426 15:02:15.683013  2631 net.cpp:84] Creating Layer dropout1
I0426 15:02:15.683051  2631 net.cpp:380] dropout1 <- norm2
I0426 15:02:15.683060  2631 net.cpp:327] dropout1 -> norm2 (in-place)
I0426 15:02:15.683070  2631 net.cpp:113] Setting up dropout1
I0426 15:02:15.683084  2631 net.cpp:120] Top shape: 256 128 10 10 (3276800)
I0426 15:02:15.683090  2631 layer_factory.hpp:74] Creating layer conv3
I0426 15:02:15.683100  2631 net.cpp:84] Creating Layer conv3
I0426 15:02:15.683106  2631 net.cpp:380] conv3 <- norm2
I0426 15:02:15.683115  2631 net.cpp:338] conv3 -> conv3
I0426 15:02:15.683122  2631 net.cpp:113] Setting up conv3
I0426 15:02:15.684682  2631 net.cpp:120] Top shape: 256 128 4 4 (524288)
I0426 15:02:15.684701  2631 layer_factory.hpp:74] Creating layer reLU3
I0426 15:02:15.684710  2631 net.cpp:84] Creating Layer reLU3
I0426 15:02:15.684716  2631 net.cpp:380] reLU3 <- conv3
I0426 15:02:15.684725  2631 net.cpp:327] reLU3 -> conv3 (in-place)
I0426 15:02:15.684732  2631 net.cpp:113] Setting up reLU3
I0426 15:02:15.684782  2631 net.cpp:120] Top shape: 256 128 4 4 (524288)
I0426 15:02:15.684790  2631 layer_factory.hpp:74] Creating layer norm3
I0426 15:02:15.684798  2631 net.cpp:84] Creating Layer norm3
I0426 15:02:15.684804  2631 net.cpp:380] norm3 <- conv3
I0426 15:02:15.684811  2631 net.cpp:338] norm3 -> norm3
I0426 15:02:15.684819  2631 net.cpp:113] Setting up norm3
I0426 15:02:15.684828  2631 net.cpp:120] Top shape: 256 128 4 4 (524288)
I0426 15:02:15.684834  2631 layer_factory.hpp:74] Creating layer conv4
I0426 15:02:15.684842  2631 net.cpp:84] Creating Layer conv4
I0426 15:02:15.684847  2631 net.cpp:380] conv4 <- norm3
I0426 15:02:15.684855  2631 net.cpp:338] conv4 -> conv4
I0426 15:02:15.684864  2631 net.cpp:113] Setting up conv4
I0426 15:02:15.685564  2631 net.cpp:120] Top shape: 256 128 2 2 (131072)
I0426 15:02:15.685582  2631 layer_factory.hpp:74] Creating layer pool1
I0426 15:02:15.685600  2631 net.cpp:84] Creating Layer pool1
I0426 15:02:15.685606  2631 net.cpp:380] pool1 <- conv4
I0426 15:02:15.685613  2631 net.cpp:338] pool1 -> pool1
I0426 15:02:15.685622  2631 net.cpp:113] Setting up pool1
I0426 15:02:15.685775  2631 net.cpp:120] Top shape: 256 128 1 1 (32768)
I0426 15:02:15.685786  2631 layer_factory.hpp:74] Creating layer norm4
I0426 15:02:15.685796  2631 net.cpp:84] Creating Layer norm4
I0426 15:02:15.685801  2631 net.cpp:380] norm4 <- pool1
I0426 15:02:15.685809  2631 net.cpp:338] norm4 -> norm4
I0426 15:02:15.685820  2631 net.cpp:113] Setting up norm4
I0426 15:02:15.685830  2631 net.cpp:120] Top shape: 256 128 1 1 (32768)
I0426 15:02:15.685835  2631 layer_factory.hpp:74] Creating layer dropout2
I0426 15:02:15.685843  2631 net.cpp:84] Creating Layer dropout2
I0426 15:02:15.685848  2631 net.cpp:380] dropout2 <- norm4
I0426 15:02:15.685855  2631 net.cpp:327] dropout2 -> norm4 (in-place)
I0426 15:02:15.685863  2631 net.cpp:113] Setting up dropout2
I0426 15:02:15.685870  2631 net.cpp:120] Top shape: 256 128 1 1 (32768)
I0426 15:02:15.685876  2631 layer_factory.hpp:74] Creating layer ip1
I0426 15:02:15.685888  2631 net.cpp:84] Creating Layer ip1
I0426 15:02:15.685894  2631 net.cpp:380] ip1 <- norm4
I0426 15:02:15.685905  2631 net.cpp:338] ip1 -> ip1
I0426 15:02:15.685917  2631 net.cpp:113] Setting up ip1
I0426 15:02:15.686468  2631 net.cpp:120] Top shape: 256 512 (131072)
I0426 15:02:15.686486  2631 layer_factory.hpp:74] Creating layer reLU4
I0426 15:02:15.686496  2631 net.cpp:84] Creating Layer reLU4
I0426 15:02:15.686502  2631 net.cpp:380] reLU4 <- ip1
I0426 15:02:15.686511  2631 net.cpp:327] reLU4 -> ip1 (in-place)
I0426 15:02:15.686519  2631 net.cpp:113] Setting up reLU4
I0426 15:02:15.686576  2631 net.cpp:120] Top shape: 256 512 (131072)
I0426 15:02:15.686584  2631 layer_factory.hpp:74] Creating layer dropout3
I0426 15:02:15.686594  2631 net.cpp:84] Creating Layer dropout3
I0426 15:02:15.686599  2631 net.cpp:380] dropout3 <- ip1
I0426 15:02:15.686607  2631 net.cpp:327] dropout3 -> ip1 (in-place)
I0426 15:02:15.686615  2631 net.cpp:113] Setting up dropout3
I0426 15:02:15.686625  2631 net.cpp:120] Top shape: 256 512 (131072)
I0426 15:02:15.686635  2631 layer_factory.hpp:74] Creating layer ip2
I0426 15:02:15.686657  2631 net.cpp:84] Creating Layer ip2
I0426 15:02:15.686663  2631 net.cpp:380] ip2 <- ip1
I0426 15:02:15.686672  2631 net.cpp:338] ip2 -> ip2
I0426 15:02:15.686682  2631 net.cpp:113] Setting up ip2
I0426 15:02:15.687729  2631 net.cpp:120] Top shape: 256 256 (65536)
I0426 15:02:15.687743  2631 layer_factory.hpp:74] Creating layer reLU5
I0426 15:02:15.687752  2631 net.cpp:84] Creating Layer reLU5
I0426 15:02:15.687757  2631 net.cpp:380] reLU5 <- ip2
I0426 15:02:15.687765  2631 net.cpp:327] reLU5 -> ip2 (in-place)
I0426 15:02:15.687773  2631 net.cpp:113] Setting up reLU5
I0426 15:02:15.687832  2631 net.cpp:120] Top shape: 256 256 (65536)
I0426 15:02:15.687840  2631 layer_factory.hpp:74] Creating layer dropout4
I0426 15:02:15.687849  2631 net.cpp:84] Creating Layer dropout4
I0426 15:02:15.687854  2631 net.cpp:380] dropout4 <- ip2
I0426 15:02:15.687860  2631 net.cpp:327] dropout4 -> ip2 (in-place)
I0426 15:02:15.687867  2631 net.cpp:113] Setting up dropout4
I0426 15:02:15.687875  2631 net.cpp:120] Top shape: 256 256 (65536)
I0426 15:02:15.687880  2631 layer_factory.hpp:74] Creating layer ip3
I0426 15:02:15.687891  2631 net.cpp:84] Creating Layer ip3
I0426 15:02:15.687896  2631 net.cpp:380] ip3 <- ip2
I0426 15:02:15.687906  2631 net.cpp:338] ip3 -> ip3
I0426 15:02:15.687914  2631 net.cpp:113] Setting up ip3
I0426 15:02:15.688174  2631 net.cpp:120] Top shape: 256 121 (30976)
I0426 15:02:15.688186  2631 layer_factory.hpp:74] Creating layer loss
I0426 15:02:15.688199  2631 net.cpp:84] Creating Layer loss
I0426 15:02:15.688205  2631 net.cpp:380] loss <- ip3
I0426 15:02:15.688211  2631 net.cpp:380] loss <- label
I0426 15:02:15.688221  2631 net.cpp:338] loss -> loss
I0426 15:02:15.688232  2631 net.cpp:113] Setting up loss
I0426 15:02:15.688242  2631 layer_factory.hpp:74] Creating layer loss
…
I0426 15:02:15.751466  2631 net.cpp:257] The NetState phase (1) differed from the phase (0) specified by a rule in layer ndsb
I0426 15:02:15.751719  2631 net.cpp:42] Initializing net from parameters: 
name: "SeaNet"
state {
  phase: TEST
}
layer {
  name: "ndsb"
  type: "Data"
  top: "data"
  top: "label"
  include {
    phase: TEST
  }
  transform_param {
    scale: 0.00390625
    mean_file: "./train_all_48_mean.binaryproto"
  }
  data_param {
    source: "/home/nitini/data_files/cross_val_files/cv_holdout_lmdb"
    batch_size: 256
    backend: LMDB
  }
}
layer {
  name: "conv1"
  type: "Convolution"
  bottom: "data"
  top: "conv1"
  param {
    lr_mult: 1
  }
  param {
    lr_mult: 2
  }
  convolution_param {
    num_output: 128
    kernel_size: 5
    stride: 2
    weight_filler {
      type: "xavier"
    }
    bias_filler {
      type: "constant"
    }
  }
}
layer {
  name: "reLU1"
  type: "ReLU"
  bottom: "conv1"
  top: "conv1"
}
layer {
  name: "norm1"
  type: "LRN"
  bottom: "conv1"
  top: "norm1"
  lrn_param {
    local_size: 5
    alpha: 0.0001
    beta: 0.75
  }
}
layer {
  name: "conv2"
  type: "Convolution"
  bottom: "norm1"
  top: "conv2"
  param {
    lr_mult: 1
  }
  param {
    lr_mult: 2
  }
  convolution_param {
    num_output: 128
    kernel_size: 4
    stride: 2
    weight_filler {
      type: "xavier"
    }
    bias_filler {
      type: "constant"
    }
  }
}
layer {
  name: "reLU2"
  type: "ReLU"
  bottom: "conv2"
  top: "conv2"
}
layer {
  name: "norm2"
  type: "LRN"
  bottom: "conv2"
  top: "norm2"
  lrn_param {
    local_size: 5
    alpha: 0.0001
    beta: 0.75
  }
}
layer {
  name: "dropout1"
  type: "Dropout"
  bottom: "norm2"
  top: "norm2"
  dropout_param {
    dropout_ratio: 0.5
  }
}
layer {
  name: "conv3"
  type: "Convolution"
  bottom: "norm2"
  top: "conv3"
  param {
    lr_mult: 1
  }
  param {
    lr_mult: 2
  }
  convolution_param {
    num_output: 128
    kernel_size: 3
    stride: 2
    weight_filler {
      type: "xavier"
    }
    bias_filler {
      type: "constant"
    }
  }
}
layer {
  name: "reLU3"
  type: "ReLU"
  bottom: "conv3"
  top: "conv3"
}
layer {
  name: "norm3"
  type: "LRN"
  bottom: "conv3"
  top: "norm3"
  lrn_param {
    local_size: 5
    alpha: 0.0001
    beta: 0.75
  }
}
layer {
  name: "conv4"
  type: "Convolution"
  bottom: "norm3"
  top: "conv4"
  param {
    lr_mult: 1
  }
  param {
    lr_mult: 2
  }
  convolution_param {
    num_output: 128
    kernel_size: 2
    stride: 2
    weight_filler {
      type: "xavier"
    }
    bias_filler {
      type: "constant"
    }
  }
}
layer {
  name: "pool1"
  type: "Pooling"
  bottom: "conv4"
  top: "pool1"
  pooling_param {
    pool: MAX
    kernel_size: 3
    stride: 3
  }
}
layer {
  name: "norm4"
  type: "LRN"
  bottom: "pool1"
  top: "norm4"
  lrn_param {
    local_size: 5
    alpha: 0.0001
    beta: 0.75
  }
}
layer {
  name: "dropout2"
  type: "Dropout"
  bottom: "norm4"
  top: "norm4"
  dropout_param {
    dropout_ratio: 0.5
  }
}
layer {
  name: "ip1"
  type: "InnerProduct"
  bottom: "norm4"
  top: "ip1"
  param {
    lr_mult: 1
  }
  param {
    lr_mult: 2
  }
  inner_product_param {
    num_output: 512
    weight_filler {
      type: "xavier"
    }
    bias_filler {
      type: "constant"
    }
  }
}
layer {
  name: "reLU4"
  type: "ReLU"
  bottom: "ip1"
  top: "ip1"
}
layer {
  name: "dropout3"
  type: "Dropout"
  bottom: "ip1"
  top: "ip1"
  dropout_param {
    dropout_ratio: 0.5
  }
}
layer {
  name: "ip2"
  type: "InnerProduct"
  bottom: "ip1"
  top: "ip2"
  param {
    lr_mult: 1
  }
  param {
    lr_mult: 2
  }
  inner_product_param {
    num_output: 256
    weight_filler {
      type: "xavier"
      std: 0.01
    }
    bias_filler {
      type: "constant"
      value: 0
    }
  }
}
layer {
  name: "reLU5"
  type: "ReLU"
  bottom: "ip2"
  top: "ip2"
}
layer {
  name: "dropout4"
  type: "Dropout"
  bottom: "ip2"
  top: "ip2"
  dropout_param {
    dropout_ratio: 0.5
  }
}
layer {
  name: "ip3"
  type: "InnerProduct"
  bottom: "ip2"
  top: "ip3"
  param {
    lr_mult: 1
  }
  param {
    lr_mult: 2
  }
  inner_product_param {
    num_output: 121
    weight_filler {
      type: "xavier"
      std: 0.01
    }
    bias_filler {
      type: "constant"
      value: 0
    }
  }
}
layer {
  name: "accuracy"
  type: "Accuracy"
  bottom: "ip3"
  bottom: "label"
  top: "accuracy"
  include {
    phase: TEST
  }
}
layer {
  name: "loss"
  type: "SoftmaxWithLoss"
  bottom: "ip3"
  bottom: "label"
  top: "loss"
}
I0426 15:02:15.751864  2631 layer_factory.hpp:74] Creating layer ndsb
I0426 15:02:15.751878  2631 net.cpp:84] Creating Layer ndsb
I0426 15:02:15.751886  2631 net.cpp:338] ndsb -> data
I0426 15:02:15.751898  2631 net.cpp:338] ndsb -> label
I0426 15:02:15.751906  2631 net.cpp:113] Setting up ndsb
I0426 15:02:16.065084  2631 db.cpp:34] Opened lmdb /home/nitini/data_files/cross_val_files/cv_holdout_lmdb
I0426 15:02:16.096936  2631 data_layer.cpp:67] output data size: 256,3,48,48
I0426 15:02:16.096953  2631 data_transformer.cpp:22] Loading mean file from: ./train_all_48_mean.binaryproto
I0426 15:02:16.162714  2631 net.cpp:120] Top shape: 256 3 48 48 (1769472)
I0426 15:02:16.162729  2631 net.cpp:120] Top shape: 256 (256)
I0426 15:02:16.162736  2631 layer_factory.hpp:74] Creating layer label_ndsb_1_split
I0426 15:02:16.162750  2631 net.cpp:84] Creating Layer label_ndsb_1_split
I0426 15:02:16.162755  2631 net.cpp:380] label_ndsb_1_split <- label
I0426 15:02:16.162765  2631 net.cpp:338] label_ndsb_1_split -> label_ndsb_1_split_0
I0426 15:02:16.162775  2631 net.cpp:338] label_ndsb_1_split -> label_ndsb_1_split_1
I0426 15:02:16.162782  2631 net.cpp:113] Setting up label_ndsb_1_split
I0426 15:02:16.162792  2631 net.cpp:120] Top shape: 256 (256)
I0426 15:02:16.162798  2631 net.cpp:120] Top shape: 256 (256)
I0426 15:02:16.162803  2631 layer_factory.hpp:74] Creating layer conv1
I0426 15:02:16.162813  2631 net.cpp:84] Creating Layer conv1
I0426 15:02:16.162819  2631 net.cpp:380] conv1 <- data
I0426 15:02:16.162827  2631 net.cpp:338] conv1 -> conv1
I0426 15:02:16.162837  2631 net.cpp:113] Setting up conv1
I0426 15:02:16.163223  2631 net.cpp:120] Top shape: 256 128 22 22 (15859712)
I0426 15:02:16.163244  2631 layer_factory.hpp:74] Creating layer reLU1
I0426 15:02:16.163254  2631 net.cpp:84] Creating Layer reLU1
I0426 15:02:16.163264  2631 net.cpp:380] reLU1 <- conv1
I0426 15:02:16.163276  2631 net.cpp:327] reLU1 -> conv1 (in-place)
I0426 15:02:16.163287  2631 net.cpp:113] Setting up reLU1
I0426 15:02:16.163434  2631 net.cpp:120] Top shape: 256 128 22 22 (15859712)
I0426 15:02:16.163446  2631 layer_factory.hpp:74] Creating layer norm1
I0426 15:02:16.163472  2631 net.cpp:84] Creating Layer norm1
I0426 15:02:16.163480  2631 net.cpp:380] norm1 <- conv1
I0426 15:02:16.163488  2631 net.cpp:338] norm1 -> norm1
I0426 15:02:16.163497  2631 net.cpp:113] Setting up norm1
I0426 15:02:16.163511  2631 net.cpp:120] Top shape: 256 128 22 22 (15859712)
I0426 15:02:16.163517  2631 layer_factory.hpp:74] Creating layer conv2
I0426 15:02:16.163527  2631 net.cpp:84] Creating Layer conv2
I0426 15:02:16.163532  2631 net.cpp:380] conv2 <- norm1
I0426 15:02:16.163542  2631 net.cpp:338] conv2 -> conv2
I0426 15:02:16.163550  2631 net.cpp:113] Setting up conv2
I0426 15:02:16.166033  2631 net.cpp:120] Top shape: 256 128 10 10 (3276800)
I0426 15:02:16.166054  2631 layer_factory.hpp:74] Creating layer reLU2
I0426 15:02:16.166062  2631 net.cpp:84] Creating Layer reLU2
I0426 15:02:16.166069  2631 net.cpp:380] reLU2 <- conv2
I0426 15:02:16.166079  2631 net.cpp:327] reLU2 -> conv2 (in-place)
I0426 15:02:16.166087  2631 net.cpp:113] Setting up reLU2
I0426 15:02:16.166152  2631 net.cpp:120] Top shape: 256 128 10 10 (3276800)
I0426 15:02:16.166159  2631 layer_factory.hpp:74] Creating layer norm2
I0426 15:02:16.166167  2631 net.cpp:84] Creating Layer norm2
I0426 15:02:16.166173  2631 net.cpp:380] norm2 <- conv2
I0426 15:02:16.166182  2631 net.cpp:338] norm2 -> norm2
I0426 15:02:16.166193  2631 net.cpp:113] Setting up norm2
I0426 15:02:16.166206  2631 net.cpp:120] Top shape: 256 128 10 10 (3276800)
I0426 15:02:16.166231  2631 layer_factory.hpp:74] Creating layer dropout1
I0426 15:02:16.166241  2631 net.cpp:84] Creating Layer dropout1
I0426 15:02:16.166247  2631 net.cpp:380] dropout1 <- norm2
I0426 15:02:16.166256  2631 net.cpp:327] dropout1 -> norm2 (in-place)
I0426 15:02:16.166265  2631 net.cpp:113] Setting up dropout1
I0426 15:02:16.166275  2631 net.cpp:120] Top shape: 256 128 10 10 (3276800)
I0426 15:02:16.166280  2631 layer_factory.hpp:74] Creating layer conv3
I0426 15:02:16.166288  2631 net.cpp:84] Creating Layer conv3
I0426 15:02:16.166293  2631 net.cpp:380] conv3 <- norm2
I0426 15:02:16.166303  2631 net.cpp:338] conv3 -> conv3
I0426 15:02:16.166313  2631 net.cpp:113] Setting up conv3
I0426 15:02:16.167841  2631 net.cpp:120] Top shape: 256 128 4 4 (524288)
I0426 15:02:16.167861  2631 layer_factory.hpp:74] Creating layer reLU3
I0426 15:02:16.167872  2631 net.cpp:84] Creating Layer reLU3
I0426 15:02:16.167878  2631 net.cpp:380] reLU3 <- conv3
I0426 15:02:16.167886  2631 net.cpp:327] reLU3 -> conv3 (in-place)
I0426 15:02:16.167894  2631 net.cpp:113] Setting up reLU3
I0426 15:02:16.167953  2631 net.cpp:120] Top shape: 256 128 4 4 (524288)
I0426 15:02:16.167961  2631 layer_factory.hpp:74] Creating layer norm3
I0426 15:02:16.167969  2631 net.cpp:84] Creating Layer norm3
I0426 15:02:16.167975  2631 net.cpp:380] norm3 <- conv3
I0426 15:02:16.167984  2631 net.cpp:338] norm3 -> norm3
I0426 15:02:16.167994  2631 net.cpp:113] Setting up norm3
I0426 15:02:16.168002  2631 net.cpp:120] Top shape: 256 128 4 4 (524288)
I0426 15:02:16.168007  2631 layer_factory.hpp:74] Creating layer conv4
I0426 15:02:16.168018  2631 net.cpp:84] Creating Layer conv4
I0426 15:02:16.168025  2631 net.cpp:380] conv4 <- norm3
I0426 15:02:16.168031  2631 net.cpp:338] conv4 -> conv4
I0426 15:02:16.168040  2631 net.cpp:113] Setting up conv4
I0426 15:02:16.168874  2631 net.cpp:120] Top shape: 256 128 2 2 (131072)
I0426 15:02:16.168889  2631 layer_factory.hpp:74] Creating layer pool1
I0426 15:02:16.168902  2631 net.cpp:84] Creating Layer pool1
I0426 15:02:16.168910  2631 net.cpp:380] pool1 <- conv4
I0426 15:02:16.168916  2631 net.cpp:338] pool1 -> pool1
I0426 15:02:16.168926  2631 net.cpp:113] Setting up pool1
I0426 15:02:16.168992  2631 net.cpp:120] Top shape: 256 128 1 1 (32768)
I0426 15:02:16.169003  2631 layer_factory.hpp:74] Creating layer norm4
I0426 15:02:16.169013  2631 net.cpp:84] Creating Layer norm4
I0426 15:02:16.169018  2631 net.cpp:380] norm4 <- pool1
I0426 15:02:16.169026  2631 net.cpp:338] norm4 -> norm4
I0426 15:02:16.169034  2631 net.cpp:113] Setting up norm4
I0426 15:02:16.169042  2631 net.cpp:120] Top shape: 256 128 1 1 (32768)
I0426 15:02:16.169049  2631 layer_factory.hpp:74] Creating layer dropout2
I0426 15:02:16.169055  2631 net.cpp:84] Creating Layer dropout2
I0426 15:02:16.169060  2631 net.cpp:380] dropout2 <- norm4
I0426 15:02:16.169070  2631 net.cpp:327] dropout2 -> norm4 (in-place)
I0426 15:02:16.169078  2631 net.cpp:113] Setting up dropout2
I0426 15:02:16.169086  2631 net.cpp:120] Top shape: 256 128 1 1 (32768)
I0426 15:02:16.169092  2631 layer_factory.hpp:74] Creating layer ip1
I0426 15:02:16.169103  2631 net.cpp:84] Creating Layer ip1
I0426 15:02:16.169108  2631 net.cpp:380] ip1 <- norm4
I0426 15:02:16.169118  2631 net.cpp:338] ip1 -> ip1
I0426 15:02:16.169127  2631 net.cpp:113] Setting up ip1
I0426 15:02:16.169706  2631 net.cpp:120] Top shape: 256 512 (131072)
I0426 15:02:16.169720  2631 layer_factory.hpp:74] Creating layer reLU4
I0426 15:02:16.169729  2631 net.cpp:84] Creating Layer reLU4
I0426 15:02:16.169734  2631 net.cpp:380] reLU4 <- ip1
I0426 15:02:16.169741  2631 net.cpp:327] reLU4 -> ip1 (in-place)
I0426 15:02:16.169749  2631 net.cpp:113] Setting up reLU4
I0426 15:02:16.169895  2631 net.cpp:120] Top shape: 256 512 (131072)
I0426 15:02:16.169909  2631 layer_factory.hpp:74] Creating layer dropout3
I0426 15:02:16.169917  2631 net.cpp:84] Creating Layer dropout3
I0426 15:02:16.169922  2631 net.cpp:380] dropout3 <- ip1
I0426 15:02:16.169934  2631 net.cpp:327] dropout3 -> ip1 (in-place)
I0426 15:02:16.169958  2631 net.cpp:113] Setting up dropout3
I0426 15:02:16.169970  2631 net.cpp:120] Top shape: 256 512 (131072)
I0426 15:02:16.169975  2631 layer_factory.hpp:74] Creating layer ip2
I0426 15:02:16.169986  2631 net.cpp:84] Creating Layer ip2
I0426 15:02:16.169993  2631 net.cpp:380] ip2 <- ip1
I0426 15:02:16.170003  2631 net.cpp:338] ip2 -> ip2
I0426 15:02:16.170012  2631 net.cpp:113] Setting up ip2
I0426 15:02:16.171149  2631 net.cpp:120] Top shape: 256 256 (65536)
I0426 15:02:16.171162  2631 layer_factory.hpp:74] Creating layer reLU5
I0426 15:02:16.171171  2631 net.cpp:84] Creating Layer reLU5
I0426 15:02:16.171176  2631 net.cpp:380] reLU5 <- ip2
I0426 15:02:16.171185  2631 net.cpp:327] reLU5 -> ip2 (in-place)
I0426 15:02:16.171193  2631 net.cpp:113] Setting up reLU5
I0426 15:02:16.171254  2631 net.cpp:120] Top shape: 256 256 (65536)
I0426 15:02:16.171262  2631 layer_factory.hpp:74] Creating layer dropout4
I0426 15:02:16.171270  2631 net.cpp:84] Creating Layer dropout4
I0426 15:02:16.171275  2631 net.cpp:380] dropout4 <- ip2
I0426 15:02:16.171283  2631 net.cpp:327] dropout4 -> ip2 (in-place)
I0426 15:02:16.171293  2631 net.cpp:113] Setting up dropout4
I0426 15:02:16.171300  2631 net.cpp:120] Top shape: 256 256 (65536)
I0426 15:02:16.171306  2631 layer_factory.hpp:74] Creating layer ip3
I0426 15:02:16.171318  2631 net.cpp:84] Creating Layer ip3
I0426 15:02:16.171324  2631 net.cpp:380] ip3 <- ip2
I0426 15:02:16.171330  2631 net.cpp:338] ip3 -> ip3
I0426 15:02:16.171339  2631 net.cpp:113] Setting up ip3
I0426 15:02:16.171627  2631 net.cpp:120] Top shape: 256 121 (30976)
I0426 15:02:16.171638  2631 layer_factory.hpp:74] Creating layer ip3_ip3_0_split
I0426 15:02:16.171646  2631 net.cpp:84] Creating Layer ip3_ip3_0_split
I0426 15:02:16.171651  2631 net.cpp:380] ip3_ip3_0_split <- ip3
I0426 15:02:16.171661  2631 net.cpp:338] ip3_ip3_0_split -> ip3_ip3_0_split_0
I0426 15:02:16.171671  2631 net.cpp:338] ip3_ip3_0_split -> ip3_ip3_0_split_1
I0426 15:02:16.171679  2631 net.cpp:113] Setting up ip3_ip3_0_split
I0426 15:02:16.171687  2631 net.cpp:120] Top shape: 256 121 (30976)
I0426 15:02:16.171694  2631 net.cpp:120] Top shape: 256 121 (30976)
I0426 15:02:16.171700  2631 layer_factory.hpp:74] Creating layer accuracy
I0426 15:02:16.171711  2631 net.cpp:84] Creating Layer accuracy
I0426 15:02:16.171717  2631 net.cpp:380] accuracy <- ip3_ip3_0_split_0
I0426 15:02:16.171723  2631 net.cpp:380] accuracy <- label_ndsb_1_split_0
I0426 15:02:16.171732  2631 net.cpp:338] accuracy -> accuracy
I0426 15:02:16.171741  2631 net.cpp:113] Setting up accuracy
…
