…
I0427 03:42:18.298451  2383 net.cpp:257] The NetState phase (0) differed from the phase (1) specified by a rule in layer accuracy
I0427 03:42:18.298691  2383 net.cpp:42] Initializing net from parameters: 
name: "SeaNet"
state {
  phase: TRAIN
}
layer {
  name: "ndsb"
  type: "Data"
  top: "data"
  top: "label"
  include {
    phase: TRAIN
  }
  transform_param {
    scale: 0.00390625
    mean_file: "./train_all_48_mean.binaryproto"
  }
  data_param {
    source: "/home/nitini/data_files/cross_val_files/cv_training_lmdb"
    batch_size: 256
    backend: LMDB
  }
}
layer {
  name: "conv1"
  type: "Convolution"
  bottom: "data"
  top: "conv1"
  param {
    lr_mult: 1
  }
  param {
    lr_mult: 2
  }
  convolution_param {
    num_output: 128
    kernel_size: 3
    stride: 2
    weight_filler {
      type: "xavier"
    }
    bias_filler {
      type: "constant"
    }
  }
}
layer {
  name: "reLU1"
  type: "ReLU"
  bottom: "conv1"
  top: "conv1"
}
layer {
  name: "norm1"
  type: "LRN"
  bottom: "conv1"
  top: "norm1"
  lrn_param {
    local_size: 5
    alpha: 0.0001
    beta: 0.75
  }
}
layer {
  name: "conv2"
  type: "Convolution"
  bottom: "norm1"
  top: "conv2"
  param {
    lr_mult: 1
  }
  param {
    lr_mult: 2
  }
  convolution_param {
    num_output: 128
    kernel_size: 3
    stride: 1
    weight_filler {
      type: "xavier"
    }
    bias_filler {
      type: "constant"
    }
  }
}
layer {
  name: "reLU2"
  type: "ReLU"
  bottom: "conv2"
  top: "conv2"
}
layer {
  name: "norm2"
  type: "LRN"
  bottom: "conv2"
  top: "norm2"
  lrn_param {
    local_size: 5
    alpha: 0.0001
    beta: 0.75
  }
}
layer {
  name: "dropout1"
  type: "Dropout"
  bottom: "norm2"
  top: "norm2"
  dropout_param {
    dropout_ratio: 0.5
  }
}
layer {
  name: "conv3"
  type: "Convolution"
  bottom: "norm2"
  top: "conv3"
  param {
    lr_mult: 1
  }
  param {
    lr_mult: 2
  }
  convolution_param {
    num_output: 256
    kernel_size: 2
    stride: 2
    weight_filler {
      type: "xavier"
    }
    bias_filler {
      type: "constant"
    }
  }
}
layer {
  name: "reLU3"
  type: "ReLU"
  bottom: "conv3"
  top: "conv3"
}
layer {
  name: "norm3"
  type: "LRN"
  bottom: "conv3"
  top: "norm3"
  lrn_param {
    local_size: 5
    alpha: 0.0001
    beta: 0.75
  }
}
layer {
  name: "conv4"
  type: "Convolution"
  bottom: "norm3"
  top: "conv4"
  param {
    lr_mult: 1
  }
  param {
    lr_mult: 2
  }
  convolution_param {
    num_output: 256
    kernel_size: 2
    stride: 1
    weight_filler {
      type: "xavier"
    }
    bias_filler {
      type: "constant"
    }
  }
}
layer {
  name: "pool1"
  type: "Pooling"
  bottom: "conv4"
  top: "pool1"
  pooling_param {
    pool: MAX
    kernel_size: 3
    stride: 3
  }
}
layer {
  name: "norm4"
  type: "LRN"
  bottom: "pool1"
  top: "norm4"
  lrn_param {
    local_size: 5
    alpha: 0.0001
    beta: 0.75
  }
}
layer {
  name: "dropout2"
  type: "Dropout"
  bottom: "norm4"
  top: "norm4"
  dropout_param {
    dropout_ratio: 0.5
  }
}
layer {
  name: "ip1"
  type: "InnerProduct"
  bottom: "norm4"
  top: "ip1"
  param {
    lr_mult: 1
  }
  param {
    lr_mult: 2
  }
  inner_product_param {
    num_output: 256
    weight_filler {
      type: "xavier"
    }
    bias_filler {
      type: "constant"
    }
  }
}
layer {
  name: "reLU4"
  type: "ReLU"
  bottom: "ip1"
  top: "ip1"
}
layer {
  name: "dropout3"
  type: "Dropout"
  bottom: "ip1"
  top: "ip1"
  dropout_param {
    dropout_ratio: 0.5
  }
}
layer {
  name: "ip2"
  type: "InnerProduct"
  bottom: "ip1"
  top: "ip2"
  param {
    lr_mult: 1
  }
  param {
    lr_mult: 2
  }
  inner_product_param {
    num_output: 256
    weight_filler {
      type: "xavier"
      std: 0.01
    }
    bias_filler {
      type: "constant"
      value: 0
    }
  }
}
layer {
  name: "reLU5"
  type: "ReLU"
  bottom: "ip2"
  top: "ip2"
}
layer {
  name: "dropout4"
  type: "Dropout"
  bottom: "ip2"
  top: "ip2"
  dropout_param {
    dropout_ratio: 0.5
  }
}
layer {
  name: "ip3"
  type: "InnerProduct"
  bottom: "ip2"
  top: "ip3"
  param {
    lr_mult: 1
  }
  param {
    lr_mult: 2
  }
  inner_product_param {
    num_output: 121
    weight_filler {
      type: "xavier"
      std: 0.01
    }
    bias_filler {
      type: "constant"
      value: 0
    }
  }
}
layer {
  name: "loss"
  type: "SoftmaxWithLoss"
  bottom: "ip3"
  bottom: "label"
  top: "loss"
}
I0427 03:42:18.298878  2383 layer_factory.hpp:74] Creating layer ndsb
I0427 03:42:18.300251  2383 net.cpp:84] Creating Layer ndsb
I0427 03:42:18.300271  2383 net.cpp:338] ndsb -> data
I0427 03:42:18.300315  2383 net.cpp:338] ndsb -> label
I0427 03:42:18.300336  2383 net.cpp:113] Setting up ndsb
I0427 03:42:18.734045  2383 db.cpp:34] Opened lmdb /home/nitini/data_files/cross_val_files/cv_training_lmdb
I0427 03:42:19.665550  2383 data_layer.cpp:67] output data size: 256,3,48,48
I0427 03:42:19.665601  2383 data_transformer.cpp:22] Loading mean file from: ./train_all_48_mean.binaryproto
I0427 03:42:20.217339  2383 net.cpp:120] Top shape: 256 3 48 48 (1769472)
I0427 03:42:20.217376  2383 net.cpp:120] Top shape: 256 (256)
I0427 03:42:20.217389  2383 layer_factory.hpp:74] Creating layer conv1
I0427 03:42:20.217419  2383 net.cpp:84] Creating Layer conv1
I0427 03:42:20.217432  2383 net.cpp:380] conv1 <- data
I0427 03:42:20.217453  2383 net.cpp:338] conv1 -> conv1
I0427 03:42:20.217473  2383 net.cpp:113] Setting up conv1
I0427 03:42:26.443879  2383 net.cpp:120] Top shape: 256 128 23 23 (17334272)
I0427 03:42:26.474771  2383 layer_factory.hpp:74] Creating layer reLU1
I0427 03:42:26.474799  2383 net.cpp:84] Creating Layer reLU1
I0427 03:42:26.474809  2383 net.cpp:380] reLU1 <- conv1
I0427 03:42:26.474820  2383 net.cpp:327] reLU1 -> conv1 (in-place)
I0427 03:42:26.474833  2383 net.cpp:113] Setting up reLU1
I0427 03:42:26.475901  2383 net.cpp:120] Top shape: 256 128 23 23 (17334272)
I0427 03:42:26.475919  2383 layer_factory.hpp:74] Creating layer norm1
I0427 03:42:26.475934  2383 net.cpp:84] Creating Layer norm1
I0427 03:42:26.475940  2383 net.cpp:380] norm1 <- conv1
I0427 03:42:26.475950  2383 net.cpp:338] norm1 -> norm1
I0427 03:42:26.475961  2383 net.cpp:113] Setting up norm1
I0427 03:42:26.475975  2383 net.cpp:120] Top shape: 256 128 23 23 (17334272)
I0427 03:42:26.475981  2383 layer_factory.hpp:74] Creating layer conv2
I0427 03:42:26.475997  2383 net.cpp:84] Creating Layer conv2
I0427 03:42:26.476003  2383 net.cpp:380] conv2 <- norm1
I0427 03:42:26.476012  2383 net.cpp:338] conv2 -> conv2
I0427 03:42:26.476024  2383 net.cpp:113] Setting up conv2
I0427 03:42:26.477391  2383 net.cpp:120] Top shape: 256 128 21 21 (14450688)
I0427 03:42:26.477409  2383 layer_factory.hpp:74] Creating layer reLU2
I0427 03:42:26.477421  2383 net.cpp:84] Creating Layer reLU2
I0427 03:42:26.477427  2383 net.cpp:380] reLU2 <- conv2
I0427 03:42:26.477434  2383 net.cpp:327] reLU2 -> conv2 (in-place)
I0427 03:42:26.477442  2383 net.cpp:113] Setting up reLU2
I0427 03:42:26.477496  2383 net.cpp:120] Top shape: 256 128 21 21 (14450688)
I0427 03:42:26.477505  2383 layer_factory.hpp:74] Creating layer norm2
I0427 03:42:26.477514  2383 net.cpp:84] Creating Layer norm2
I0427 03:42:26.477520  2383 net.cpp:380] norm2 <- conv2
I0427 03:42:26.477529  2383 net.cpp:338] norm2 -> norm2
I0427 03:42:26.477537  2383 net.cpp:113] Setting up norm2
I0427 03:42:26.477546  2383 net.cpp:120] Top shape: 256 128 21 21 (14450688)
I0427 03:42:26.477552  2383 layer_factory.hpp:74] Creating layer dropout1
I0427 03:42:26.477571  2383 net.cpp:84] Creating Layer dropout1
I0427 03:42:26.477610  2383 net.cpp:380] dropout1 <- norm2
I0427 03:42:26.477619  2383 net.cpp:327] dropout1 -> norm2 (in-place)
I0427 03:42:26.477632  2383 net.cpp:113] Setting up dropout1
I0427 03:42:26.477644  2383 net.cpp:120] Top shape: 256 128 21 21 (14450688)
I0427 03:42:26.477650  2383 layer_factory.hpp:74] Creating layer conv3
I0427 03:42:26.477663  2383 net.cpp:84] Creating Layer conv3
I0427 03:42:26.477669  2383 net.cpp:380] conv3 <- norm2
I0427 03:42:26.477676  2383 net.cpp:338] conv3 -> conv3
I0427 03:42:26.477685  2383 net.cpp:113] Setting up conv3
I0427 03:42:26.479028  2383 net.cpp:120] Top shape: 256 256 10 10 (6553600)
I0427 03:42:26.479049  2383 layer_factory.hpp:74] Creating layer reLU3
I0427 03:42:26.479059  2383 net.cpp:84] Creating Layer reLU3
I0427 03:42:26.479066  2383 net.cpp:380] reLU3 <- conv3
I0427 03:42:26.479074  2383 net.cpp:327] reLU3 -> conv3 (in-place)
I0427 03:42:26.479081  2383 net.cpp:113] Setting up reLU3
I0427 03:42:26.479132  2383 net.cpp:120] Top shape: 256 256 10 10 (6553600)
I0427 03:42:26.479140  2383 layer_factory.hpp:74] Creating layer norm3
I0427 03:42:26.479151  2383 net.cpp:84] Creating Layer norm3
I0427 03:42:26.479156  2383 net.cpp:380] norm3 <- conv3
I0427 03:42:26.479164  2383 net.cpp:338] norm3 -> norm3
I0427 03:42:26.479172  2383 net.cpp:113] Setting up norm3
I0427 03:42:26.479182  2383 net.cpp:120] Top shape: 256 256 10 10 (6553600)
I0427 03:42:26.479187  2383 layer_factory.hpp:74] Creating layer conv4
I0427 03:42:26.479197  2383 net.cpp:84] Creating Layer conv4
I0427 03:42:26.479203  2383 net.cpp:380] conv4 <- norm3
I0427 03:42:26.479212  2383 net.cpp:338] conv4 -> conv4
I0427 03:42:26.479236  2383 net.cpp:113] Setting up conv4
I0427 03:42:26.481712  2383 net.cpp:120] Top shape: 256 256 9 9 (5308416)
I0427 03:42:26.481731  2383 layer_factory.hpp:74] Creating layer pool1
I0427 03:42:26.481753  2383 net.cpp:84] Creating Layer pool1
I0427 03:42:26.481760  2383 net.cpp:380] pool1 <- conv4
I0427 03:42:26.481768  2383 net.cpp:338] pool1 -> pool1
I0427 03:42:26.481778  2383 net.cpp:113] Setting up pool1
I0427 03:42:26.481936  2383 net.cpp:120] Top shape: 256 256 3 3 (589824)
I0427 03:42:26.481948  2383 layer_factory.hpp:74] Creating layer norm4
I0427 03:42:26.481958  2383 net.cpp:84] Creating Layer norm4
I0427 03:42:26.481964  2383 net.cpp:380] norm4 <- pool1
I0427 03:42:26.481972  2383 net.cpp:338] norm4 -> norm4
I0427 03:42:26.481981  2383 net.cpp:113] Setting up norm4
I0427 03:42:26.481991  2383 net.cpp:120] Top shape: 256 256 3 3 (589824)
I0427 03:42:26.481997  2383 layer_factory.hpp:74] Creating layer dropout2
I0427 03:42:26.482004  2383 net.cpp:84] Creating Layer dropout2
I0427 03:42:26.482010  2383 net.cpp:380] dropout2 <- norm4
I0427 03:42:26.482017  2383 net.cpp:327] dropout2 -> norm4 (in-place)
I0427 03:42:26.482024  2383 net.cpp:113] Setting up dropout2
I0427 03:42:26.482035  2383 net.cpp:120] Top shape: 256 256 3 3 (589824)
I0427 03:42:26.482044  2383 layer_factory.hpp:74] Creating layer ip1
I0427 03:42:26.482059  2383 net.cpp:84] Creating Layer ip1
I0427 03:42:26.482064  2383 net.cpp:380] ip1 <- norm4
I0427 03:42:26.482072  2383 net.cpp:338] ip1 -> ip1
I0427 03:42:26.482084  2383 net.cpp:113] Setting up ip1
I0427 03:42:26.487134  2383 net.cpp:120] Top shape: 256 256 (65536)
I0427 03:42:26.487172  2383 layer_factory.hpp:74] Creating layer reLU4
I0427 03:42:26.487189  2383 net.cpp:84] Creating Layer reLU4
I0427 03:42:26.487195  2383 net.cpp:380] reLU4 <- ip1
I0427 03:42:26.487205  2383 net.cpp:327] reLU4 -> ip1 (in-place)
I0427 03:42:26.487227  2383 net.cpp:113] Setting up reLU4
I0427 03:42:26.487313  2383 net.cpp:120] Top shape: 256 256 (65536)
I0427 03:42:26.487323  2383 layer_factory.hpp:74] Creating layer dropout3
I0427 03:42:26.487332  2383 net.cpp:84] Creating Layer dropout3
I0427 03:42:26.487339  2383 net.cpp:380] dropout3 <- ip1
I0427 03:42:26.487346  2383 net.cpp:327] dropout3 -> ip1 (in-place)
I0427 03:42:26.487354  2383 net.cpp:113] Setting up dropout3
I0427 03:42:26.487373  2383 net.cpp:120] Top shape: 256 256 (65536)
I0427 03:42:26.487413  2383 layer_factory.hpp:74] Creating layer ip2
I0427 03:42:26.487426  2383 net.cpp:84] Creating Layer ip2
I0427 03:42:26.487432  2383 net.cpp:380] ip2 <- ip1
I0427 03:42:26.487439  2383 net.cpp:338] ip2 -> ip2
I0427 03:42:26.487450  2383 net.cpp:113] Setting up ip2
I0427 03:42:26.487978  2383 net.cpp:120] Top shape: 256 256 (65536)
I0427 03:42:26.487992  2383 layer_factory.hpp:74] Creating layer reLU5
I0427 03:42:26.487999  2383 net.cpp:84] Creating Layer reLU5
I0427 03:42:26.488004  2383 net.cpp:380] reLU5 <- ip2
I0427 03:42:26.488013  2383 net.cpp:327] reLU5 -> ip2 (in-place)
I0427 03:42:26.488019  2383 net.cpp:113] Setting up reLU5
I0427 03:42:26.488075  2383 net.cpp:120] Top shape: 256 256 (65536)
I0427 03:42:26.488082  2383 layer_factory.hpp:74] Creating layer dropout4
I0427 03:42:26.488091  2383 net.cpp:84] Creating Layer dropout4
I0427 03:42:26.488096  2383 net.cpp:380] dropout4 <- ip2
I0427 03:42:26.488103  2383 net.cpp:327] dropout4 -> ip2 (in-place)
I0427 03:42:26.488111  2383 net.cpp:113] Setting up dropout4
I0427 03:42:26.488119  2383 net.cpp:120] Top shape: 256 256 (65536)
I0427 03:42:26.488124  2383 layer_factory.hpp:74] Creating layer ip3
I0427 03:42:26.488134  2383 net.cpp:84] Creating Layer ip3
I0427 03:42:26.488140  2383 net.cpp:380] ip3 <- ip2
I0427 03:42:26.488148  2383 net.cpp:338] ip3 -> ip3
I0427 03:42:26.488157  2383 net.cpp:113] Setting up ip3
I0427 03:42:26.488461  2383 net.cpp:120] Top shape: 256 121 (30976)
I0427 03:42:26.488473  2383 layer_factory.hpp:74] Creating layer loss
I0427 03:42:26.488487  2383 net.cpp:84] Creating Layer loss
I0427 03:42:26.488492  2383 net.cpp:380] loss <- ip3
I0427 03:42:26.488499  2383 net.cpp:380] loss <- label
I0427 03:42:26.488510  2383 net.cpp:338] loss -> loss
I0427 03:42:26.489137  2383 net.cpp:113] Setting up loss
I0427 03:42:26.489159  2383 layer_factory.hpp:74] Creating layer loss
…
I0427 03:42:26.584388  2383 net.cpp:257] The NetState phase (1) differed from the phase (0) specified by a rule in layer ndsb
I0427 03:42:26.584655  2383 net.cpp:42] Initializing net from parameters: 
name: "SeaNet"
state {
  phase: TEST
}
layer {
  name: "ndsb"
  type: "Data"
  top: "data"
  top: "label"
  include {
    phase: TEST
  }
  transform_param {
    scale: 0.00390625
    mean_file: "./train_all_48_mean.binaryproto"
  }
  data_param {
    source: "/home/nitini/data_files/cross_val_files/cv_holdout_lmdb"
    batch_size: 256
    backend: LMDB
  }
}
layer {
  name: "conv1"
  type: "Convolution"
  bottom: "data"
  top: "conv1"
  param {
    lr_mult: 1
  }
  param {
    lr_mult: 2
  }
  convolution_param {
    num_output: 128
    kernel_size: 3
    stride: 2
    weight_filler {
      type: "xavier"
    }
    bias_filler {
      type: "constant"
    }
  }
}
layer {
  name: "reLU1"
  type: "ReLU"
  bottom: "conv1"
  top: "conv1"
}
layer {
  name: "norm1"
  type: "LRN"
  bottom: "conv1"
  top: "norm1"
  lrn_param {
    local_size: 5
    alpha: 0.0001
    beta: 0.75
  }
}
layer {
  name: "conv2"
  type: "Convolution"
  bottom: "norm1"
  top: "conv2"
  param {
    lr_mult: 1
  }
  param {
    lr_mult: 2
  }
  convolution_param {
    num_output: 128
    kernel_size: 3
    stride: 1
    weight_filler {
      type: "xavier"
    }
    bias_filler {
      type: "constant"
    }
  }
}
layer {
  name: "reLU2"
  type: "ReLU"
  bottom: "conv2"
  top: "conv2"
}
layer {
  name: "norm2"
  type: "LRN"
  bottom: "conv2"
  top: "norm2"
  lrn_param {
    local_size: 5
    alpha: 0.0001
    beta: 0.75
  }
}
layer {
  name: "dropout1"
  type: "Dropout"
  bottom: "norm2"
  top: "norm2"
  dropout_param {
    dropout_ratio: 0.5
  }
}
layer {
  name: "conv3"
  type: "Convolution"
  bottom: "norm2"
  top: "conv3"
  param {
    lr_mult: 1
  }
  param {
    lr_mult: 2
  }
  convolution_param {
    num_output: 256
    kernel_size: 2
    stride: 2
    weight_filler {
      type: "xavier"
    }
    bias_filler {
      type: "constant"
    }
  }
}
layer {
  name: "reLU3"
  type: "ReLU"
  bottom: "conv3"
  top: "conv3"
}
layer {
  name: "norm3"
  type: "LRN"
  bottom: "conv3"
  top: "norm3"
  lrn_param {
    local_size: 5
    alpha: 0.0001
    beta: 0.75
  }
}
layer {
  name: "conv4"
  type: "Convolution"
  bottom: "norm3"
  top: "conv4"
  param {
    lr_mult: 1
  }
  param {
    lr_mult: 2
  }
  convolution_param {
    num_output: 256
    kernel_size: 2
    stride: 1
    weight_filler {
      type: "xavier"
    }
    bias_filler {
      type: "constant"
    }
  }
}
layer {
  name: "pool1"
  type: "Pooling"
  bottom: "conv4"
  top: "pool1"
  pooling_param {
    pool: MAX
    kernel_size: 3
    stride: 3
  }
}
layer {
  name: "norm4"
  type: "LRN"
  bottom: "pool1"
  top: "norm4"
  lrn_param {
    local_size: 5
    alpha: 0.0001
    beta: 0.75
  }
}
layer {
  name: "dropout2"
  type: "Dropout"
  bottom: "norm4"
  top: "norm4"
  dropout_param {
    dropout_ratio: 0.5
  }
}
layer {
  name: "ip1"
  type: "InnerProduct"
  bottom: "norm4"
  top: "ip1"
  param {
    lr_mult: 1
  }
  param {
    lr_mult: 2
  }
  inner_product_param {
    num_output: 256
    weight_filler {
      type: "xavier"
    }
    bias_filler {
      type: "constant"
    }
  }
}
layer {
  name: "reLU4"
  type: "ReLU"
  bottom: "ip1"
  top: "ip1"
}
layer {
  name: "dropout3"
  type: "Dropout"
  bottom: "ip1"
  top: "ip1"
  dropout_param {
    dropout_ratio: 0.5
  }
}
layer {
  name: "ip2"
  type: "InnerProduct"
  bottom: "ip1"
  top: "ip2"
  param {
    lr_mult: 1
  }
  param {
    lr_mult: 2
  }
  inner_product_param {
    num_output: 256
    weight_filler {
      type: "xavier"
      std: 0.01
    }
    bias_filler {
      type: "constant"
      value: 0
    }
  }
}
layer {
  name: "reLU5"
  type: "ReLU"
  bottom: "ip2"
  top: "ip2"
}
layer {
  name: "dropout4"
  type: "Dropout"
  bottom: "ip2"
  top: "ip2"
  dropout_param {
    dropout_ratio: 0.5
  }
}
layer {
  name: "ip3"
  type: "InnerProduct"
  bottom: "ip2"
  top: "ip3"
  param {
    lr_mult: 1
  }
  param {
    lr_mult: 2
  }
  inner_product_param {
    num_output: 121
    weight_filler {
      type: "xavier"
      std: 0.01
    }
    bias_filler {
      type: "constant"
      value: 0
    }
  }
}
layer {
  name: "accuracy"
  type: "Accuracy"
  bottom: "ip3"
  bottom: "label"
  top: "accuracy"
  include {
    phase: TEST
  }
}
layer {
  name: "loss"
  type: "SoftmaxWithLoss"
  bottom: "ip3"
  bottom: "label"
  top: "loss"
}
I0427 03:42:26.584816  2383 layer_factory.hpp:74] Creating layer ndsb
I0427 03:42:26.584835  2383 net.cpp:84] Creating Layer ndsb
I0427 03:42:26.584842  2383 net.cpp:338] ndsb -> data
I0427 03:42:26.584858  2383 net.cpp:338] ndsb -> label
I0427 03:42:26.584868  2383 net.cpp:113] Setting up ndsb
I0427 03:42:26.865908  2383 db.cpp:34] Opened lmdb /home/nitini/data_files/cross_val_files/cv_holdout_lmdb
I0427 03:42:27.155143  2383 data_layer.cpp:67] output data size: 256,3,48,48
I0427 03:42:27.155192  2383 data_transformer.cpp:22] Loading mean file from: ./train_all_48_mean.binaryproto
I0427 03:42:27.900750  2383 net.cpp:120] Top shape: 256 3 48 48 (1769472)
I0427 03:42:27.900787  2383 net.cpp:120] Top shape: 256 (256)
I0427 03:42:27.900799  2383 layer_factory.hpp:74] Creating layer label_ndsb_1_split
I0427 03:42:27.900823  2383 net.cpp:84] Creating Layer label_ndsb_1_split
I0427 03:42:27.900831  2383 net.cpp:380] label_ndsb_1_split <- label
I0427 03:42:27.900842  2383 net.cpp:338] label_ndsb_1_split -> label_ndsb_1_split_0
I0427 03:42:27.900858  2383 net.cpp:338] label_ndsb_1_split -> label_ndsb_1_split_1
I0427 03:42:27.900866  2383 net.cpp:113] Setting up label_ndsb_1_split
I0427 03:42:27.900877  2383 net.cpp:120] Top shape: 256 (256)
I0427 03:42:27.900884  2383 net.cpp:120] Top shape: 256 (256)
I0427 03:42:27.900890  2383 layer_factory.hpp:74] Creating layer conv1
I0427 03:42:27.900904  2383 net.cpp:84] Creating Layer conv1
I0427 03:42:27.900910  2383 net.cpp:380] conv1 <- data
I0427 03:42:27.900918  2383 net.cpp:338] conv1 -> conv1
I0427 03:42:27.900929  2383 net.cpp:113] Setting up conv1
I0427 03:42:27.901377  2383 net.cpp:120] Top shape: 256 128 23 23 (17334272)
I0427 03:42:27.901401  2383 layer_factory.hpp:74] Creating layer reLU1
I0427 03:42:27.901412  2383 net.cpp:84] Creating Layer reLU1
I0427 03:42:27.901418  2383 net.cpp:380] reLU1 <- conv1
I0427 03:42:27.901425  2383 net.cpp:327] reLU1 -> conv1 (in-place)
I0427 03:42:27.901434  2383 net.cpp:113] Setting up reLU1
I0427 03:42:27.901587  2383 net.cpp:120] Top shape: 256 128 23 23 (17334272)
I0427 03:42:27.901602  2383 layer_factory.hpp:74] Creating layer norm1
I0427 03:42:27.901618  2383 net.cpp:84] Creating Layer norm1
I0427 03:42:27.901623  2383 net.cpp:380] norm1 <- conv1
I0427 03:42:27.901634  2383 net.cpp:338] norm1 -> norm1
I0427 03:42:27.901644  2383 net.cpp:113] Setting up norm1
I0427 03:42:27.901654  2383 net.cpp:120] Top shape: 256 128 23 23 (17334272)
I0427 03:42:27.901659  2383 layer_factory.hpp:74] Creating layer conv2
I0427 03:42:27.901672  2383 net.cpp:84] Creating Layer conv2
I0427 03:42:27.901679  2383 net.cpp:380] conv2 <- norm1
I0427 03:42:27.901686  2383 net.cpp:338] conv2 -> conv2
I0427 03:42:27.901695  2383 net.cpp:113] Setting up conv2
I0427 03:42:27.903247  2383 net.cpp:120] Top shape: 256 128 21 21 (14450688)
I0427 03:42:27.903275  2383 layer_factory.hpp:74] Creating layer reLU2
I0427 03:42:27.903285  2383 net.cpp:84] Creating Layer reLU2
I0427 03:42:27.903291  2383 net.cpp:380] reLU2 <- conv2
I0427 03:42:27.903303  2383 net.cpp:327] reLU2 -> conv2 (in-place)
I0427 03:42:27.903313  2383 net.cpp:113] Setting up reLU2
I0427 03:42:27.903381  2383 net.cpp:120] Top shape: 256 128 21 21 (14450688)
I0427 03:42:27.903391  2383 layer_factory.hpp:74] Creating layer norm2
I0427 03:42:27.903403  2383 net.cpp:84] Creating Layer norm2
I0427 03:42:27.903409  2383 net.cpp:380] norm2 <- conv2
I0427 03:42:27.903416  2383 net.cpp:338] norm2 -> norm2
I0427 03:42:27.903426  2383 net.cpp:113] Setting up norm2
I0427 03:42:27.903441  2383 net.cpp:120] Top shape: 256 128 21 21 (14450688)
I0427 03:42:27.903487  2383 layer_factory.hpp:74] Creating layer dropout1
I0427 03:42:27.903499  2383 net.cpp:84] Creating Layer dropout1
I0427 03:42:27.903506  2383 net.cpp:380] dropout1 <- norm2
I0427 03:42:27.903514  2383 net.cpp:327] dropout1 -> norm2 (in-place)
I0427 03:42:27.903523  2383 net.cpp:113] Setting up dropout1
I0427 03:42:27.903532  2383 net.cpp:120] Top shape: 256 128 21 21 (14450688)
I0427 03:42:27.903538  2383 layer_factory.hpp:74] Creating layer conv3
I0427 03:42:27.903550  2383 net.cpp:84] Creating Layer conv3
I0427 03:42:27.903556  2383 net.cpp:380] conv3 <- norm2
I0427 03:42:27.903564  2383 net.cpp:338] conv3 -> conv3
I0427 03:42:27.903576  2383 net.cpp:113] Setting up conv3
I0427 03:42:27.905016  2383 net.cpp:120] Top shape: 256 256 10 10 (6553600)
I0427 03:42:27.905045  2383 layer_factory.hpp:74] Creating layer reLU3
I0427 03:42:27.905056  2383 net.cpp:84] Creating Layer reLU3
I0427 03:42:27.905062  2383 net.cpp:380] reLU3 <- conv3
I0427 03:42:27.905076  2383 net.cpp:327] reLU3 -> conv3 (in-place)
I0427 03:42:27.905086  2383 net.cpp:113] Setting up reLU3
I0427 03:42:27.905145  2383 net.cpp:120] Top shape: 256 256 10 10 (6553600)
I0427 03:42:27.905154  2383 layer_factory.hpp:74] Creating layer norm3
I0427 03:42:27.905164  2383 net.cpp:84] Creating Layer norm3
I0427 03:42:27.905170  2383 net.cpp:380] norm3 <- conv3
I0427 03:42:27.905177  2383 net.cpp:338] norm3 -> norm3
I0427 03:42:27.905186  2383 net.cpp:113] Setting up norm3
I0427 03:42:27.905195  2383 net.cpp:120] Top shape: 256 256 10 10 (6553600)
I0427 03:42:27.905200  2383 layer_factory.hpp:74] Creating layer conv4
I0427 03:42:27.905226  2383 net.cpp:84] Creating Layer conv4
I0427 03:42:27.905235  2383 net.cpp:380] conv4 <- norm3
I0427 03:42:27.905244  2383 net.cpp:338] conv4 -> conv4
I0427 03:42:27.905254  2383 net.cpp:113] Setting up conv4
I0427 03:42:27.907862  2383 net.cpp:120] Top shape: 256 256 9 9 (5308416)
I0427 03:42:27.907902  2383 layer_factory.hpp:74] Creating layer pool1
I0427 03:42:27.907919  2383 net.cpp:84] Creating Layer pool1
I0427 03:42:27.907927  2383 net.cpp:380] pool1 <- conv4
I0427 03:42:27.907940  2383 net.cpp:338] pool1 -> pool1
I0427 03:42:27.907953  2383 net.cpp:113] Setting up pool1
I0427 03:42:27.908020  2383 net.cpp:120] Top shape: 256 256 3 3 (589824)
I0427 03:42:27.908030  2383 layer_factory.hpp:74] Creating layer norm4
I0427 03:42:27.908042  2383 net.cpp:84] Creating Layer norm4
I0427 03:42:27.908048  2383 net.cpp:380] norm4 <- pool1
I0427 03:42:27.908056  2383 net.cpp:338] norm4 -> norm4
I0427 03:42:27.908066  2383 net.cpp:113] Setting up norm4
I0427 03:42:27.908076  2383 net.cpp:120] Top shape: 256 256 3 3 (589824)
I0427 03:42:27.908082  2383 layer_factory.hpp:74] Creating layer dropout2
I0427 03:42:27.908090  2383 net.cpp:84] Creating Layer dropout2
I0427 03:42:27.908095  2383 net.cpp:380] dropout2 <- norm4
I0427 03:42:27.908105  2383 net.cpp:327] dropout2 -> norm4 (in-place)
I0427 03:42:27.908113  2383 net.cpp:113] Setting up dropout2
I0427 03:42:27.908123  2383 net.cpp:120] Top shape: 256 256 3 3 (589824)
I0427 03:42:27.908128  2383 layer_factory.hpp:74] Creating layer ip1
I0427 03:42:27.908143  2383 net.cpp:84] Creating Layer ip1
I0427 03:42:27.908148  2383 net.cpp:380] ip1 <- norm4
I0427 03:42:27.908159  2383 net.cpp:338] ip1 -> ip1
I0427 03:42:27.908169  2383 net.cpp:113] Setting up ip1
I0427 03:42:27.913270  2383 net.cpp:120] Top shape: 256 256 (65536)
I0427 03:42:27.913310  2383 layer_factory.hpp:74] Creating layer reLU4
I0427 03:42:27.913323  2383 net.cpp:84] Creating Layer reLU4
I0427 03:42:27.913329  2383 net.cpp:380] reLU4 <- ip1
I0427 03:42:27.913339  2383 net.cpp:327] reLU4 -> ip1 (in-place)
I0427 03:42:27.913350  2383 net.cpp:113] Setting up reLU4
I0427 03:42:27.913590  2383 net.cpp:120] Top shape: 256 256 (65536)
I0427 03:42:27.913604  2383 layer_factory.hpp:74] Creating layer dropout3
I0427 03:42:27.913614  2383 net.cpp:84] Creating Layer dropout3
I0427 03:42:27.913619  2383 net.cpp:380] dropout3 <- ip1
I0427 03:42:27.913631  2383 net.cpp:327] dropout3 -> ip1 (in-place)
I0427 03:42:27.913681  2383 net.cpp:113] Setting up dropout3
I0427 03:42:27.913691  2383 net.cpp:120] Top shape: 256 256 (65536)
I0427 03:42:27.913697  2383 layer_factory.hpp:74] Creating layer ip2
I0427 03:42:27.913707  2383 net.cpp:84] Creating Layer ip2
I0427 03:42:27.913712  2383 net.cpp:380] ip2 <- ip1
I0427 03:42:27.913723  2383 net.cpp:338] ip2 -> ip2
I0427 03:42:27.913734  2383 net.cpp:113] Setting up ip2
I0427 03:42:27.914337  2383 net.cpp:120] Top shape: 256 256 (65536)
I0427 03:42:27.914352  2383 layer_factory.hpp:74] Creating layer reLU5
I0427 03:42:27.914363  2383 net.cpp:84] Creating Layer reLU5
I0427 03:42:27.914369  2383 net.cpp:380] reLU5 <- ip2
I0427 03:42:27.914376  2383 net.cpp:327] reLU5 -> ip2 (in-place)
I0427 03:42:27.914383  2383 net.cpp:113] Setting up reLU5
I0427 03:42:27.914445  2383 net.cpp:120] Top shape: 256 256 (65536)
I0427 03:42:27.914454  2383 layer_factory.hpp:74] Creating layer dropout4
I0427 03:42:27.914465  2383 net.cpp:84] Creating Layer dropout4
I0427 03:42:27.914470  2383 net.cpp:380] dropout4 <- ip2
I0427 03:42:27.914479  2383 net.cpp:327] dropout4 -> ip2 (in-place)
I0427 03:42:27.914485  2383 net.cpp:113] Setting up dropout4
I0427 03:42:27.914494  2383 net.cpp:120] Top shape: 256 256 (65536)
I0427 03:42:27.914499  2383 layer_factory.hpp:74] Creating layer ip3
I0427 03:42:27.914507  2383 net.cpp:84] Creating Layer ip3
I0427 03:42:27.914512  2383 net.cpp:380] ip3 <- ip2
I0427 03:42:27.914522  2383 net.cpp:338] ip3 -> ip3
I0427 03:42:27.914533  2383 net.cpp:113] Setting up ip3
I0427 03:42:27.914805  2383 net.cpp:120] Top shape: 256 121 (30976)
I0427 03:42:27.914816  2383 layer_factory.hpp:74] Creating layer ip3_ip3_0_split
I0427 03:42:27.914832  2383 net.cpp:84] Creating Layer ip3_ip3_0_split
I0427 03:42:27.914839  2383 net.cpp:380] ip3_ip3_0_split <- ip3
I0427 03:42:27.914845  2383 net.cpp:338] ip3_ip3_0_split -> ip3_ip3_0_split_0
I0427 03:42:27.914856  2383 net.cpp:338] ip3_ip3_0_split -> ip3_ip3_0_split_1
I0427 03:42:27.914867  2383 net.cpp:113] Setting up ip3_ip3_0_split
I0427 03:42:27.914876  2383 net.cpp:120] Top shape: 256 121 (30976)
I0427 03:42:27.914883  2383 net.cpp:120] Top shape: 256 121 (30976)
I0427 03:42:27.914888  2383 layer_factory.hpp:74] Creating layer accuracy
I0427 03:42:27.914903  2383 net.cpp:84] Creating Layer accuracy
I0427 03:42:27.914909  2383 net.cpp:380] accuracy <- ip3_ip3_0_split_0
I0427 03:42:27.914916  2383 net.cpp:380] accuracy <- label_ndsb_1_split_0
I0427 03:42:27.914923  2383 net.cpp:338] accuracy -> accuracy
I0427 03:42:27.914934  2383 net.cpp:113] Setting up accuracy
…
