…
I0427 11:42:56.772109  8627 net.cpp:257] The NetState phase (0) differed from the phase (1) specified by a rule in layer accuracy
I0427 11:42:56.772317  8627 net.cpp:42] Initializing net from parameters: 
name: "SeaNet"
state {
  phase: TRAIN
}
layer {
  name: "ndsb"
  type: "Data"
  top: "data"
  top: "label"
  include {
    phase: TRAIN
  }
  transform_param {
    scale: 0.00390625
    mean_file: "./train_all_48_mean.binaryproto"
  }
  data_param {
    source: "/home/nitini/data_files/cross_val_files/cv_training_lmdb"
    batch_size: 256
    backend: LMDB
  }
}
layer {
  name: "conv1"
  type: "Convolution"
  bottom: "data"
  top: "conv1"
  param {
    lr_mult: 1
  }
  param {
    lr_mult: 2
  }
  convolution_param {
    num_output: 128
    kernel_size: 3
    stride: 2
    weight_filler {
      type: "xavier"
    }
    bias_filler {
      type: "constant"
    }
  }
}
layer {
  name: "reLU1"
  type: "ReLU"
  bottom: "conv1"
  top: "conv1"
}
layer {
  name: "norm1"
  type: "LRN"
  bottom: "conv1"
  top: "norm1"
  lrn_param {
    local_size: 5
    alpha: 0.0001
    beta: 0.75
  }
}
layer {
  name: "conv2"
  type: "Convolution"
  bottom: "norm1"
  top: "conv2"
  param {
    lr_mult: 1
  }
  param {
    lr_mult: 2
  }
  convolution_param {
    num_output: 128
    kernel_size: 3
    stride: 1
    weight_filler {
      type: "xavier"
    }
    bias_filler {
      type: "constant"
    }
  }
}
layer {
  name: "reLU2"
  type: "ReLU"
  bottom: "conv2"
  top: "conv2"
}
layer {
  name: "norm2"
  type: "LRN"
  bottom: "conv2"
  top: "norm2"
  lrn_param {
    local_size: 5
    alpha: 0.0001
    beta: 0.75
  }
}
layer {
  name: "dropout1"
  type: "Dropout"
  bottom: "norm2"
  top: "norm2"
  dropout_param {
    dropout_ratio: 0.5
  }
}
layer {
  name: "conv3"
  type: "Convolution"
  bottom: "norm2"
  top: "conv3"
  param {
    lr_mult: 1
  }
  param {
    lr_mult: 2
  }
  convolution_param {
    num_output: 256
    kernel_size: 2
    stride: 2
    weight_filler {
      type: "xavier"
    }
    bias_filler {
      type: "constant"
    }
  }
}
layer {
  name: "reLU3"
  type: "ReLU"
  bottom: "conv3"
  top: "conv3"
}
layer {
  name: "norm3"
  type: "LRN"
  bottom: "conv3"
  top: "norm3"
  lrn_param {
    local_size: 5
    alpha: 0.0001
    beta: 0.75
  }
}
layer {
  name: "conv4"
  type: "Convolution"
  bottom: "norm3"
  top: "conv4"
  param {
    lr_mult: 1
  }
  param {
    lr_mult: 2
  }
  convolution_param {
    num_output: 256
    kernel_size: 2
    stride: 1
    weight_filler {
      type: "xavier"
    }
    bias_filler {
      type: "constant"
    }
  }
}
layer {
  name: "pool1"
  type: "Pooling"
  bottom: "conv4"
  top: "pool1"
  pooling_param {
    pool: MAX
    kernel_size: 3
    stride: 3
  }
}
layer {
  name: "norm4"
  type: "LRN"
  bottom: "pool1"
  top: "norm4"
  lrn_param {
    local_size: 5
    alpha: 0.0001
    beta: 0.75
  }
}
layer {
  name: "dropout2"
  type: "Dropout"
  bottom: "norm4"
  top: "norm4"
  dropout_param {
    dropout_ratio: 0.5
  }
}
layer {
  name: "ip1"
  type: "InnerProduct"
  bottom: "norm4"
  top: "ip1"
  param {
    lr_mult: 1
  }
  param {
    lr_mult: 2
  }
  inner_product_param {
    num_output: 256
    weight_filler {
      type: "xavier"
    }
    bias_filler {
      type: "constant"
    }
  }
}
layer {
  name: "reLU4"
  type: "ReLU"
  bottom: "ip1"
  top: "ip1"
}
layer {
  name: "dropout3"
  type: "Dropout"
  bottom: "ip1"
  top: "ip1"
  dropout_param {
    dropout_ratio: 0.5
  }
}
layer {
  name: "ip2"
  type: "InnerProduct"
  bottom: "ip1"
  top: "ip2"
  param {
    lr_mult: 1
  }
  param {
    lr_mult: 2
  }
  inner_product_param {
    num_output: 256
    weight_filler {
      type: "xavier"
      std: 0.01
    }
    bias_filler {
      type: "constant"
      value: 0
    }
  }
}
layer {
  name: "reLU5"
  type: "ReLU"
  bottom: "ip2"
  top: "ip2"
}
layer {
  name: "dropout4"
  type: "Dropout"
  bottom: "ip2"
  top: "ip2"
  dropout_param {
    dropout_ratio: 0.5
  }
}
layer {
  name: "ip3"
  type: "InnerProduct"
  bottom: "ip2"
  top: "ip3"
  param {
    lr_mult: 1
  }
  param {
    lr_mult: 2
  }
  inner_product_param {
    num_output: 121
    weight_filler {
      type: "xavier"
      std: 0.01
    }
    bias_filler {
      type: "constant"
      value: 0
    }
  }
}
layer {
  name: "loss"
  type: "SoftmaxWithLoss"
  bottom: "ip3"
  bottom: "label"
  top: "loss"
}
I0427 11:42:56.772480  8627 layer_factory.hpp:74] Creating layer ndsb
I0427 11:42:56.772505  8627 net.cpp:84] Creating Layer ndsb
I0427 11:42:56.772516  8627 net.cpp:338] ndsb -> data
I0427 11:42:56.772547  8627 net.cpp:338] ndsb -> label
I0427 11:42:56.772565  8627 net.cpp:113] Setting up ndsb
I0427 11:42:57.177026  8627 db.cpp:34] Opened lmdb /home/nitini/data_files/cross_val_files/cv_training_lmdb
I0427 11:42:57.207960  8627 data_layer.cpp:67] output data size: 256,3,48,48
I0427 11:42:57.207980  8627 data_transformer.cpp:22] Loading mean file from: ./train_all_48_mean.binaryproto
I0427 11:42:57.305119  8627 net.cpp:120] Top shape: 256 3 48 48 (1769472)
I0427 11:42:57.305135  8627 net.cpp:120] Top shape: 256 (256)
I0427 11:42:57.305145  8627 layer_factory.hpp:74] Creating layer conv1
I0427 11:42:57.305161  8627 net.cpp:84] Creating Layer conv1
I0427 11:42:57.305171  8627 net.cpp:380] conv1 <- data
I0427 11:42:57.305187  8627 net.cpp:338] conv1 -> conv1
I0427 11:42:57.305202  8627 net.cpp:113] Setting up conv1
I0427 11:42:59.254400  8627 net.cpp:120] Top shape: 256 128 23 23 (17334272)
I0427 11:42:59.254443  8627 layer_factory.hpp:74] Creating layer reLU1
I0427 11:42:59.254462  8627 net.cpp:84] Creating Layer reLU1
I0427 11:42:59.254469  8627 net.cpp:380] reLU1 <- conv1
I0427 11:42:59.254479  8627 net.cpp:327] reLU1 -> conv1 (in-place)
I0427 11:42:59.254490  8627 net.cpp:113] Setting up reLU1
I0427 11:42:59.254652  8627 net.cpp:120] Top shape: 256 128 23 23 (17334272)
I0427 11:42:59.254664  8627 layer_factory.hpp:74] Creating layer norm1
I0427 11:42:59.254678  8627 net.cpp:84] Creating Layer norm1
I0427 11:42:59.254684  8627 net.cpp:380] norm1 <- conv1
I0427 11:42:59.254693  8627 net.cpp:338] norm1 -> norm1
I0427 11:42:59.254704  8627 net.cpp:113] Setting up norm1
I0427 11:42:59.254717  8627 net.cpp:120] Top shape: 256 128 23 23 (17334272)
I0427 11:42:59.254724  8627 layer_factory.hpp:74] Creating layer conv2
I0427 11:42:59.254735  8627 net.cpp:84] Creating Layer conv2
I0427 11:42:59.254741  8627 net.cpp:380] conv2 <- norm1
I0427 11:42:59.254750  8627 net.cpp:338] conv2 -> conv2
I0427 11:42:59.254761  8627 net.cpp:113] Setting up conv2
I0427 11:42:59.256325  8627 net.cpp:120] Top shape: 256 128 21 21 (14450688)
I0427 11:42:59.256343  8627 layer_factory.hpp:74] Creating layer reLU2
I0427 11:42:59.256352  8627 net.cpp:84] Creating Layer reLU2
I0427 11:42:59.256358  8627 net.cpp:380] reLU2 <- conv2
I0427 11:42:59.256366  8627 net.cpp:327] reLU2 -> conv2 (in-place)
I0427 11:42:59.256376  8627 net.cpp:113] Setting up reLU2
I0427 11:42:59.256424  8627 net.cpp:120] Top shape: 256 128 21 21 (14450688)
I0427 11:42:59.256433  8627 layer_factory.hpp:74] Creating layer norm2
I0427 11:42:59.256441  8627 net.cpp:84] Creating Layer norm2
I0427 11:42:59.256448  8627 net.cpp:380] norm2 <- conv2
I0427 11:42:59.256454  8627 net.cpp:338] norm2 -> norm2
I0427 11:42:59.256464  8627 net.cpp:113] Setting up norm2
I0427 11:42:59.256472  8627 net.cpp:120] Top shape: 256 128 21 21 (14450688)
I0427 11:42:59.256479  8627 layer_factory.hpp:74] Creating layer dropout1
I0427 11:42:59.256495  8627 net.cpp:84] Creating Layer dropout1
I0427 11:42:59.256531  8627 net.cpp:380] dropout1 <- norm2
I0427 11:42:59.256539  8627 net.cpp:327] dropout1 -> norm2 (in-place)
I0427 11:42:59.256551  8627 net.cpp:113] Setting up dropout1
I0427 11:42:59.256563  8627 net.cpp:120] Top shape: 256 128 21 21 (14450688)
I0427 11:42:59.256582  8627 layer_factory.hpp:74] Creating layer conv3
I0427 11:42:59.256594  8627 net.cpp:84] Creating Layer conv3
I0427 11:42:59.256602  8627 net.cpp:380] conv3 <- norm2
I0427 11:42:59.256609  8627 net.cpp:338] conv3 -> conv3
I0427 11:42:59.256618  8627 net.cpp:113] Setting up conv3
I0427 11:42:59.257966  8627 net.cpp:120] Top shape: 256 256 10 10 (6553600)
I0427 11:42:59.257984  8627 layer_factory.hpp:74] Creating layer reLU3
I0427 11:42:59.257993  8627 net.cpp:84] Creating Layer reLU3
I0427 11:42:59.257999  8627 net.cpp:380] reLU3 <- conv3
I0427 11:42:59.258007  8627 net.cpp:327] reLU3 -> conv3 (in-place)
I0427 11:42:59.258015  8627 net.cpp:113] Setting up reLU3
I0427 11:42:59.258064  8627 net.cpp:120] Top shape: 256 256 10 10 (6553600)
I0427 11:42:59.258070  8627 layer_factory.hpp:74] Creating layer norm3
I0427 11:42:59.258080  8627 net.cpp:84] Creating Layer norm3
I0427 11:42:59.258085  8627 net.cpp:380] norm3 <- conv3
I0427 11:42:59.258093  8627 net.cpp:338] norm3 -> norm3
I0427 11:42:59.258105  8627 net.cpp:113] Setting up norm3
I0427 11:42:59.258116  8627 net.cpp:120] Top shape: 256 256 10 10 (6553600)
I0427 11:42:59.258121  8627 layer_factory.hpp:74] Creating layer conv4
I0427 11:42:59.258129  8627 net.cpp:84] Creating Layer conv4
I0427 11:42:59.258136  8627 net.cpp:380] conv4 <- norm3
I0427 11:42:59.258144  8627 net.cpp:338] conv4 -> conv4
I0427 11:42:59.258154  8627 net.cpp:113] Setting up conv4
I0427 11:42:59.260634  8627 net.cpp:120] Top shape: 256 256 9 9 (5308416)
I0427 11:42:59.260650  8627 layer_factory.hpp:74] Creating layer pool1
I0427 11:42:59.260668  8627 net.cpp:84] Creating Layer pool1
I0427 11:42:59.260673  8627 net.cpp:380] pool1 <- conv4
I0427 11:42:59.260684  8627 net.cpp:338] pool1 -> pool1
I0427 11:42:59.260694  8627 net.cpp:113] Setting up pool1
I0427 11:42:59.260855  8627 net.cpp:120] Top shape: 256 256 3 3 (589824)
I0427 11:42:59.260866  8627 layer_factory.hpp:74] Creating layer norm4
I0427 11:42:59.260877  8627 net.cpp:84] Creating Layer norm4
I0427 11:42:59.260884  8627 net.cpp:380] norm4 <- pool1
I0427 11:42:59.260891  8627 net.cpp:338] norm4 -> norm4
I0427 11:42:59.260900  8627 net.cpp:113] Setting up norm4
I0427 11:42:59.260910  8627 net.cpp:120] Top shape: 256 256 3 3 (589824)
I0427 11:42:59.260915  8627 layer_factory.hpp:74] Creating layer dropout2
I0427 11:42:59.260922  8627 net.cpp:84] Creating Layer dropout2
I0427 11:42:59.260927  8627 net.cpp:380] dropout2 <- norm4
I0427 11:42:59.260936  8627 net.cpp:327] dropout2 -> norm4 (in-place)
I0427 11:42:59.260943  8627 net.cpp:113] Setting up dropout2
I0427 11:42:59.260952  8627 net.cpp:120] Top shape: 256 256 3 3 (589824)
I0427 11:42:59.260957  8627 layer_factory.hpp:74] Creating layer ip1
I0427 11:42:59.260968  8627 net.cpp:84] Creating Layer ip1
I0427 11:42:59.260973  8627 net.cpp:380] ip1 <- norm4
I0427 11:42:59.260983  8627 net.cpp:338] ip1 -> ip1
I0427 11:42:59.260994  8627 net.cpp:113] Setting up ip1
I0427 11:42:59.265952  8627 net.cpp:120] Top shape: 256 256 (65536)
I0427 11:42:59.265972  8627 layer_factory.hpp:74] Creating layer reLU4
I0427 11:42:59.265983  8627 net.cpp:84] Creating Layer reLU4
I0427 11:42:59.265990  8627 net.cpp:380] reLU4 <- ip1
I0427 11:42:59.265996  8627 net.cpp:327] reLU4 -> ip1 (in-place)
I0427 11:42:59.266005  8627 net.cpp:113] Setting up reLU4
I0427 11:42:59.266062  8627 net.cpp:120] Top shape: 256 256 (65536)
I0427 11:42:59.266070  8627 layer_factory.hpp:74] Creating layer dropout3
I0427 11:42:59.266080  8627 net.cpp:84] Creating Layer dropout3
I0427 11:42:59.266086  8627 net.cpp:380] dropout3 <- ip1
I0427 11:42:59.266093  8627 net.cpp:327] dropout3 -> ip1 (in-place)
I0427 11:42:59.266101  8627 net.cpp:113] Setting up dropout3
I0427 11:42:59.266113  8627 net.cpp:120] Top shape: 256 256 (65536)
I0427 11:42:59.266132  8627 layer_factory.hpp:74] Creating layer ip2
I0427 11:42:59.266144  8627 net.cpp:84] Creating Layer ip2
I0427 11:42:59.266149  8627 net.cpp:380] ip2 <- ip1
I0427 11:42:59.266157  8627 net.cpp:338] ip2 -> ip2
I0427 11:42:59.266166  8627 net.cpp:113] Setting up ip2
I0427 11:42:59.266736  8627 net.cpp:120] Top shape: 256 256 (65536)
I0427 11:42:59.266751  8627 layer_factory.hpp:74] Creating layer reLU5
I0427 11:42:59.266758  8627 net.cpp:84] Creating Layer reLU5
I0427 11:42:59.266763  8627 net.cpp:380] reLU5 <- ip2
I0427 11:42:59.266770  8627 net.cpp:327] reLU5 -> ip2 (in-place)
I0427 11:42:59.266778  8627 net.cpp:113] Setting up reLU5
I0427 11:42:59.266839  8627 net.cpp:120] Top shape: 256 256 (65536)
I0427 11:42:59.266847  8627 layer_factory.hpp:74] Creating layer dropout4
I0427 11:42:59.266857  8627 net.cpp:84] Creating Layer dropout4
I0427 11:42:59.266863  8627 net.cpp:380] dropout4 <- ip2
I0427 11:42:59.266870  8627 net.cpp:327] dropout4 -> ip2 (in-place)
I0427 11:42:59.266877  8627 net.cpp:113] Setting up dropout4
I0427 11:42:59.266885  8627 net.cpp:120] Top shape: 256 256 (65536)
I0427 11:42:59.266891  8627 layer_factory.hpp:74] Creating layer ip3
I0427 11:42:59.266901  8627 net.cpp:84] Creating Layer ip3
I0427 11:42:59.266907  8627 net.cpp:380] ip3 <- ip2
I0427 11:42:59.266914  8627 net.cpp:338] ip3 -> ip3
I0427 11:42:59.266922  8627 net.cpp:113] Setting up ip3
I0427 11:42:59.267199  8627 net.cpp:120] Top shape: 256 121 (30976)
I0427 11:42:59.267210  8627 layer_factory.hpp:74] Creating layer loss
I0427 11:42:59.267222  8627 net.cpp:84] Creating Layer loss
I0427 11:42:59.267227  8627 net.cpp:380] loss <- ip3
I0427 11:42:59.267235  8627 net.cpp:380] loss <- label
I0427 11:42:59.267243  8627 net.cpp:338] loss -> loss
I0427 11:42:59.267256  8627 net.cpp:113] Setting up loss
I0427 11:42:59.267266  8627 layer_factory.hpp:74] Creating layer loss
…
I0427 11:42:59.330786  8627 net.cpp:257] The NetState phase (1) differed from the phase (0) specified by a rule in layer ndsb
I0427 11:42:59.331015  8627 net.cpp:42] Initializing net from parameters: 
name: "SeaNet"
state {
  phase: TEST
}
layer {
  name: "ndsb"
  type: "Data"
  top: "data"
  top: "label"
  include {
    phase: TEST
  }
  transform_param {
    scale: 0.00390625
    mean_file: "./train_all_48_mean.binaryproto"
  }
  data_param {
    source: "/home/nitini/data_files/cross_val_files/cv_holdout_lmdb"
    batch_size: 256
    backend: LMDB
  }
}
layer {
  name: "conv1"
  type: "Convolution"
  bottom: "data"
  top: "conv1"
  param {
    lr_mult: 1
  }
  param {
    lr_mult: 2
  }
  convolution_param {
    num_output: 128
    kernel_size: 3
    stride: 2
    weight_filler {
      type: "xavier"
    }
    bias_filler {
      type: "constant"
    }
  }
}
layer {
  name: "reLU1"
  type: "ReLU"
  bottom: "conv1"
  top: "conv1"
}
layer {
  name: "norm1"
  type: "LRN"
  bottom: "conv1"
  top: "norm1"
  lrn_param {
    local_size: 5
    alpha: 0.0001
    beta: 0.75
  }
}
layer {
  name: "conv2"
  type: "Convolution"
  bottom: "norm1"
  top: "conv2"
  param {
    lr_mult: 1
  }
  param {
    lr_mult: 2
  }
  convolution_param {
    num_output: 128
    kernel_size: 3
    stride: 1
    weight_filler {
      type: "xavier"
    }
    bias_filler {
      type: "constant"
    }
  }
}
layer {
  name: "reLU2"
  type: "ReLU"
  bottom: "conv2"
  top: "conv2"
}
layer {
  name: "norm2"
  type: "LRN"
  bottom: "conv2"
  top: "norm2"
  lrn_param {
    local_size: 5
    alpha: 0.0001
    beta: 0.75
  }
}
layer {
  name: "dropout1"
  type: "Dropout"
  bottom: "norm2"
  top: "norm2"
  dropout_param {
    dropout_ratio: 0.5
  }
}
layer {
  name: "conv3"
  type: "Convolution"
  bottom: "norm2"
  top: "conv3"
  param {
    lr_mult: 1
  }
  param {
    lr_mult: 2
  }
  convolution_param {
    num_output: 256
    kernel_size: 2
    stride: 2
    weight_filler {
      type: "xavier"
    }
    bias_filler {
      type: "constant"
    }
  }
}
layer {
  name: "reLU3"
  type: "ReLU"
  bottom: "conv3"
  top: "conv3"
}
layer {
  name: "norm3"
  type: "LRN"
  bottom: "conv3"
  top: "norm3"
  lrn_param {
    local_size: 5
    alpha: 0.0001
    beta: 0.75
  }
}
layer {
  name: "conv4"
  type: "Convolution"
  bottom: "norm3"
  top: "conv4"
  param {
    lr_mult: 1
  }
  param {
    lr_mult: 2
  }
  convolution_param {
    num_output: 256
    kernel_size: 2
    stride: 1
    weight_filler {
      type: "xavier"
    }
    bias_filler {
      type: "constant"
    }
  }
}
layer {
  name: "pool1"
  type: "Pooling"
  bottom: "conv4"
  top: "pool1"
  pooling_param {
    pool: MAX
    kernel_size: 3
    stride: 3
  }
}
layer {
  name: "norm4"
  type: "LRN"
  bottom: "pool1"
  top: "norm4"
  lrn_param {
    local_size: 5
    alpha: 0.0001
    beta: 0.75
  }
}
layer {
  name: "dropout2"
  type: "Dropout"
  bottom: "norm4"
  top: "norm4"
  dropout_param {
    dropout_ratio: 0.5
  }
}
layer {
  name: "ip1"
  type: "InnerProduct"
  bottom: "norm4"
  top: "ip1"
  param {
    lr_mult: 1
  }
  param {
    lr_mult: 2
  }
  inner_product_param {
    num_output: 256
    weight_filler {
      type: "xavier"
    }
    bias_filler {
      type: "constant"
    }
  }
}
layer {
  name: "reLU4"
  type: "ReLU"
  bottom: "ip1"
  top: "ip1"
}
layer {
  name: "dropout3"
  type: "Dropout"
  bottom: "ip1"
  top: "ip1"
  dropout_param {
    dropout_ratio: 0.5
  }
}
layer {
  name: "ip2"
  type: "InnerProduct"
  bottom: "ip1"
  top: "ip2"
  param {
    lr_mult: 1
  }
  param {
    lr_mult: 2
  }
  inner_product_param {
    num_output: 256
    weight_filler {
      type: "xavier"
      std: 0.01
    }
    bias_filler {
      type: "constant"
      value: 0
    }
  }
}
layer {
  name: "reLU5"
  type: "ReLU"
  bottom: "ip2"
  top: "ip2"
}
layer {
  name: "dropout4"
  type: "Dropout"
  bottom: "ip2"
  top: "ip2"
  dropout_param {
    dropout_ratio: 0.5
  }
}
layer {
  name: "ip3"
  type: "InnerProduct"
  bottom: "ip2"
  top: "ip3"
  param {
    lr_mult: 1
  }
  param {
    lr_mult: 2
  }
  inner_product_param {
    num_output: 121
    weight_filler {
      type: "xavier"
      std: 0.01
    }
    bias_filler {
      type: "constant"
      value: 0
    }
  }
}
layer {
  name: "accuracy"
  type: "Accuracy"
  bottom: "ip3"
  bottom: "label"
  top: "accuracy"
  include {
    phase: TEST
  }
}
layer {
  name: "loss"
  type: "SoftmaxWithLoss"
  bottom: "ip3"
  bottom: "label"
  top: "loss"
}
I0427 11:42:59.331152  8627 layer_factory.hpp:74] Creating layer ndsb
I0427 11:42:59.331166  8627 net.cpp:84] Creating Layer ndsb
I0427 11:42:59.331174  8627 net.cpp:338] ndsb -> data
I0427 11:42:59.331185  8627 net.cpp:338] ndsb -> label
I0427 11:42:59.331195  8627 net.cpp:113] Setting up ndsb
I0427 11:42:59.609961  8627 db.cpp:34] Opened lmdb /home/nitini/data_files/cross_val_files/cv_holdout_lmdb
I0427 11:42:59.640748  8627 data_layer.cpp:67] output data size: 256,3,48,48
I0427 11:42:59.640764  8627 data_transformer.cpp:22] Loading mean file from: ./train_all_48_mean.binaryproto
I0427 11:42:59.706151  8627 net.cpp:120] Top shape: 256 3 48 48 (1769472)
I0427 11:42:59.706176  8627 net.cpp:120] Top shape: 256 (256)
I0427 11:42:59.706184  8627 layer_factory.hpp:74] Creating layer label_ndsb_1_split
I0427 11:42:59.706204  8627 net.cpp:84] Creating Layer label_ndsb_1_split
I0427 11:42:59.706212  8627 net.cpp:380] label_ndsb_1_split <- label
I0427 11:42:59.706223  8627 net.cpp:338] label_ndsb_1_split -> label_ndsb_1_split_0
I0427 11:42:59.706235  8627 net.cpp:338] label_ndsb_1_split -> label_ndsb_1_split_1
I0427 11:42:59.706244  8627 net.cpp:113] Setting up label_ndsb_1_split
I0427 11:42:59.706254  8627 net.cpp:120] Top shape: 256 (256)
I0427 11:42:59.706260  8627 net.cpp:120] Top shape: 256 (256)
I0427 11:42:59.706265  8627 layer_factory.hpp:74] Creating layer conv1
I0427 11:42:59.706277  8627 net.cpp:84] Creating Layer conv1
I0427 11:42:59.706284  8627 net.cpp:380] conv1 <- data
I0427 11:42:59.706291  8627 net.cpp:338] conv1 -> conv1
I0427 11:42:59.706301  8627 net.cpp:113] Setting up conv1
I0427 11:42:59.706698  8627 net.cpp:120] Top shape: 256 128 23 23 (17334272)
I0427 11:42:59.706723  8627 layer_factory.hpp:74] Creating layer reLU1
I0427 11:42:59.706734  8627 net.cpp:84] Creating Layer reLU1
I0427 11:42:59.706740  8627 net.cpp:380] reLU1 <- conv1
I0427 11:42:59.706748  8627 net.cpp:327] reLU1 -> conv1 (in-place)
I0427 11:42:59.706756  8627 net.cpp:113] Setting up reLU1
I0427 11:42:59.706905  8627 net.cpp:120] Top shape: 256 128 23 23 (17334272)
I0427 11:42:59.706919  8627 layer_factory.hpp:74] Creating layer norm1
I0427 11:42:59.706933  8627 net.cpp:84] Creating Layer norm1
I0427 11:42:59.706939  8627 net.cpp:380] norm1 <- conv1
I0427 11:42:59.706948  8627 net.cpp:338] norm1 -> norm1
I0427 11:42:59.706956  8627 net.cpp:113] Setting up norm1
I0427 11:42:59.706966  8627 net.cpp:120] Top shape: 256 128 23 23 (17334272)
I0427 11:42:59.706972  8627 layer_factory.hpp:74] Creating layer conv2
I0427 11:42:59.706985  8627 net.cpp:84] Creating Layer conv2
I0427 11:42:59.706991  8627 net.cpp:380] conv2 <- norm1
I0427 11:42:59.707000  8627 net.cpp:338] conv2 -> conv2
I0427 11:42:59.707008  8627 net.cpp:113] Setting up conv2
I0427 11:42:59.708523  8627 net.cpp:120] Top shape: 256 128 21 21 (14450688)
I0427 11:42:59.708541  8627 layer_factory.hpp:74] Creating layer reLU2
I0427 11:42:59.708554  8627 net.cpp:84] Creating Layer reLU2
I0427 11:42:59.708560  8627 net.cpp:380] reLU2 <- conv2
I0427 11:42:59.708569  8627 net.cpp:327] reLU2 -> conv2 (in-place)
I0427 11:42:59.708590  8627 net.cpp:113] Setting up reLU2
I0427 11:42:59.708658  8627 net.cpp:120] Top shape: 256 128 21 21 (14450688)
I0427 11:42:59.708667  8627 layer_factory.hpp:74] Creating layer norm2
I0427 11:42:59.708678  8627 net.cpp:84] Creating Layer norm2
I0427 11:42:59.708684  8627 net.cpp:380] norm2 <- conv2
I0427 11:42:59.708693  8627 net.cpp:338] norm2 -> norm2
I0427 11:42:59.708700  8627 net.cpp:113] Setting up norm2
I0427 11:42:59.708715  8627 net.cpp:120] Top shape: 256 128 21 21 (14450688)
I0427 11:42:59.708750  8627 layer_factory.hpp:74] Creating layer dropout1
I0427 11:42:59.708760  8627 net.cpp:84] Creating Layer dropout1
I0427 11:42:59.708766  8627 net.cpp:380] dropout1 <- norm2
I0427 11:42:59.708776  8627 net.cpp:327] dropout1 -> norm2 (in-place)
I0427 11:42:59.708784  8627 net.cpp:113] Setting up dropout1
I0427 11:42:59.708793  8627 net.cpp:120] Top shape: 256 128 21 21 (14450688)
I0427 11:42:59.708799  8627 layer_factory.hpp:74] Creating layer conv3
I0427 11:42:59.708811  8627 net.cpp:84] Creating Layer conv3
I0427 11:42:59.708817  8627 net.cpp:380] conv3 <- norm2
I0427 11:42:59.708823  8627 net.cpp:338] conv3 -> conv3
I0427 11:42:59.708833  8627 net.cpp:113] Setting up conv3
I0427 11:42:59.710218  8627 net.cpp:120] Top shape: 256 256 10 10 (6553600)
I0427 11:42:59.710237  8627 layer_factory.hpp:74] Creating layer reLU3
I0427 11:42:59.710245  8627 net.cpp:84] Creating Layer reLU3
I0427 11:42:59.710252  8627 net.cpp:380] reLU3 <- conv3
I0427 11:42:59.710261  8627 net.cpp:327] reLU3 -> conv3 (in-place)
I0427 11:42:59.710270  8627 net.cpp:113] Setting up reLU3
I0427 11:42:59.710330  8627 net.cpp:120] Top shape: 256 256 10 10 (6553600)
I0427 11:42:59.710337  8627 layer_factory.hpp:74] Creating layer norm3
I0427 11:42:59.710345  8627 net.cpp:84] Creating Layer norm3
I0427 11:42:59.710351  8627 net.cpp:380] norm3 <- conv3
I0427 11:42:59.710358  8627 net.cpp:338] norm3 -> norm3
I0427 11:42:59.710366  8627 net.cpp:113] Setting up norm3
I0427 11:42:59.710376  8627 net.cpp:120] Top shape: 256 256 10 10 (6553600)
I0427 11:42:59.710381  8627 layer_factory.hpp:74] Creating layer conv4
I0427 11:42:59.710391  8627 net.cpp:84] Creating Layer conv4
I0427 11:42:59.710399  8627 net.cpp:380] conv4 <- norm3
I0427 11:42:59.710418  8627 net.cpp:338] conv4 -> conv4
I0427 11:42:59.710438  8627 net.cpp:113] Setting up conv4
I0427 11:42:59.712955  8627 net.cpp:120] Top shape: 256 256 9 9 (5308416)
I0427 11:42:59.712973  8627 layer_factory.hpp:74] Creating layer pool1
I0427 11:42:59.712985  8627 net.cpp:84] Creating Layer pool1
I0427 11:42:59.712991  8627 net.cpp:380] pool1 <- conv4
I0427 11:42:59.713001  8627 net.cpp:338] pool1 -> pool1
I0427 11:42:59.713011  8627 net.cpp:113] Setting up pool1
I0427 11:42:59.713075  8627 net.cpp:120] Top shape: 256 256 3 3 (589824)
I0427 11:42:59.713084  8627 layer_factory.hpp:74] Creating layer norm4
I0427 11:42:59.713095  8627 net.cpp:84] Creating Layer norm4
I0427 11:42:59.713101  8627 net.cpp:380] norm4 <- pool1
I0427 11:42:59.713109  8627 net.cpp:338] norm4 -> norm4
I0427 11:42:59.713116  8627 net.cpp:113] Setting up norm4
I0427 11:42:59.713129  8627 net.cpp:120] Top shape: 256 256 3 3 (589824)
I0427 11:42:59.713135  8627 layer_factory.hpp:74] Creating layer dropout2
I0427 11:42:59.713142  8627 net.cpp:84] Creating Layer dropout2
I0427 11:42:59.713147  8627 net.cpp:380] dropout2 <- norm4
I0427 11:42:59.713160  8627 net.cpp:327] dropout2 -> norm4 (in-place)
I0427 11:42:59.713167  8627 net.cpp:113] Setting up dropout2
I0427 11:42:59.713176  8627 net.cpp:120] Top shape: 256 256 3 3 (589824)
I0427 11:42:59.713182  8627 layer_factory.hpp:74] Creating layer ip1
I0427 11:42:59.713193  8627 net.cpp:84] Creating Layer ip1
I0427 11:42:59.713201  8627 net.cpp:380] ip1 <- norm4
I0427 11:42:59.713212  8627 net.cpp:338] ip1 -> ip1
I0427 11:42:59.713223  8627 net.cpp:113] Setting up ip1
I0427 11:42:59.718255  8627 net.cpp:120] Top shape: 256 256 (65536)
I0427 11:42:59.718276  8627 layer_factory.hpp:74] Creating layer reLU4
I0427 11:42:59.718286  8627 net.cpp:84] Creating Layer reLU4
I0427 11:42:59.718292  8627 net.cpp:380] reLU4 <- ip1
I0427 11:42:59.718299  8627 net.cpp:327] reLU4 -> ip1 (in-place)
I0427 11:42:59.718307  8627 net.cpp:113] Setting up reLU4
I0427 11:42:59.718468  8627 net.cpp:120] Top shape: 256 256 (65536)
I0427 11:42:59.718480  8627 layer_factory.hpp:74] Creating layer dropout3
I0427 11:42:59.718489  8627 net.cpp:84] Creating Layer dropout3
I0427 11:42:59.718495  8627 net.cpp:380] dropout3 <- ip1
I0427 11:42:59.718508  8627 net.cpp:327] dropout3 -> ip1 (in-place)
I0427 11:42:59.718536  8627 net.cpp:113] Setting up dropout3
I0427 11:42:59.718546  8627 net.cpp:120] Top shape: 256 256 (65536)
I0427 11:42:59.718567  8627 layer_factory.hpp:74] Creating layer ip2
I0427 11:42:59.718580  8627 net.cpp:84] Creating Layer ip2
I0427 11:42:59.718586  8627 net.cpp:380] ip2 <- ip1
I0427 11:42:59.718595  8627 net.cpp:338] ip2 -> ip2
I0427 11:42:59.718603  8627 net.cpp:113] Setting up ip2
I0427 11:42:59.719166  8627 net.cpp:120] Top shape: 256 256 (65536)
I0427 11:42:59.719179  8627 layer_factory.hpp:74] Creating layer reLU5
I0427 11:42:59.719190  8627 net.cpp:84] Creating Layer reLU5
I0427 11:42:59.719197  8627 net.cpp:380] reLU5 <- ip2
I0427 11:42:59.719203  8627 net.cpp:327] reLU5 -> ip2 (in-place)
I0427 11:42:59.719210  8627 net.cpp:113] Setting up reLU5
I0427 11:42:59.719274  8627 net.cpp:120] Top shape: 256 256 (65536)
I0427 11:42:59.719281  8627 layer_factory.hpp:74] Creating layer dropout4
I0427 11:42:59.719291  8627 net.cpp:84] Creating Layer dropout4
I0427 11:42:59.719296  8627 net.cpp:380] dropout4 <- ip2
I0427 11:42:59.719303  8627 net.cpp:327] dropout4 -> ip2 (in-place)
I0427 11:42:59.719311  8627 net.cpp:113] Setting up dropout4
I0427 11:42:59.719319  8627 net.cpp:120] Top shape: 256 256 (65536)
I0427 11:42:59.719324  8627 layer_factory.hpp:74] Creating layer ip3
I0427 11:42:59.719333  8627 net.cpp:84] Creating Layer ip3
I0427 11:42:59.719338  8627 net.cpp:380] ip3 <- ip2
I0427 11:42:59.719348  8627 net.cpp:338] ip3 -> ip3
I0427 11:42:59.719357  8627 net.cpp:113] Setting up ip3
I0427 11:42:59.719647  8627 net.cpp:120] Top shape: 256 121 (30976)
I0427 11:42:59.719660  8627 layer_factory.hpp:74] Creating layer ip3_ip3_0_split
I0427 11:42:59.719671  8627 net.cpp:84] Creating Layer ip3_ip3_0_split
I0427 11:42:59.719677  8627 net.cpp:380] ip3_ip3_0_split <- ip3
I0427 11:42:59.719684  8627 net.cpp:338] ip3_ip3_0_split -> ip3_ip3_0_split_0
I0427 11:42:59.719696  8627 net.cpp:338] ip3_ip3_0_split -> ip3_ip3_0_split_1
I0427 11:42:59.719705  8627 net.cpp:113] Setting up ip3_ip3_0_split
I0427 11:42:59.719714  8627 net.cpp:120] Top shape: 256 121 (30976)
I0427 11:42:59.719720  8627 net.cpp:120] Top shape: 256 121 (30976)
I0427 11:42:59.719725  8627 layer_factory.hpp:74] Creating layer accuracy
I0427 11:42:59.719738  8627 net.cpp:84] Creating Layer accuracy
I0427 11:42:59.719744  8627 net.cpp:380] accuracy <- ip3_ip3_0_split_0
I0427 11:42:59.719750  8627 net.cpp:380] accuracy <- label_ndsb_1_split_0
I0427 11:42:59.719758  8627 net.cpp:338] accuracy -> accuracy
I0427 11:42:59.719765  8627 net.cpp:113] Setting up accuracy
…
