…
I0427 03:12:12.721218  2393 net.cpp:257] The NetState phase (0) differed from the phase (1) specified by a rule in layer accuracy
I0427 03:12:12.721449  2393 net.cpp:42] Initializing net from parameters: 
name: "SeaNet"
state {
  phase: TRAIN
}
layer {
  name: "ndsb"
  type: "Data"
  top: "data"
  top: "label"
  include {
    phase: TRAIN
  }
  transform_param {
    scale: 0.00390625
    mean_file: "./train_all_48_mean.binaryproto"
  }
  data_param {
    source: "/home/nitini/data_files/cross_val_files/cv_training_lmdb"
    batch_size: 256
    backend: LMDB
  }
}
layer {
  name: "conv1"
  type: "Convolution"
  bottom: "data"
  top: "conv1"
  param {
    lr_mult: 1
  }
  param {
    lr_mult: 2
  }
  convolution_param {
    num_output: 128
    kernel_size: 3
    stride: 2
    weight_filler {
      type: "xavier"
    }
    bias_filler {
      type: "constant"
    }
  }
}
layer {
  name: "reLU1"
  type: "ReLU"
  bottom: "conv1"
  top: "conv1"
}
layer {
  name: "norm1"
  type: "LRN"
  bottom: "conv1"
  top: "norm1"
  lrn_param {
    local_size: 5
    alpha: 0.0001
    beta: 0.75
  }
}
layer {
  name: "conv2"
  type: "Convolution"
  bottom: "norm1"
  top: "conv2"
  param {
    lr_mult: 1
  }
  param {
    lr_mult: 2
  }
  convolution_param {
    num_output: 128
    kernel_size: 3
    stride: 1
    weight_filler {
      type: "xavier"
    }
    bias_filler {
      type: "constant"
    }
  }
}
layer {
  name: "reLU2"
  type: "ReLU"
  bottom: "conv2"
  top: "conv2"
}
layer {
  name: "norm2"
  type: "LRN"
  bottom: "conv2"
  top: "norm2"
  lrn_param {
    local_size: 5
    alpha: 0.0001
    beta: 0.75
  }
}
layer {
  name: "dropout1"
  type: "Dropout"
  bottom: "norm2"
  top: "norm2"
  dropout_param {
    dropout_ratio: 0.5
  }
}
layer {
  name: "conv3"
  type: "Convolution"
  bottom: "norm2"
  top: "conv3"
  param {
    lr_mult: 1
  }
  param {
    lr_mult: 2
  }
  convolution_param {
    num_output: 256
    kernel_size: 2
    stride: 2
    weight_filler {
      type: "xavier"
    }
    bias_filler {
      type: "constant"
    }
  }
}
layer {
  name: "reLU3"
  type: "ReLU"
  bottom: "conv3"
  top: "conv3"
}
layer {
  name: "norm3"
  type: "LRN"
  bottom: "conv3"
  top: "norm3"
  lrn_param {
    local_size: 5
    alpha: 0.0001
    beta: 0.75
  }
}
layer {
  name: "conv4"
  type: "Convolution"
  bottom: "norm3"
  top: "conv4"
  param {
    lr_mult: 1
  }
  param {
    lr_mult: 2
  }
  convolution_param {
    num_output: 256
    kernel_size: 2
    stride: 1
    weight_filler {
      type: "xavier"
    }
    bias_filler {
      type: "constant"
    }
  }
}
layer {
  name: "pool1"
  type: "Pooling"
  bottom: "conv4"
  top: "pool1"
  pooling_param {
    pool: MAX
    kernel_size: 3
    stride: 3
  }
}
layer {
  name: "norm4"
  type: "LRN"
  bottom: "pool1"
  top: "norm4"
  lrn_param {
    local_size: 5
    alpha: 0.0001
    beta: 0.75
  }
}
layer {
  name: "dropout2"
  type: "Dropout"
  bottom: "norm4"
  top: "norm4"
  dropout_param {
    dropout_ratio: 0.5
  }
}
layer {
  name: "ip1"
  type: "InnerProduct"
  bottom: "norm4"
  top: "ip1"
  param {
    lr_mult: 1
  }
  param {
    lr_mult: 2
  }
  inner_product_param {
    num_output: 256
    weight_filler {
      type: "xavier"
    }
    bias_filler {
      type: "constant"
    }
  }
}
layer {
  name: "reLU4"
  type: "ReLU"
  bottom: "ip1"
  top: "ip1"
}
layer {
  name: "dropout3"
  type: "Dropout"
  bottom: "ip1"
  top: "ip1"
  dropout_param {
    dropout_ratio: 0.5
  }
}
layer {
  name: "ip2"
  type: "InnerProduct"
  bottom: "ip1"
  top: "ip2"
  param {
    lr_mult: 1
  }
  param {
    lr_mult: 2
  }
  inner_product_param {
    num_output: 256
    weight_filler {
      type: "xavier"
      std: 0.01
    }
    bias_filler {
      type: "constant"
      value: 0
    }
  }
}
layer {
  name: "reLU5"
  type: "ReLU"
  bottom: "ip2"
  top: "ip2"
}
layer {
  name: "dropout4"
  type: "Dropout"
  bottom: "ip2"
  top: "ip2"
  dropout_param {
    dropout_ratio: 0.5
  }
}
layer {
  name: "ip3"
  type: "InnerProduct"
  bottom: "ip2"
  top: "ip3"
  param {
    lr_mult: 1
  }
  param {
    lr_mult: 2
  }
  inner_product_param {
    num_output: 121
    weight_filler {
      type: "xavier"
      std: 0.01
    }
    bias_filler {
      type: "constant"
      value: 0
    }
  }
}
layer {
  name: "loss"
  type: "SoftmaxWithLoss"
  bottom: "ip3"
  bottom: "label"
  top: "loss"
}
I0427 03:12:12.721629  2393 layer_factory.hpp:74] Creating layer ndsb
I0427 03:12:12.723017  2393 net.cpp:84] Creating Layer ndsb
I0427 03:12:12.723036  2393 net.cpp:338] ndsb -> data
I0427 03:12:12.723073  2393 net.cpp:338] ndsb -> label
I0427 03:12:12.723093  2393 net.cpp:113] Setting up ndsb
I0427 03:12:13.167609  2393 db.cpp:34] Opened lmdb /home/nitini/data_files/cross_val_files/cv_training_lmdb
I0427 03:12:14.164294  2393 data_layer.cpp:67] output data size: 256,3,48,48
I0427 03:12:14.164366  2393 data_transformer.cpp:22] Loading mean file from: ./train_all_48_mean.binaryproto
I0427 03:12:14.846567  2393 net.cpp:120] Top shape: 256 3 48 48 (1769472)
I0427 03:12:14.846588  2393 net.cpp:120] Top shape: 256 (256)
I0427 03:12:14.846601  2393 layer_factory.hpp:74] Creating layer conv1
I0427 03:12:14.846631  2393 net.cpp:84] Creating Layer conv1
I0427 03:12:14.846642  2393 net.cpp:380] conv1 <- data
I0427 03:12:14.846662  2393 net.cpp:338] conv1 -> conv1
I0427 03:12:14.846683  2393 net.cpp:113] Setting up conv1
I0427 03:12:20.789760  2393 net.cpp:120] Top shape: 256 128 23 23 (17334272)
I0427 03:12:20.821907  2393 layer_factory.hpp:74] Creating layer reLU1
I0427 03:12:20.821931  2393 net.cpp:84] Creating Layer reLU1
I0427 03:12:20.821938  2393 net.cpp:380] reLU1 <- conv1
I0427 03:12:20.821949  2393 net.cpp:327] reLU1 -> conv1 (in-place)
I0427 03:12:20.821961  2393 net.cpp:113] Setting up reLU1
I0427 03:12:20.822773  2393 net.cpp:120] Top shape: 256 128 23 23 (17334272)
I0427 03:12:20.822788  2393 layer_factory.hpp:74] Creating layer norm1
I0427 03:12:20.822801  2393 net.cpp:84] Creating Layer norm1
I0427 03:12:20.822808  2393 net.cpp:380] norm1 <- conv1
I0427 03:12:20.822816  2393 net.cpp:338] norm1 -> norm1
I0427 03:12:20.822829  2393 net.cpp:113] Setting up norm1
I0427 03:12:20.822844  2393 net.cpp:120] Top shape: 256 128 23 23 (17334272)
I0427 03:12:20.822850  2393 layer_factory.hpp:74] Creating layer conv2
I0427 03:12:20.822865  2393 net.cpp:84] Creating Layer conv2
I0427 03:12:20.822871  2393 net.cpp:380] conv2 <- norm1
I0427 03:12:20.822880  2393 net.cpp:338] conv2 -> conv2
I0427 03:12:20.822890  2393 net.cpp:113] Setting up conv2
I0427 03:12:20.824316  2393 net.cpp:120] Top shape: 256 128 21 21 (14450688)
I0427 03:12:20.824334  2393 layer_factory.hpp:74] Creating layer reLU2
I0427 03:12:20.824344  2393 net.cpp:84] Creating Layer reLU2
I0427 03:12:20.824350  2393 net.cpp:380] reLU2 <- conv2
I0427 03:12:20.824358  2393 net.cpp:327] reLU2 -> conv2 (in-place)
I0427 03:12:20.824367  2393 net.cpp:113] Setting up reLU2
I0427 03:12:20.824415  2393 net.cpp:120] Top shape: 256 128 21 21 (14450688)
I0427 03:12:20.824424  2393 layer_factory.hpp:74] Creating layer norm2
I0427 03:12:20.824432  2393 net.cpp:84] Creating Layer norm2
I0427 03:12:20.824439  2393 net.cpp:380] norm2 <- conv2
I0427 03:12:20.824445  2393 net.cpp:338] norm2 -> norm2
I0427 03:12:20.824455  2393 net.cpp:113] Setting up norm2
I0427 03:12:20.824463  2393 net.cpp:120] Top shape: 256 128 21 21 (14450688)
I0427 03:12:20.824468  2393 layer_factory.hpp:74] Creating layer dropout1
I0427 03:12:20.824486  2393 net.cpp:84] Creating Layer dropout1
I0427 03:12:20.824523  2393 net.cpp:380] dropout1 <- norm2
I0427 03:12:20.824532  2393 net.cpp:327] dropout1 -> norm2 (in-place)
I0427 03:12:20.824543  2393 net.cpp:113] Setting up dropout1
I0427 03:12:20.824556  2393 net.cpp:120] Top shape: 256 128 21 21 (14450688)
I0427 03:12:20.824563  2393 layer_factory.hpp:74] Creating layer conv3
I0427 03:12:20.824573  2393 net.cpp:84] Creating Layer conv3
I0427 03:12:20.824579  2393 net.cpp:380] conv3 <- norm2
I0427 03:12:20.824586  2393 net.cpp:338] conv3 -> conv3
I0427 03:12:20.824594  2393 net.cpp:113] Setting up conv3
I0427 03:12:20.825924  2393 net.cpp:120] Top shape: 256 256 10 10 (6553600)
I0427 03:12:20.825943  2393 layer_factory.hpp:74] Creating layer reLU3
I0427 03:12:20.825953  2393 net.cpp:84] Creating Layer reLU3
I0427 03:12:20.825958  2393 net.cpp:380] reLU3 <- conv3
I0427 03:12:20.825966  2393 net.cpp:327] reLU3 -> conv3 (in-place)
I0427 03:12:20.825974  2393 net.cpp:113] Setting up reLU3
I0427 03:12:20.826023  2393 net.cpp:120] Top shape: 256 256 10 10 (6553600)
I0427 03:12:20.826032  2393 layer_factory.hpp:74] Creating layer norm3
I0427 03:12:20.826041  2393 net.cpp:84] Creating Layer norm3
I0427 03:12:20.826046  2393 net.cpp:380] norm3 <- conv3
I0427 03:12:20.826053  2393 net.cpp:338] norm3 -> norm3
I0427 03:12:20.826061  2393 net.cpp:113] Setting up norm3
I0427 03:12:20.826071  2393 net.cpp:120] Top shape: 256 256 10 10 (6553600)
I0427 03:12:20.826079  2393 layer_factory.hpp:74] Creating layer conv4
I0427 03:12:20.826088  2393 net.cpp:84] Creating Layer conv4
I0427 03:12:20.826094  2393 net.cpp:380] conv4 <- norm3
I0427 03:12:20.826102  2393 net.cpp:338] conv4 -> conv4
I0427 03:12:20.826112  2393 net.cpp:113] Setting up conv4
I0427 03:12:20.828611  2393 net.cpp:120] Top shape: 256 256 9 9 (5308416)
I0427 03:12:20.828629  2393 layer_factory.hpp:74] Creating layer pool1
I0427 03:12:20.828647  2393 net.cpp:84] Creating Layer pool1
I0427 03:12:20.828655  2393 net.cpp:380] pool1 <- conv4
I0427 03:12:20.828662  2393 net.cpp:338] pool1 -> pool1
I0427 03:12:20.828671  2393 net.cpp:113] Setting up pool1
I0427 03:12:20.828826  2393 net.cpp:120] Top shape: 256 256 3 3 (589824)
I0427 03:12:20.828838  2393 layer_factory.hpp:74] Creating layer norm4
I0427 03:12:20.828848  2393 net.cpp:84] Creating Layer norm4
I0427 03:12:20.828855  2393 net.cpp:380] norm4 <- pool1
I0427 03:12:20.828861  2393 net.cpp:338] norm4 -> norm4
I0427 03:12:20.828871  2393 net.cpp:113] Setting up norm4
I0427 03:12:20.828879  2393 net.cpp:120] Top shape: 256 256 3 3 (589824)
I0427 03:12:20.828886  2393 layer_factory.hpp:74] Creating layer dropout2
I0427 03:12:20.828892  2393 net.cpp:84] Creating Layer dropout2
I0427 03:12:20.828898  2393 net.cpp:380] dropout2 <- norm4
I0427 03:12:20.828904  2393 net.cpp:327] dropout2 -> norm4 (in-place)
I0427 03:12:20.828912  2393 net.cpp:113] Setting up dropout2
I0427 03:12:20.828920  2393 net.cpp:120] Top shape: 256 256 3 3 (589824)
I0427 03:12:20.828927  2393 layer_factory.hpp:74] Creating layer ip1
I0427 03:12:20.828938  2393 net.cpp:84] Creating Layer ip1
I0427 03:12:20.828943  2393 net.cpp:380] ip1 <- norm4
I0427 03:12:20.828950  2393 net.cpp:338] ip1 -> ip1
I0427 03:12:20.828963  2393 net.cpp:113] Setting up ip1
I0427 03:12:20.834285  2393 net.cpp:120] Top shape: 256 256 (65536)
I0427 03:12:20.834303  2393 layer_factory.hpp:74] Creating layer reLU4
I0427 03:12:20.834326  2393 net.cpp:84] Creating Layer reLU4
I0427 03:12:20.834333  2393 net.cpp:380] reLU4 <- ip1
I0427 03:12:20.834341  2393 net.cpp:327] reLU4 -> ip1 (in-place)
I0427 03:12:20.834348  2393 net.cpp:113] Setting up reLU4
I0427 03:12:20.834404  2393 net.cpp:120] Top shape: 256 256 (65536)
I0427 03:12:20.834415  2393 layer_factory.hpp:74] Creating layer dropout3
I0427 03:12:20.834424  2393 net.cpp:84] Creating Layer dropout3
I0427 03:12:20.834430  2393 net.cpp:380] dropout3 <- ip1
I0427 03:12:20.834437  2393 net.cpp:327] dropout3 -> ip1 (in-place)
I0427 03:12:20.834445  2393 net.cpp:113] Setting up dropout3
I0427 03:12:20.834458  2393 net.cpp:120] Top shape: 256 256 (65536)
I0427 03:12:20.834478  2393 layer_factory.hpp:74] Creating layer ip2
I0427 03:12:20.834488  2393 net.cpp:84] Creating Layer ip2
I0427 03:12:20.834494  2393 net.cpp:380] ip2 <- ip1
I0427 03:12:20.834502  2393 net.cpp:338] ip2 -> ip2
I0427 03:12:20.834511  2393 net.cpp:113] Setting up ip2
I0427 03:12:20.835120  2393 net.cpp:120] Top shape: 256 256 (65536)
I0427 03:12:20.835134  2393 layer_factory.hpp:74] Creating layer reLU5
I0427 03:12:20.835141  2393 net.cpp:84] Creating Layer reLU5
I0427 03:12:20.835147  2393 net.cpp:380] reLU5 <- ip2
I0427 03:12:20.835155  2393 net.cpp:327] reLU5 -> ip2 (in-place)
I0427 03:12:20.835161  2393 net.cpp:113] Setting up reLU5
I0427 03:12:20.835213  2393 net.cpp:120] Top shape: 256 256 (65536)
I0427 03:12:20.835222  2393 layer_factory.hpp:74] Creating layer dropout4
I0427 03:12:20.835230  2393 net.cpp:84] Creating Layer dropout4
I0427 03:12:20.835235  2393 net.cpp:380] dropout4 <- ip2
I0427 03:12:20.835242  2393 net.cpp:327] dropout4 -> ip2 (in-place)
I0427 03:12:20.835249  2393 net.cpp:113] Setting up dropout4
I0427 03:12:20.835258  2393 net.cpp:120] Top shape: 256 256 (65536)
I0427 03:12:20.835263  2393 layer_factory.hpp:74] Creating layer ip3
I0427 03:12:20.835271  2393 net.cpp:84] Creating Layer ip3
I0427 03:12:20.835278  2393 net.cpp:380] ip3 <- ip2
I0427 03:12:20.835284  2393 net.cpp:338] ip3 -> ip3
I0427 03:12:20.835292  2393 net.cpp:113] Setting up ip3
I0427 03:12:20.835543  2393 net.cpp:120] Top shape: 256 121 (30976)
I0427 03:12:20.835556  2393 layer_factory.hpp:74] Creating layer loss
I0427 03:12:20.835569  2393 net.cpp:84] Creating Layer loss
I0427 03:12:20.835575  2393 net.cpp:380] loss <- ip3
I0427 03:12:20.835582  2393 net.cpp:380] loss <- label
I0427 03:12:20.835592  2393 net.cpp:338] loss -> loss
I0427 03:12:20.836076  2393 net.cpp:113] Setting up loss
I0427 03:12:20.836096  2393 layer_factory.hpp:74] Creating layer loss
…
I0427 03:12:20.932271  2393 net.cpp:257] The NetState phase (1) differed from the phase (0) specified by a rule in layer ndsb
I0427 03:12:20.932523  2393 net.cpp:42] Initializing net from parameters: 
name: "SeaNet"
state {
  phase: TEST
}
layer {
  name: "ndsb"
  type: "Data"
  top: "data"
  top: "label"
  include {
    phase: TEST
  }
  transform_param {
    scale: 0.00390625
    mean_file: "./train_all_48_mean.binaryproto"
  }
  data_param {
    source: "/home/nitini/data_files/cross_val_files/cv_holdout_lmdb"
    batch_size: 256
    backend: LMDB
  }
}
layer {
  name: "conv1"
  type: "Convolution"
  bottom: "data"
  top: "conv1"
  param {
    lr_mult: 1
  }
  param {
    lr_mult: 2
  }
  convolution_param {
    num_output: 128
    kernel_size: 3
    stride: 2
    weight_filler {
      type: "xavier"
    }
    bias_filler {
      type: "constant"
    }
  }
}
layer {
  name: "reLU1"
  type: "ReLU"
  bottom: "conv1"
  top: "conv1"
}
layer {
  name: "norm1"
  type: "LRN"
  bottom: "conv1"
  top: "norm1"
  lrn_param {
    local_size: 5
    alpha: 0.0001
    beta: 0.75
  }
}
layer {
  name: "conv2"
  type: "Convolution"
  bottom: "norm1"
  top: "conv2"
  param {
    lr_mult: 1
  }
  param {
    lr_mult: 2
  }
  convolution_param {
    num_output: 128
    kernel_size: 3
    stride: 1
    weight_filler {
      type: "xavier"
    }
    bias_filler {
      type: "constant"
    }
  }
}
layer {
  name: "reLU2"
  type: "ReLU"
  bottom: "conv2"
  top: "conv2"
}
layer {
  name: "norm2"
  type: "LRN"
  bottom: "conv2"
  top: "norm2"
  lrn_param {
    local_size: 5
    alpha: 0.0001
    beta: 0.75
  }
}
layer {
  name: "dropout1"
  type: "Dropout"
  bottom: "norm2"
  top: "norm2"
  dropout_param {
    dropout_ratio: 0.5
  }
}
layer {
  name: "conv3"
  type: "Convolution"
  bottom: "norm2"
  top: "conv3"
  param {
    lr_mult: 1
  }
  param {
    lr_mult: 2
  }
  convolution_param {
    num_output: 256
    kernel_size: 2
    stride: 2
    weight_filler {
      type: "xavier"
    }
    bias_filler {
      type: "constant"
    }
  }
}
layer {
  name: "reLU3"
  type: "ReLU"
  bottom: "conv3"
  top: "conv3"
}
layer {
  name: "norm3"
  type: "LRN"
  bottom: "conv3"
  top: "norm3"
  lrn_param {
    local_size: 5
    alpha: 0.0001
    beta: 0.75
  }
}
layer {
  name: "conv4"
  type: "Convolution"
  bottom: "norm3"
  top: "conv4"
  param {
    lr_mult: 1
  }
  param {
    lr_mult: 2
  }
  convolution_param {
    num_output: 256
    kernel_size: 2
    stride: 1
    weight_filler {
      type: "xavier"
    }
    bias_filler {
      type: "constant"
    }
  }
}
layer {
  name: "pool1"
  type: "Pooling"
  bottom: "conv4"
  top: "pool1"
  pooling_param {
    pool: MAX
    kernel_size: 3
    stride: 3
  }
}
layer {
  name: "norm4"
  type: "LRN"
  bottom: "pool1"
  top: "norm4"
  lrn_param {
    local_size: 5
    alpha: 0.0001
    beta: 0.75
  }
}
layer {
  name: "dropout2"
  type: "Dropout"
  bottom: "norm4"
  top: "norm4"
  dropout_param {
    dropout_ratio: 0.5
  }
}
layer {
  name: "ip1"
  type: "InnerProduct"
  bottom: "norm4"
  top: "ip1"
  param {
    lr_mult: 1
  }
  param {
    lr_mult: 2
  }
  inner_product_param {
    num_output: 256
    weight_filler {
      type: "xavier"
    }
    bias_filler {
      type: "constant"
    }
  }
}
layer {
  name: "reLU4"
  type: "ReLU"
  bottom: "ip1"
  top: "ip1"
}
layer {
  name: "dropout3"
  type: "Dropout"
  bottom: "ip1"
  top: "ip1"
  dropout_param {
    dropout_ratio: 0.5
  }
}
layer {
  name: "ip2"
  type: "InnerProduct"
  bottom: "ip1"
  top: "ip2"
  param {
    lr_mult: 1
  }
  param {
    lr_mult: 2
  }
  inner_product_param {
    num_output: 256
    weight_filler {
      type: "xavier"
      std: 0.01
    }
    bias_filler {
      type: "constant"
      value: 0
    }
  }
}
layer {
  name: "reLU5"
  type: "ReLU"
  bottom: "ip2"
  top: "ip2"
}
layer {
  name: "dropout4"
  type: "Dropout"
  bottom: "ip2"
  top: "ip2"
  dropout_param {
    dropout_ratio: 0.5
  }
}
layer {
  name: "ip3"
  type: "InnerProduct"
  bottom: "ip2"
  top: "ip3"
  param {
    lr_mult: 1
  }
  param {
    lr_mult: 2
  }
  inner_product_param {
    num_output: 121
    weight_filler {
      type: "xavier"
      std: 0.01
    }
    bias_filler {
      type: "constant"
      value: 0
    }
  }
}
layer {
  name: "accuracy"
  type: "Accuracy"
  bottom: "ip3"
  bottom: "label"
  top: "accuracy"
  include {
    phase: TEST
  }
}
layer {
  name: "loss"
  type: "SoftmaxWithLoss"
  bottom: "ip3"
  bottom: "label"
  top: "loss"
}
I0427 03:12:20.932670  2393 layer_factory.hpp:74] Creating layer ndsb
I0427 03:12:20.932685  2393 net.cpp:84] Creating Layer ndsb
I0427 03:12:20.932693  2393 net.cpp:338] ndsb -> data
I0427 03:12:20.932704  2393 net.cpp:338] ndsb -> label
I0427 03:12:20.932713  2393 net.cpp:113] Setting up ndsb
I0427 03:12:21.219120  2393 db.cpp:34] Opened lmdb /home/nitini/data_files/cross_val_files/cv_holdout_lmdb
I0427 03:12:21.834080  2393 data_layer.cpp:67] output data size: 256,3,48,48
I0427 03:12:21.834105  2393 data_transformer.cpp:22] Loading mean file from: ./train_all_48_mean.binaryproto
I0427 03:12:22.439596  2393 net.cpp:120] Top shape: 256 3 48 48 (1769472)
I0427 03:12:22.439620  2393 net.cpp:120] Top shape: 256 (256)
I0427 03:12:22.439630  2393 layer_factory.hpp:74] Creating layer label_ndsb_1_split
I0427 03:12:22.439652  2393 net.cpp:84] Creating Layer label_ndsb_1_split
I0427 03:12:22.439661  2393 net.cpp:380] label_ndsb_1_split <- label
I0427 03:12:22.439671  2393 net.cpp:338] label_ndsb_1_split -> label_ndsb_1_split_0
I0427 03:12:22.439685  2393 net.cpp:338] label_ndsb_1_split -> label_ndsb_1_split_1
I0427 03:12:22.439693  2393 net.cpp:113] Setting up label_ndsb_1_split
I0427 03:12:22.439703  2393 net.cpp:120] Top shape: 256 (256)
I0427 03:12:22.439710  2393 net.cpp:120] Top shape: 256 (256)
I0427 03:12:22.439715  2393 layer_factory.hpp:74] Creating layer conv1
I0427 03:12:22.439729  2393 net.cpp:84] Creating Layer conv1
I0427 03:12:22.439734  2393 net.cpp:380] conv1 <- data
I0427 03:12:22.439743  2393 net.cpp:338] conv1 -> conv1
I0427 03:12:22.439754  2393 net.cpp:113] Setting up conv1
I0427 03:12:22.440168  2393 net.cpp:120] Top shape: 256 128 23 23 (17334272)
I0427 03:12:22.440191  2393 layer_factory.hpp:74] Creating layer reLU1
I0427 03:12:22.440202  2393 net.cpp:84] Creating Layer reLU1
I0427 03:12:22.440207  2393 net.cpp:380] reLU1 <- conv1
I0427 03:12:22.440215  2393 net.cpp:327] reLU1 -> conv1 (in-place)
I0427 03:12:22.440227  2393 net.cpp:113] Setting up reLU1
I0427 03:12:22.440390  2393 net.cpp:120] Top shape: 256 128 23 23 (17334272)
I0427 03:12:22.440404  2393 layer_factory.hpp:74] Creating layer norm1
I0427 03:12:22.440419  2393 net.cpp:84] Creating Layer norm1
I0427 03:12:22.440425  2393 net.cpp:380] norm1 <- conv1
I0427 03:12:22.440433  2393 net.cpp:338] norm1 -> norm1
I0427 03:12:22.440443  2393 net.cpp:113] Setting up norm1
I0427 03:12:22.440453  2393 net.cpp:120] Top shape: 256 128 23 23 (17334272)
I0427 03:12:22.440459  2393 layer_factory.hpp:74] Creating layer conv2
I0427 03:12:22.440470  2393 net.cpp:84] Creating Layer conv2
I0427 03:12:22.440476  2393 net.cpp:380] conv2 <- norm1
I0427 03:12:22.440484  2393 net.cpp:338] conv2 -> conv2
I0427 03:12:22.440493  2393 net.cpp:113] Setting up conv2
I0427 03:12:22.442010  2393 net.cpp:120] Top shape: 256 128 21 21 (14450688)
I0427 03:12:22.442029  2393 layer_factory.hpp:74] Creating layer reLU2
I0427 03:12:22.442039  2393 net.cpp:84] Creating Layer reLU2
I0427 03:12:22.442044  2393 net.cpp:380] reLU2 <- conv2
I0427 03:12:22.442054  2393 net.cpp:327] reLU2 -> conv2 (in-place)
I0427 03:12:22.442064  2393 net.cpp:113] Setting up reLU2
I0427 03:12:22.442127  2393 net.cpp:120] Top shape: 256 128 21 21 (14450688)
I0427 03:12:22.442138  2393 layer_factory.hpp:74] Creating layer norm2
I0427 03:12:22.442149  2393 net.cpp:84] Creating Layer norm2
I0427 03:12:22.442155  2393 net.cpp:380] norm2 <- conv2
I0427 03:12:22.442163  2393 net.cpp:338] norm2 -> norm2
I0427 03:12:22.442172  2393 net.cpp:113] Setting up norm2
I0427 03:12:22.442185  2393 net.cpp:120] Top shape: 256 128 21 21 (14450688)
I0427 03:12:22.442227  2393 layer_factory.hpp:74] Creating layer dropout1
I0427 03:12:22.442239  2393 net.cpp:84] Creating Layer dropout1
I0427 03:12:22.442245  2393 net.cpp:380] dropout1 <- norm2
I0427 03:12:22.442255  2393 net.cpp:327] dropout1 -> norm2 (in-place)
I0427 03:12:22.442265  2393 net.cpp:113] Setting up dropout1
I0427 03:12:22.442273  2393 net.cpp:120] Top shape: 256 128 21 21 (14450688)
I0427 03:12:22.442278  2393 layer_factory.hpp:74] Creating layer conv3
I0427 03:12:22.442287  2393 net.cpp:84] Creating Layer conv3
I0427 03:12:22.442292  2393 net.cpp:380] conv3 <- norm2
I0427 03:12:22.442301  2393 net.cpp:338] conv3 -> conv3
I0427 03:12:22.442325  2393 net.cpp:113] Setting up conv3
I0427 03:12:22.443704  2393 net.cpp:120] Top shape: 256 256 10 10 (6553600)
I0427 03:12:22.443723  2393 layer_factory.hpp:74] Creating layer reLU3
I0427 03:12:22.443732  2393 net.cpp:84] Creating Layer reLU3
I0427 03:12:22.443738  2393 net.cpp:380] reLU3 <- conv3
I0427 03:12:22.443748  2393 net.cpp:327] reLU3 -> conv3 (in-place)
I0427 03:12:22.443758  2393 net.cpp:113] Setting up reLU3
I0427 03:12:22.443815  2393 net.cpp:120] Top shape: 256 256 10 10 (6553600)
I0427 03:12:22.443832  2393 layer_factory.hpp:74] Creating layer norm3
I0427 03:12:22.443843  2393 net.cpp:84] Creating Layer norm3
I0427 03:12:22.443850  2393 net.cpp:380] norm3 <- conv3
I0427 03:12:22.443856  2393 net.cpp:338] norm3 -> norm3
I0427 03:12:22.443866  2393 net.cpp:113] Setting up norm3
I0427 03:12:22.443874  2393 net.cpp:120] Top shape: 256 256 10 10 (6553600)
I0427 03:12:22.443879  2393 layer_factory.hpp:74] Creating layer conv4
I0427 03:12:22.443892  2393 net.cpp:84] Creating Layer conv4
I0427 03:12:22.443897  2393 net.cpp:380] conv4 <- norm3
I0427 03:12:22.443907  2393 net.cpp:338] conv4 -> conv4
I0427 03:12:22.443917  2393 net.cpp:113] Setting up conv4
I0427 03:12:22.446416  2393 net.cpp:120] Top shape: 256 256 9 9 (5308416)
I0427 03:12:22.446434  2393 layer_factory.hpp:74] Creating layer pool1
I0427 03:12:22.446446  2393 net.cpp:84] Creating Layer pool1
I0427 03:12:22.446452  2393 net.cpp:380] pool1 <- conv4
I0427 03:12:22.446460  2393 net.cpp:338] pool1 -> pool1
I0427 03:12:22.446470  2393 net.cpp:113] Setting up pool1
I0427 03:12:22.446542  2393 net.cpp:120] Top shape: 256 256 3 3 (589824)
I0427 03:12:22.446553  2393 layer_factory.hpp:74] Creating layer norm4
I0427 03:12:22.446563  2393 net.cpp:84] Creating Layer norm4
I0427 03:12:22.446570  2393 net.cpp:380] norm4 <- pool1
I0427 03:12:22.446578  2393 net.cpp:338] norm4 -> norm4
I0427 03:12:22.446586  2393 net.cpp:113] Setting up norm4
I0427 03:12:22.446595  2393 net.cpp:120] Top shape: 256 256 3 3 (589824)
I0427 03:12:22.446600  2393 layer_factory.hpp:74] Creating layer dropout2
I0427 03:12:22.446609  2393 net.cpp:84] Creating Layer dropout2
I0427 03:12:22.446614  2393 net.cpp:380] dropout2 <- norm4
I0427 03:12:22.446622  2393 net.cpp:327] dropout2 -> norm4 (in-place)
I0427 03:12:22.446630  2393 net.cpp:113] Setting up dropout2
I0427 03:12:22.446638  2393 net.cpp:120] Top shape: 256 256 3 3 (589824)
I0427 03:12:22.446645  2393 layer_factory.hpp:74] Creating layer ip1
I0427 03:12:22.446656  2393 net.cpp:84] Creating Layer ip1
I0427 03:12:22.446661  2393 net.cpp:380] ip1 <- norm4
I0427 03:12:22.446671  2393 net.cpp:338] ip1 -> ip1
I0427 03:12:22.446681  2393 net.cpp:113] Setting up ip1
I0427 03:12:22.452067  2393 net.cpp:120] Top shape: 256 256 (65536)
I0427 03:12:22.452092  2393 layer_factory.hpp:74] Creating layer reLU4
I0427 03:12:22.452105  2393 net.cpp:84] Creating Layer reLU4
I0427 03:12:22.452111  2393 net.cpp:380] reLU4 <- ip1
I0427 03:12:22.452119  2393 net.cpp:327] reLU4 -> ip1 (in-place)
I0427 03:12:22.452127  2393 net.cpp:113] Setting up reLU4
I0427 03:12:22.452302  2393 net.cpp:120] Top shape: 256 256 (65536)
I0427 03:12:22.452327  2393 layer_factory.hpp:74] Creating layer dropout3
I0427 03:12:22.452340  2393 net.cpp:84] Creating Layer dropout3
I0427 03:12:22.452347  2393 net.cpp:380] dropout3 <- ip1
I0427 03:12:22.452358  2393 net.cpp:327] dropout3 -> ip1 (in-place)
I0427 03:12:22.452385  2393 net.cpp:113] Setting up dropout3
I0427 03:12:22.452395  2393 net.cpp:120] Top shape: 256 256 (65536)
I0427 03:12:22.452400  2393 layer_factory.hpp:74] Creating layer ip2
I0427 03:12:22.452411  2393 net.cpp:84] Creating Layer ip2
I0427 03:12:22.452416  2393 net.cpp:380] ip2 <- ip1
I0427 03:12:22.452430  2393 net.cpp:338] ip2 -> ip2
I0427 03:12:22.452440  2393 net.cpp:113] Setting up ip2
I0427 03:12:22.453014  2393 net.cpp:120] Top shape: 256 256 (65536)
I0427 03:12:22.453028  2393 layer_factory.hpp:74] Creating layer reLU5
I0427 03:12:22.453039  2393 net.cpp:84] Creating Layer reLU5
I0427 03:12:22.453045  2393 net.cpp:380] reLU5 <- ip2
I0427 03:12:22.453052  2393 net.cpp:327] reLU5 -> ip2 (in-place)
I0427 03:12:22.453059  2393 net.cpp:113] Setting up reLU5
I0427 03:12:22.453122  2393 net.cpp:120] Top shape: 256 256 (65536)
I0427 03:12:22.453131  2393 layer_factory.hpp:74] Creating layer dropout4
I0427 03:12:22.453140  2393 net.cpp:84] Creating Layer dropout4
I0427 03:12:22.453145  2393 net.cpp:380] dropout4 <- ip2
I0427 03:12:22.453153  2393 net.cpp:327] dropout4 -> ip2 (in-place)
I0427 03:12:22.453161  2393 net.cpp:113] Setting up dropout4
I0427 03:12:22.453169  2393 net.cpp:120] Top shape: 256 256 (65536)
I0427 03:12:22.453174  2393 layer_factory.hpp:74] Creating layer ip3
I0427 03:12:22.453183  2393 net.cpp:84] Creating Layer ip3
I0427 03:12:22.453189  2393 net.cpp:380] ip3 <- ip2
I0427 03:12:22.453198  2393 net.cpp:338] ip3 -> ip3
I0427 03:12:22.453208  2393 net.cpp:113] Setting up ip3
I0427 03:12:22.453497  2393 net.cpp:120] Top shape: 256 121 (30976)
I0427 03:12:22.453510  2393 layer_factory.hpp:74] Creating layer ip3_ip3_0_split
I0427 03:12:22.453526  2393 net.cpp:84] Creating Layer ip3_ip3_0_split
I0427 03:12:22.453531  2393 net.cpp:380] ip3_ip3_0_split <- ip3
I0427 03:12:22.453538  2393 net.cpp:338] ip3_ip3_0_split -> ip3_ip3_0_split_0
I0427 03:12:22.453549  2393 net.cpp:338] ip3_ip3_0_split -> ip3_ip3_0_split_1
I0427 03:12:22.453557  2393 net.cpp:113] Setting up ip3_ip3_0_split
I0427 03:12:22.453568  2393 net.cpp:120] Top shape: 256 121 (30976)
I0427 03:12:22.453575  2393 net.cpp:120] Top shape: 256 121 (30976)
I0427 03:12:22.453580  2393 layer_factory.hpp:74] Creating layer accuracy
I0427 03:12:22.453594  2393 net.cpp:84] Creating Layer accuracy
I0427 03:12:22.453600  2393 net.cpp:380] accuracy <- ip3_ip3_0_split_0
I0427 03:12:22.453606  2393 net.cpp:380] accuracy <- label_ndsb_1_split_0
I0427 03:12:22.453613  2393 net.cpp:338] accuracy -> accuracy
I0427 03:12:22.453622  2393 net.cpp:113] Setting up accuracy
…
