…
I0426 02:52:52.075592  2606 net.cpp:257] The NetState phase (0) differed from the phase (1) specified by a rule in layer accuracy
I0426 02:52:52.075806  2606 net.cpp:42] Initializing net from parameters: 
name: "SeaNet"
state {
  phase: TRAIN
}
layer {
  name: "ndsb"
  type: "Data"
  top: "data"
  top: "label"
  include {
    phase: TRAIN
  }
  transform_param {
    scale: 0.00390625
    mean_file: "./train_all_48_mean.binaryproto"
  }
  data_param {
    source: "/home/nitini/data_files/cross_val_files/cv_training_lmdb"
    batch_size: 128
    backend: LMDB
  }
}
layer {
  name: "conv1"
  type: "Convolution"
  bottom: "data"
  top: "conv1"
  param {
    lr_mult: 1
  }
  param {
    lr_mult: 2
  }
  convolution_param {
    num_output: 64
    kernel_size: 3
    stride: 1
    weight_filler {
      type: "xavier"
    }
    bias_filler {
      type: "constant"
    }
  }
}
layer {
  name: "reLU1"
  type: "ReLU"
  bottom: "conv1"
  top: "conv1"
}
layer {
  name: "norm1"
  type: "LRN"
  bottom: "conv1"
  top: "norm1"
  lrn_param {
    local_size: 5
    alpha: 0.0001
    beta: 0.75
  }
}
layer {
  name: "conv2"
  type: "Convolution"
  bottom: "norm1"
  top: "conv2"
  param {
    lr_mult: 1
  }
  param {
    lr_mult: 2
  }
  convolution_param {
    num_output: 64
    kernel_size: 3
    stride: 1
    weight_filler {
      type: "xavier"
    }
    bias_filler {
      type: "constant"
    }
  }
}
layer {
  name: "reLU2"
  type: "ReLU"
  bottom: "conv2"
  top: "conv2"
}
layer {
  name: "norm2"
  type: "LRN"
  bottom: "conv2"
  top: "norm2"
  lrn_param {
    local_size: 5
    alpha: 0.0001
    beta: 0.75
  }
}
layer {
  name: "dropout1"
  type: "Dropout"
  bottom: "norm2"
  top: "norm2"
  dropout_param {
    dropout_ratio: 0.5
  }
}
layer {
  name: "conv3"
  type: "Convolution"
  bottom: "norm2"
  top: "conv3"
  param {
    lr_mult: 1
  }
  param {
    lr_mult: 2
  }
  convolution_param {
    num_output: 128
    kernel_size: 2
    stride: 1
    weight_filler {
      type: "xavier"
    }
    bias_filler {
      type: "constant"
    }
  }
}
layer {
  name: "reLU3"
  type: "ReLU"
  bottom: "conv3"
  top: "conv3"
}
layer {
  name: "norm3"
  type: "LRN"
  bottom: "conv3"
  top: "norm3"
  lrn_param {
    local_size: 5
    alpha: 0.0001
    beta: 0.75
  }
}
layer {
  name: "conv4"
  type: "Convolution"
  bottom: "norm3"
  top: "conv4"
  param {
    lr_mult: 1
  }
  param {
    lr_mult: 2
  }
  convolution_param {
    num_output: 128
    kernel_size: 2
    stride: 1
    weight_filler {
      type: "xavier"
    }
    bias_filler {
      type: "constant"
    }
  }
}
layer {
  name: "pool1"
  type: "Pooling"
  bottom: "conv4"
  top: "pool1"
  pooling_param {
    pool: MAX
    kernel_size: 2
    stride: 2
  }
}
layer {
  name: "norm4"
  type: "LRN"
  bottom: "pool1"
  top: "norm4"
  lrn_param {
    local_size: 5
    alpha: 0.0001
    beta: 0.75
  }
}
layer {
  name: "dropout2"
  type: "Dropout"
  bottom: "norm4"
  top: "norm4"
  dropout_param {
    dropout_ratio: 0.5
  }
}
layer {
  name: "ip1"
  type: "InnerProduct"
  bottom: "norm4"
  top: "ip1"
  param {
    lr_mult: 1
  }
  param {
    lr_mult: 2
  }
  inner_product_param {
    num_output: 512
    weight_filler {
      type: "xavier"
    }
    bias_filler {
      type: "constant"
    }
  }
}
layer {
  name: "reLU4"
  type: "ReLU"
  bottom: "ip1"
  top: "ip1"
}
layer {
  name: "dropout3"
  type: "Dropout"
  bottom: "ip1"
  top: "ip1"
  dropout_param {
    dropout_ratio: 0.5
  }
}
layer {
  name: "ip2"
  type: "InnerProduct"
  bottom: "ip1"
  top: "ip2"
  param {
    lr_mult: 1
  }
  param {
    lr_mult: 2
  }
  inner_product_param {
    num_output: 256
    weight_filler {
      type: "xavier"
      std: 0.01
    }
    bias_filler {
      type: "constant"
      value: 0
    }
  }
}
layer {
  name: "reLU5"
  type: "ReLU"
  bottom: "ip2"
  top: "ip2"
}
layer {
  name: "dropout4"
  type: "Dropout"
  bottom: "ip2"
  top: "ip2"
  dropout_param {
    dropout_ratio: 0.5
  }
}
layer {
  name: "ip3"
  type: "InnerProduct"
  bottom: "ip2"
  top: "ip3"
  param {
    lr_mult: 1
  }
  param {
    lr_mult: 2
  }
  inner_product_param {
    num_output: 121
    weight_filler {
      type: "xavier"
      std: 0.01
    }
    bias_filler {
      type: "constant"
      value: 0
    }
  }
}
layer {
  name: "loss"
  type: "SoftmaxWithLoss"
  bottom: "ip3"
  bottom: "label"
  top: "loss"
}
I0426 02:52:52.075984  2606 layer_factory.hpp:74] Creating layer ndsb
I0426 02:52:52.076010  2606 net.cpp:84] Creating Layer ndsb
I0426 02:52:52.076022  2606 net.cpp:338] ndsb -> data
I0426 02:52:52.076061  2606 net.cpp:338] ndsb -> label
I0426 02:52:52.076078  2606 net.cpp:113] Setting up ndsb
I0426 02:52:52.462008  2606 db.cpp:34] Opened lmdb /home/nitini/data_files/cross_val_files/cv_training_lmdb
I0426 02:52:52.496187  2606 data_layer.cpp:67] output data size: 128,3,48,48
I0426 02:52:52.496207  2606 data_transformer.cpp:22] Loading mean file from: ./train_all_48_mean.binaryproto
I0426 02:52:52.597173  2606 net.cpp:120] Top shape: 128 3 48 48 (884736)
I0426 02:52:52.597188  2606 net.cpp:120] Top shape: 128 (128)
I0426 02:52:52.597203  2606 layer_factory.hpp:74] Creating layer conv1
I0426 02:52:52.597231  2606 net.cpp:84] Creating Layer conv1
I0426 02:52:52.597244  2606 net.cpp:380] conv1 <- data
I0426 02:52:52.597264  2606 net.cpp:338] conv1 -> conv1
I0426 02:52:52.597280  2606 net.cpp:113] Setting up conv1
I0426 02:52:54.981641  2606 net.cpp:120] Top shape: 128 64 46 46 (17334272)
I0426 02:52:54.981694  2606 layer_factory.hpp:74] Creating layer reLU1
I0426 02:52:54.981714  2606 net.cpp:84] Creating Layer reLU1
I0426 02:52:54.981724  2606 net.cpp:380] reLU1 <- conv1
I0426 02:52:54.981734  2606 net.cpp:327] reLU1 -> conv1 (in-place)
I0426 02:52:54.981747  2606 net.cpp:113] Setting up reLU1
I0426 02:52:54.981955  2606 net.cpp:120] Top shape: 128 64 46 46 (17334272)
I0426 02:52:54.981967  2606 layer_factory.hpp:74] Creating layer norm1
I0426 02:52:54.981981  2606 net.cpp:84] Creating Layer norm1
I0426 02:52:54.981988  2606 net.cpp:380] norm1 <- conv1
I0426 02:52:54.981997  2606 net.cpp:338] norm1 -> norm1
I0426 02:52:54.982008  2606 net.cpp:113] Setting up norm1
I0426 02:52:54.982023  2606 net.cpp:120] Top shape: 128 64 46 46 (17334272)
I0426 02:52:54.982029  2606 layer_factory.hpp:74] Creating layer conv2
I0426 02:52:54.982043  2606 net.cpp:84] Creating Layer conv2
I0426 02:52:54.982050  2606 net.cpp:380] conv2 <- norm1
I0426 02:52:54.982059  2606 net.cpp:338] conv2 -> conv2
I0426 02:52:54.982070  2606 net.cpp:113] Setting up conv2
I0426 02:52:54.982633  2606 net.cpp:120] Top shape: 128 64 44 44 (15859712)
I0426 02:52:54.982652  2606 layer_factory.hpp:74] Creating layer reLU2
I0426 02:52:54.982662  2606 net.cpp:84] Creating Layer reLU2
I0426 02:52:54.982669  2606 net.cpp:380] reLU2 <- conv2
I0426 02:52:54.982677  2606 net.cpp:327] reLU2 -> conv2 (in-place)
I0426 02:52:54.982686  2606 net.cpp:113] Setting up reLU2
I0426 02:52:54.982740  2606 net.cpp:120] Top shape: 128 64 44 44 (15859712)
I0426 02:52:54.982749  2606 layer_factory.hpp:74] Creating layer norm2
I0426 02:52:54.982759  2606 net.cpp:84] Creating Layer norm2
I0426 02:52:54.982765  2606 net.cpp:380] norm2 <- conv2
I0426 02:52:54.982774  2606 net.cpp:338] norm2 -> norm2
I0426 02:52:54.982782  2606 net.cpp:113] Setting up norm2
I0426 02:52:54.982791  2606 net.cpp:120] Top shape: 128 64 44 44 (15859712)
I0426 02:52:54.982797  2606 layer_factory.hpp:74] Creating layer dropout1
I0426 02:52:54.982815  2606 net.cpp:84] Creating Layer dropout1
I0426 02:52:54.982853  2606 net.cpp:380] dropout1 <- norm2
I0426 02:52:54.982867  2606 net.cpp:327] dropout1 -> norm2 (in-place)
I0426 02:52:54.982878  2606 net.cpp:113] Setting up dropout1
I0426 02:52:54.982892  2606 net.cpp:120] Top shape: 128 64 44 44 (15859712)
I0426 02:52:54.982897  2606 layer_factory.hpp:74] Creating layer conv3
I0426 02:52:54.982909  2606 net.cpp:84] Creating Layer conv3
I0426 02:52:54.982915  2606 net.cpp:380] conv3 <- norm2
I0426 02:52:54.982925  2606 net.cpp:338] conv3 -> conv3
I0426 02:52:54.982933  2606 net.cpp:113] Setting up conv3
I0426 02:52:54.983456  2606 net.cpp:120] Top shape: 128 128 43 43 (30294016)
I0426 02:52:54.983475  2606 layer_factory.hpp:74] Creating layer reLU3
I0426 02:52:54.983484  2606 net.cpp:84] Creating Layer reLU3
I0426 02:52:54.983491  2606 net.cpp:380] reLU3 <- conv3
I0426 02:52:54.983500  2606 net.cpp:327] reLU3 -> conv3 (in-place)
I0426 02:52:54.983507  2606 net.cpp:113] Setting up reLU3
I0426 02:52:54.983557  2606 net.cpp:120] Top shape: 128 128 43 43 (30294016)
I0426 02:52:54.983566  2606 layer_factory.hpp:74] Creating layer norm3
I0426 02:52:54.983575  2606 net.cpp:84] Creating Layer norm3
I0426 02:52:54.983582  2606 net.cpp:380] norm3 <- conv3
I0426 02:52:54.983589  2606 net.cpp:338] norm3 -> norm3
I0426 02:52:54.983597  2606 net.cpp:113] Setting up norm3
I0426 02:52:54.983607  2606 net.cpp:120] Top shape: 128 128 43 43 (30294016)
I0426 02:52:54.983616  2606 layer_factory.hpp:74] Creating layer conv4
I0426 02:52:54.983628  2606 net.cpp:84] Creating Layer conv4
I0426 02:52:54.983633  2606 net.cpp:380] conv4 <- norm3
I0426 02:52:54.983642  2606 net.cpp:338] conv4 -> conv4
I0426 02:52:54.983651  2606 net.cpp:113] Setting up conv4
I0426 02:52:54.984357  2606 net.cpp:120] Top shape: 128 128 42 42 (28901376)
I0426 02:52:54.984387  2606 layer_factory.hpp:74] Creating layer pool1
I0426 02:52:54.984407  2606 net.cpp:84] Creating Layer pool1
I0426 02:52:54.984415  2606 net.cpp:380] pool1 <- conv4
I0426 02:52:54.984423  2606 net.cpp:338] pool1 -> pool1
I0426 02:52:54.984432  2606 net.cpp:113] Setting up pool1
I0426 02:52:54.984597  2606 net.cpp:120] Top shape: 128 128 21 21 (7225344)
I0426 02:52:54.984611  2606 layer_factory.hpp:74] Creating layer norm4
I0426 02:52:54.984622  2606 net.cpp:84] Creating Layer norm4
I0426 02:52:54.984627  2606 net.cpp:380] norm4 <- pool1
I0426 02:52:54.984635  2606 net.cpp:338] norm4 -> norm4
I0426 02:52:54.984644  2606 net.cpp:113] Setting up norm4
I0426 02:52:54.984653  2606 net.cpp:120] Top shape: 128 128 21 21 (7225344)
I0426 02:52:54.984659  2606 layer_factory.hpp:74] Creating layer dropout2
I0426 02:52:54.984671  2606 net.cpp:84] Creating Layer dropout2
I0426 02:52:54.984678  2606 net.cpp:380] dropout2 <- norm4
I0426 02:52:54.984685  2606 net.cpp:327] dropout2 -> norm4 (in-place)
I0426 02:52:54.984694  2606 net.cpp:113] Setting up dropout2
I0426 02:52:54.984701  2606 net.cpp:120] Top shape: 128 128 21 21 (7225344)
I0426 02:52:54.984706  2606 layer_factory.hpp:74] Creating layer ip1
I0426 02:52:54.984719  2606 net.cpp:84] Creating Layer ip1
I0426 02:52:54.984725  2606 net.cpp:380] ip1 <- norm4
I0426 02:52:54.984733  2606 net.cpp:338] ip1 -> ip1
I0426 02:52:54.984745  2606 net.cpp:113] Setting up ip1
I0426 02:52:55.239109  2606 net.cpp:120] Top shape: 128 512 (65536)
I0426 02:52:55.239169  2606 layer_factory.hpp:74] Creating layer reLU4
I0426 02:52:55.239192  2606 net.cpp:84] Creating Layer reLU4
I0426 02:52:55.239199  2606 net.cpp:380] reLU4 <- ip1
I0426 02:52:55.239212  2606 net.cpp:327] reLU4 -> ip1 (in-place)
I0426 02:52:55.239224  2606 net.cpp:113] Setting up reLU4
I0426 02:52:55.239336  2606 net.cpp:120] Top shape: 128 512 (65536)
I0426 02:52:55.239346  2606 layer_factory.hpp:74] Creating layer dropout3
I0426 02:52:55.239356  2606 net.cpp:84] Creating Layer dropout3
I0426 02:52:55.239362  2606 net.cpp:380] dropout3 <- ip1
I0426 02:52:55.239382  2606 net.cpp:327] dropout3 -> ip1 (in-place)
I0426 02:52:55.239393  2606 net.cpp:113] Setting up dropout3
I0426 02:52:55.239413  2606 net.cpp:120] Top shape: 128 512 (65536)
I0426 02:52:55.239454  2606 layer_factory.hpp:74] Creating layer ip2
I0426 02:52:55.239466  2606 net.cpp:84] Creating Layer ip2
I0426 02:52:55.239473  2606 net.cpp:380] ip2 <- ip1
I0426 02:52:55.239482  2606 net.cpp:338] ip2 -> ip2
I0426 02:52:55.239495  2606 net.cpp:113] Setting up ip2
I0426 02:52:55.240450  2606 net.cpp:120] Top shape: 128 256 (32768)
I0426 02:52:55.240464  2606 layer_factory.hpp:74] Creating layer reLU5
I0426 02:52:55.240473  2606 net.cpp:84] Creating Layer reLU5
I0426 02:52:55.240478  2606 net.cpp:380] reLU5 <- ip2
I0426 02:52:55.240486  2606 net.cpp:327] reLU5 -> ip2 (in-place)
I0426 02:52:55.240494  2606 net.cpp:113] Setting up reLU5
I0426 02:52:55.240553  2606 net.cpp:120] Top shape: 128 256 (32768)
I0426 02:52:55.240562  2606 layer_factory.hpp:74] Creating layer dropout4
I0426 02:52:55.240571  2606 net.cpp:84] Creating Layer dropout4
I0426 02:52:55.240576  2606 net.cpp:380] dropout4 <- ip2
I0426 02:52:55.240584  2606 net.cpp:327] dropout4 -> ip2 (in-place)
I0426 02:52:55.240592  2606 net.cpp:113] Setting up dropout4
I0426 02:52:55.240600  2606 net.cpp:120] Top shape: 128 256 (32768)
I0426 02:52:55.240605  2606 layer_factory.hpp:74] Creating layer ip3
I0426 02:52:55.240615  2606 net.cpp:84] Creating Layer ip3
I0426 02:52:55.240622  2606 net.cpp:380] ip3 <- ip2
I0426 02:52:55.240629  2606 net.cpp:338] ip3 -> ip3
I0426 02:52:55.240638  2606 net.cpp:113] Setting up ip3
I0426 02:52:55.240870  2606 net.cpp:120] Top shape: 128 121 (15488)
I0426 02:52:55.240881  2606 layer_factory.hpp:74] Creating layer loss
I0426 02:52:55.240900  2606 net.cpp:84] Creating Layer loss
I0426 02:52:55.240906  2606 net.cpp:380] loss <- ip3
I0426 02:52:55.240912  2606 net.cpp:380] loss <- label
I0426 02:52:55.240926  2606 net.cpp:338] loss -> loss
I0426 02:52:55.240942  2606 net.cpp:113] Setting up loss
I0426 02:52:55.240954  2606 layer_factory.hpp:74] Creating layer loss
…
I0426 02:52:55.361814  2606 net.cpp:257] The NetState phase (1) differed from the phase (0) specified by a rule in layer ndsb
I0426 02:52:55.362033  2606 net.cpp:42] Initializing net from parameters: 
name: "SeaNet"
state {
  phase: TEST
}
layer {
  name: "ndsb"
  type: "Data"
  top: "data"
  top: "label"
  include {
    phase: TEST
  }
  transform_param {
    scale: 0.00390625
    mean_file: "./train_all_48_mean.binaryproto"
  }
  data_param {
    source: "/home/nitini/data_files/cross_val_files/cv_holdout_lmdb"
    batch_size: 128
    backend: LMDB
  }
}
layer {
  name: "conv1"
  type: "Convolution"
  bottom: "data"
  top: "conv1"
  param {
    lr_mult: 1
  }
  param {
    lr_mult: 2
  }
  convolution_param {
    num_output: 64
    kernel_size: 3
    stride: 1
    weight_filler {
      type: "xavier"
    }
    bias_filler {
      type: "constant"
    }
  }
}
layer {
  name: "reLU1"
  type: "ReLU"
  bottom: "conv1"
  top: "conv1"
}
layer {
  name: "norm1"
  type: "LRN"
  bottom: "conv1"
  top: "norm1"
  lrn_param {
    local_size: 5
    alpha: 0.0001
    beta: 0.75
  }
}
layer {
  name: "conv2"
  type: "Convolution"
  bottom: "norm1"
  top: "conv2"
  param {
    lr_mult: 1
  }
  param {
    lr_mult: 2
  }
  convolution_param {
    num_output: 64
    kernel_size: 3
    stride: 1
    weight_filler {
      type: "xavier"
    }
    bias_filler {
      type: "constant"
    }
  }
}
layer {
  name: "reLU2"
  type: "ReLU"
  bottom: "conv2"
  top: "conv2"
}
layer {
  name: "norm2"
  type: "LRN"
  bottom: "conv2"
  top: "norm2"
  lrn_param {
    local_size: 5
    alpha: 0.0001
    beta: 0.75
  }
}
layer {
  name: "dropout1"
  type: "Dropout"
  bottom: "norm2"
  top: "norm2"
  dropout_param {
    dropout_ratio: 0.5
  }
}
layer {
  name: "conv3"
  type: "Convolution"
  bottom: "norm2"
  top: "conv3"
  param {
    lr_mult: 1
  }
  param {
    lr_mult: 2
  }
  convolution_param {
    num_output: 128
    kernel_size: 2
    stride: 1
    weight_filler {
      type: "xavier"
    }
    bias_filler {
      type: "constant"
    }
  }
}
layer {
  name: "reLU3"
  type: "ReLU"
  bottom: "conv3"
  top: "conv3"
}
layer {
  name: "norm3"
  type: "LRN"
  bottom: "conv3"
  top: "norm3"
  lrn_param {
    local_size: 5
    alpha: 0.0001
    beta: 0.75
  }
}
layer {
  name: "conv4"
  type: "Convolution"
  bottom: "norm3"
  top: "conv4"
  param {
    lr_mult: 1
  }
  param {
    lr_mult: 2
  }
  convolution_param {
    num_output: 128
    kernel_size: 2
    stride: 1
    weight_filler {
      type: "xavier"
    }
    bias_filler {
      type: "constant"
    }
  }
}
layer {
  name: "pool1"
  type: "Pooling"
  bottom: "conv4"
  top: "pool1"
  pooling_param {
    pool: MAX
    kernel_size: 2
    stride: 2
  }
}
layer {
  name: "norm4"
  type: "LRN"
  bottom: "pool1"
  top: "norm4"
  lrn_param {
    local_size: 5
    alpha: 0.0001
    beta: 0.75
  }
}
layer {
  name: "dropout2"
  type: "Dropout"
  bottom: "norm4"
  top: "norm4"
  dropout_param {
    dropout_ratio: 0.5
  }
}
layer {
  name: "ip1"
  type: "InnerProduct"
  bottom: "norm4"
  top: "ip1"
  param {
    lr_mult: 1
  }
  param {
    lr_mult: 2
  }
  inner_product_param {
    num_output: 512
    weight_filler {
      type: "xavier"
    }
    bias_filler {
      type: "constant"
    }
  }
}
layer {
  name: "reLU4"
  type: "ReLU"
  bottom: "ip1"
  top: "ip1"
}
layer {
  name: "dropout3"
  type: "Dropout"
  bottom: "ip1"
  top: "ip1"
  dropout_param {
    dropout_ratio: 0.5
  }
}
layer {
  name: "ip2"
  type: "InnerProduct"
  bottom: "ip1"
  top: "ip2"
  param {
    lr_mult: 1
  }
  param {
    lr_mult: 2
  }
  inner_product_param {
    num_output: 256
    weight_filler {
      type: "xavier"
      std: 0.01
    }
    bias_filler {
      type: "constant"
      value: 0
    }
  }
}
layer {
  name: "reLU5"
  type: "ReLU"
  bottom: "ip2"
  top: "ip2"
}
layer {
  name: "dropout4"
  type: "Dropout"
  bottom: "ip2"
  top: "ip2"
  dropout_param {
    dropout_ratio: 0.5
  }
}
layer {
  name: "ip3"
  type: "InnerProduct"
  bottom: "ip2"
  top: "ip3"
  param {
    lr_mult: 1
  }
  param {
    lr_mult: 2
  }
  inner_product_param {
    num_output: 121
    weight_filler {
      type: "xavier"
      std: 0.01
    }
    bias_filler {
      type: "constant"
      value: 0
    }
  }
}
layer {
  name: "accuracy"
  type: "Accuracy"
  bottom: "ip3"
  bottom: "label"
  top: "accuracy"
  include {
    phase: TEST
  }
}
layer {
  name: "loss"
  type: "SoftmaxWithLoss"
  bottom: "ip3"
  bottom: "label"
  top: "loss"
}
I0426 02:52:55.362172  2606 layer_factory.hpp:74] Creating layer ndsb
I0426 02:52:55.362186  2606 net.cpp:84] Creating Layer ndsb
I0426 02:52:55.362193  2606 net.cpp:338] ndsb -> data
I0426 02:52:55.362205  2606 net.cpp:338] ndsb -> label
I0426 02:52:55.362215  2606 net.cpp:113] Setting up ndsb
I0426 02:52:55.846608  2606 db.cpp:34] Opened lmdb /home/nitini/data_files/cross_val_files/cv_holdout_lmdb
I0426 02:52:55.896901  2606 data_layer.cpp:67] output data size: 128,3,48,48
I0426 02:52:55.896917  2606 data_transformer.cpp:22] Loading mean file from: ./train_all_48_mean.binaryproto
I0426 02:52:55.999404  2606 net.cpp:120] Top shape: 128 3 48 48 (884736)
I0426 02:52:55.999421  2606 net.cpp:120] Top shape: 128 (128)
I0426 02:52:55.999429  2606 layer_factory.hpp:74] Creating layer label_ndsb_1_split
I0426 02:52:55.999444  2606 net.cpp:84] Creating Layer label_ndsb_1_split
I0426 02:52:55.999450  2606 net.cpp:380] label_ndsb_1_split <- label
I0426 02:52:55.999459  2606 net.cpp:338] label_ndsb_1_split -> label_ndsb_1_split_0
I0426 02:52:55.999471  2606 net.cpp:338] label_ndsb_1_split -> label_ndsb_1_split_1
I0426 02:52:55.999480  2606 net.cpp:113] Setting up label_ndsb_1_split
I0426 02:52:55.999488  2606 net.cpp:120] Top shape: 128 (128)
I0426 02:52:55.999495  2606 net.cpp:120] Top shape: 128 (128)
I0426 02:52:55.999500  2606 layer_factory.hpp:74] Creating layer conv1
I0426 02:52:55.999511  2606 net.cpp:84] Creating Layer conv1
I0426 02:52:55.999517  2606 net.cpp:380] conv1 <- data
I0426 02:52:55.999526  2606 net.cpp:338] conv1 -> conv1
I0426 02:52:55.999536  2606 net.cpp:113] Setting up conv1
I0426 02:52:55.999904  2606 net.cpp:120] Top shape: 128 64 46 46 (17334272)
I0426 02:52:55.999924  2606 layer_factory.hpp:74] Creating layer reLU1
I0426 02:52:55.999934  2606 net.cpp:84] Creating Layer reLU1
I0426 02:52:55.999940  2606 net.cpp:380] reLU1 <- conv1
I0426 02:52:55.999948  2606 net.cpp:327] reLU1 -> conv1 (in-place)
I0426 02:52:55.999956  2606 net.cpp:113] Setting up reLU1
I0426 02:52:56.000097  2606 net.cpp:120] Top shape: 128 64 46 46 (17334272)
I0426 02:52:56.000109  2606 layer_factory.hpp:74] Creating layer norm1
I0426 02:52:56.000121  2606 net.cpp:84] Creating Layer norm1
I0426 02:52:56.000128  2606 net.cpp:380] norm1 <- conv1
I0426 02:52:56.000135  2606 net.cpp:338] norm1 -> norm1
I0426 02:52:56.000144  2606 net.cpp:113] Setting up norm1
I0426 02:52:56.000154  2606 net.cpp:120] Top shape: 128 64 46 46 (17334272)
I0426 02:52:56.000160  2606 layer_factory.hpp:74] Creating layer conv2
I0426 02:52:56.000169  2606 net.cpp:84] Creating Layer conv2
I0426 02:52:56.000175  2606 net.cpp:380] conv2 <- norm1
I0426 02:52:56.000185  2606 net.cpp:338] conv2 -> conv2
I0426 02:52:56.000193  2606 net.cpp:113] Setting up conv2
I0426 02:52:56.000715  2606 net.cpp:120] Top shape: 128 64 44 44 (15859712)
I0426 02:52:56.000733  2606 layer_factory.hpp:74] Creating layer reLU2
I0426 02:52:56.000741  2606 net.cpp:84] Creating Layer reLU2
I0426 02:52:56.000747  2606 net.cpp:380] reLU2 <- conv2
I0426 02:52:56.000756  2606 net.cpp:327] reLU2 -> conv2 (in-place)
I0426 02:52:56.000763  2606 net.cpp:113] Setting up reLU2
I0426 02:52:56.000819  2606 net.cpp:120] Top shape: 128 64 44 44 (15859712)
I0426 02:52:56.000828  2606 layer_factory.hpp:74] Creating layer norm2
I0426 02:52:56.000838  2606 net.cpp:84] Creating Layer norm2
I0426 02:52:56.000843  2606 net.cpp:380] norm2 <- conv2
I0426 02:52:56.000850  2606 net.cpp:338] norm2 -> norm2
I0426 02:52:56.000859  2606 net.cpp:113] Setting up norm2
I0426 02:52:56.000874  2606 net.cpp:120] Top shape: 128 64 44 44 (15859712)
I0426 02:52:56.000897  2606 layer_factory.hpp:74] Creating layer dropout1
I0426 02:52:56.000907  2606 net.cpp:84] Creating Layer dropout1
I0426 02:52:56.000913  2606 net.cpp:380] dropout1 <- norm2
I0426 02:52:56.000921  2606 net.cpp:327] dropout1 -> norm2 (in-place)
I0426 02:52:56.000929  2606 net.cpp:113] Setting up dropout1
I0426 02:52:56.000938  2606 net.cpp:120] Top shape: 128 64 44 44 (15859712)
I0426 02:52:56.000946  2606 layer_factory.hpp:74] Creating layer conv3
I0426 02:52:56.000957  2606 net.cpp:84] Creating Layer conv3
I0426 02:52:56.000962  2606 net.cpp:380] conv3 <- norm2
I0426 02:52:56.000970  2606 net.cpp:338] conv3 -> conv3
I0426 02:52:56.000979  2606 net.cpp:113] Setting up conv3
I0426 02:52:56.001492  2606 net.cpp:120] Top shape: 128 128 43 43 (30294016)
I0426 02:52:56.001510  2606 layer_factory.hpp:74] Creating layer reLU3
I0426 02:52:56.001520  2606 net.cpp:84] Creating Layer reLU3
I0426 02:52:56.001525  2606 net.cpp:380] reLU3 <- conv3
I0426 02:52:56.001534  2606 net.cpp:327] reLU3 -> conv3 (in-place)
I0426 02:52:56.001543  2606 net.cpp:113] Setting up reLU3
I0426 02:52:56.001595  2606 net.cpp:120] Top shape: 128 128 43 43 (30294016)
I0426 02:52:56.001603  2606 layer_factory.hpp:74] Creating layer norm3
I0426 02:52:56.001612  2606 net.cpp:84] Creating Layer norm3
I0426 02:52:56.001618  2606 net.cpp:380] norm3 <- conv3
I0426 02:52:56.001627  2606 net.cpp:338] norm3 -> norm3
I0426 02:52:56.001636  2606 net.cpp:113] Setting up norm3
I0426 02:52:56.001647  2606 net.cpp:120] Top shape: 128 128 43 43 (30294016)
I0426 02:52:56.001652  2606 layer_factory.hpp:74] Creating layer conv4
I0426 02:52:56.001662  2606 net.cpp:84] Creating Layer conv4
I0426 02:52:56.001668  2606 net.cpp:380] conv4 <- norm3
I0426 02:52:56.001677  2606 net.cpp:338] conv4 -> conv4
I0426 02:52:56.001687  2606 net.cpp:113] Setting up conv4
I0426 02:52:56.002439  2606 net.cpp:120] Top shape: 128 128 42 42 (28901376)
I0426 02:52:56.002456  2606 layer_factory.hpp:74] Creating layer pool1
I0426 02:52:56.002467  2606 net.cpp:84] Creating Layer pool1
I0426 02:52:56.002476  2606 net.cpp:380] pool1 <- conv4
I0426 02:52:56.002485  2606 net.cpp:338] pool1 -> pool1
I0426 02:52:56.002495  2606 net.cpp:113] Setting up pool1
I0426 02:52:56.002557  2606 net.cpp:120] Top shape: 128 128 21 21 (7225344)
I0426 02:52:56.002565  2606 layer_factory.hpp:74] Creating layer norm4
I0426 02:52:56.002574  2606 net.cpp:84] Creating Layer norm4
I0426 02:52:56.002580  2606 net.cpp:380] norm4 <- pool1
I0426 02:52:56.002588  2606 net.cpp:338] norm4 -> norm4
I0426 02:52:56.002598  2606 net.cpp:113] Setting up norm4
I0426 02:52:56.002606  2606 net.cpp:120] Top shape: 128 128 21 21 (7225344)
I0426 02:52:56.002611  2606 layer_factory.hpp:74] Creating layer dropout2
I0426 02:52:56.002620  2606 net.cpp:84] Creating Layer dropout2
I0426 02:52:56.002625  2606 net.cpp:380] dropout2 <- norm4
I0426 02:52:56.002634  2606 net.cpp:327] dropout2 -> norm4 (in-place)
I0426 02:52:56.002641  2606 net.cpp:113] Setting up dropout2
I0426 02:52:56.002650  2606 net.cpp:120] Top shape: 128 128 21 21 (7225344)
I0426 02:52:56.002655  2606 layer_factory.hpp:74] Creating layer ip1
I0426 02:52:56.002666  2606 net.cpp:84] Creating Layer ip1
I0426 02:52:56.002672  2606 net.cpp:380] ip1 <- norm4
I0426 02:52:56.002682  2606 net.cpp:338] ip1 -> ip1
I0426 02:52:56.002691  2606 net.cpp:113] Setting up ip1
I0426 02:52:56.259531  2606 net.cpp:120] Top shape: 128 512 (65536)
I0426 02:52:56.259595  2606 layer_factory.hpp:74] Creating layer reLU4
I0426 02:52:56.259613  2606 net.cpp:84] Creating Layer reLU4
I0426 02:52:56.259621  2606 net.cpp:380] reLU4 <- ip1
I0426 02:52:56.259634  2606 net.cpp:327] reLU4 -> ip1 (in-place)
I0426 02:52:56.259647  2606 net.cpp:113] Setting up reLU4
I0426 02:52:56.259965  2606 net.cpp:120] Top shape: 128 512 (65536)
I0426 02:52:56.259979  2606 layer_factory.hpp:74] Creating layer dropout3
I0426 02:52:56.259994  2606 net.cpp:84] Creating Layer dropout3
I0426 02:52:56.260000  2606 net.cpp:380] dropout3 <- ip1
I0426 02:52:56.260020  2606 net.cpp:327] dropout3 -> ip1 (in-place)
I0426 02:52:56.260062  2606 net.cpp:113] Setting up dropout3
I0426 02:52:56.260073  2606 net.cpp:120] Top shape: 128 512 (65536)
I0426 02:52:56.260079  2606 layer_factory.hpp:74] Creating layer ip2
I0426 02:52:56.260092  2606 net.cpp:84] Creating Layer ip2
I0426 02:52:56.260097  2606 net.cpp:380] ip2 <- ip1
I0426 02:52:56.260107  2606 net.cpp:338] ip2 -> ip2
I0426 02:52:56.260118  2606 net.cpp:113] Setting up ip2
I0426 02:52:56.261248  2606 net.cpp:120] Top shape: 128 256 (32768)
I0426 02:52:56.261263  2606 layer_factory.hpp:74] Creating layer reLU5
I0426 02:52:56.261275  2606 net.cpp:84] Creating Layer reLU5
I0426 02:52:56.261281  2606 net.cpp:380] reLU5 <- ip2
I0426 02:52:56.261287  2606 net.cpp:327] reLU5 -> ip2 (in-place)
I0426 02:52:56.261296  2606 net.cpp:113] Setting up reLU5
I0426 02:52:56.261360  2606 net.cpp:120] Top shape: 128 256 (32768)
I0426 02:52:56.261379  2606 layer_factory.hpp:74] Creating layer dropout4
I0426 02:52:56.261390  2606 net.cpp:84] Creating Layer dropout4
I0426 02:52:56.261396  2606 net.cpp:380] dropout4 <- ip2
I0426 02:52:56.261404  2606 net.cpp:327] dropout4 -> ip2 (in-place)
I0426 02:52:56.261411  2606 net.cpp:113] Setting up dropout4
I0426 02:52:56.261420  2606 net.cpp:120] Top shape: 128 256 (32768)
I0426 02:52:56.261425  2606 layer_factory.hpp:74] Creating layer ip3
I0426 02:52:56.261437  2606 net.cpp:84] Creating Layer ip3
I0426 02:52:56.261443  2606 net.cpp:380] ip3 <- ip2
I0426 02:52:56.261452  2606 net.cpp:338] ip3 -> ip3
I0426 02:52:56.261461  2606 net.cpp:113] Setting up ip3
I0426 02:52:56.261737  2606 net.cpp:120] Top shape: 128 121 (15488)
I0426 02:52:56.261750  2606 layer_factory.hpp:74] Creating layer ip3_ip3_0_split
I0426 02:52:56.261759  2606 net.cpp:84] Creating Layer ip3_ip3_0_split
I0426 02:52:56.261765  2606 net.cpp:380] ip3_ip3_0_split <- ip3
I0426 02:52:56.261775  2606 net.cpp:338] ip3_ip3_0_split -> ip3_ip3_0_split_0
I0426 02:52:56.261785  2606 net.cpp:338] ip3_ip3_0_split -> ip3_ip3_0_split_1
I0426 02:52:56.261795  2606 net.cpp:113] Setting up ip3_ip3_0_split
I0426 02:52:56.261803  2606 net.cpp:120] Top shape: 128 121 (15488)
I0426 02:52:56.261811  2606 net.cpp:120] Top shape: 128 121 (15488)
I0426 02:52:56.261816  2606 layer_factory.hpp:74] Creating layer accuracy
I0426 02:52:56.261829  2606 net.cpp:84] Creating Layer accuracy
I0426 02:52:56.261836  2606 net.cpp:380] accuracy <- ip3_ip3_0_split_0
I0426 02:52:56.261842  2606 net.cpp:380] accuracy <- label_ndsb_1_split_0
I0426 02:52:56.261852  2606 net.cpp:338] accuracy -> accuracy
I0426 02:52:56.261862  2606 net.cpp:113] Setting up accuracy
…
