…
I0426 22:51:51.619830  2387 net.cpp:257] The NetState phase (0) differed from the phase (1) specified by a rule in layer accuracy
I0426 22:51:51.620069  2387 net.cpp:42] Initializing net from parameters: 
name: "SeaNet"
state {
  phase: TRAIN
}
layer {
  name: "ndsb"
  type: "Data"
  top: "data"
  top: "label"
  include {
    phase: TRAIN
  }
  transform_param {
    scale: 0.00390625
    mean_file: "./train_all_48_mean.binaryproto"
  }
  data_param {
    source: "/home/nitini/data_files/cross_val_files/cv_training_lmdb"
    batch_size: 256
    backend: LMDB
  }
}
layer {
  name: "conv1"
  type: "Convolution"
  bottom: "data"
  top: "conv1"
  param {
    lr_mult: 1
  }
  param {
    lr_mult: 2
  }
  convolution_param {
    num_output: 128
    kernel_size: 3
    stride: 2
    weight_filler {
      type: "xavier"
    }
    bias_filler {
      type: "constant"
    }
  }
}
layer {
  name: "reLU1"
  type: "ReLU"
  bottom: "conv1"
  top: "conv1"
}
layer {
  name: "norm1"
  type: "LRN"
  bottom: "conv1"
  top: "norm1"
  lrn_param {
    local_size: 5
    alpha: 0.0001
    beta: 0.75
  }
}
layer {
  name: "conv2"
  type: "Convolution"
  bottom: "norm1"
  top: "conv2"
  param {
    lr_mult: 1
  }
  param {
    lr_mult: 2
  }
  convolution_param {
    num_output: 128
    kernel_size: 3
    stride: 1
    weight_filler {
      type: "xavier"
    }
    bias_filler {
      type: "constant"
    }
  }
}
layer {
  name: "reLU2"
  type: "ReLU"
  bottom: "conv2"
  top: "conv2"
}
layer {
  name: "norm2"
  type: "LRN"
  bottom: "conv2"
  top: "norm2"
  lrn_param {
    local_size: 5
    alpha: 0.0001
    beta: 0.75
  }
}
layer {
  name: "dropout1"
  type: "Dropout"
  bottom: "norm2"
  top: "norm2"
  dropout_param {
    dropout_ratio: 0.5
  }
}
layer {
  name: "conv3"
  type: "Convolution"
  bottom: "norm2"
  top: "conv3"
  param {
    lr_mult: 1
  }
  param {
    lr_mult: 2
  }
  convolution_param {
    num_output: 256
    kernel_size: 2
    stride: 2
    weight_filler {
      type: "xavier"
    }
    bias_filler {
      type: "constant"
    }
  }
}
layer {
  name: "reLU3"
  type: "ReLU"
  bottom: "conv3"
  top: "conv3"
}
layer {
  name: "norm3"
  type: "LRN"
  bottom: "conv3"
  top: "norm3"
  lrn_param {
    local_size: 5
    alpha: 0.0001
    beta: 0.75
  }
}
layer {
  name: "conv4"
  type: "Convolution"
  bottom: "norm3"
  top: "conv4"
  param {
    lr_mult: 1
  }
  param {
    lr_mult: 2
  }
  convolution_param {
    num_output: 256
    kernel_size: 2
    stride: 1
    weight_filler {
      type: "xavier"
    }
    bias_filler {
      type: "constant"
    }
  }
}
layer {
  name: "pool1"
  type: "Pooling"
  bottom: "conv4"
  top: "pool1"
  pooling_param {
    pool: MAX
    kernel_size: 3
    stride: 3
  }
}
layer {
  name: "norm4"
  type: "LRN"
  bottom: "pool1"
  top: "norm4"
  lrn_param {
    local_size: 5
    alpha: 0.0001
    beta: 0.75
  }
}
layer {
  name: "dropout2"
  type: "Dropout"
  bottom: "norm4"
  top: "norm4"
  dropout_param {
    dropout_ratio: 0.5
  }
}
layer {
  name: "ip1"
  type: "InnerProduct"
  bottom: "norm4"
  top: "ip1"
  param {
    lr_mult: 1
  }
  param {
    lr_mult: 2
  }
  inner_product_param {
    num_output: 256
    weight_filler {
      type: "xavier"
    }
    bias_filler {
      type: "constant"
    }
  }
}
layer {
  name: "reLU4"
  type: "ReLU"
  bottom: "ip1"
  top: "ip1"
}
layer {
  name: "dropout3"
  type: "Dropout"
  bottom: "ip1"
  top: "ip1"
  dropout_param {
    dropout_ratio: 0.5
  }
}
layer {
  name: "ip2"
  type: "InnerProduct"
  bottom: "ip1"
  top: "ip2"
  param {
    lr_mult: 1
  }
  param {
    lr_mult: 2
  }
  inner_product_param {
    num_output: 256
    weight_filler {
      type: "xavier"
      std: 0.01
    }
    bias_filler {
      type: "constant"
      value: 0
    }
  }
}
layer {
  name: "reLU5"
  type: "ReLU"
  bottom: "ip2"
  top: "ip2"
}
layer {
  name: "dropout4"
  type: "Dropout"
  bottom: "ip2"
  top: "ip2"
  dropout_param {
    dropout_ratio: 0.5
  }
}
layer {
  name: "ip3"
  type: "InnerProduct"
  bottom: "ip2"
  top: "ip3"
  param {
    lr_mult: 1
  }
  param {
    lr_mult: 2
  }
  inner_product_param {
    num_output: 121
    weight_filler {
      type: "xavier"
      std: 0.01
    }
    bias_filler {
      type: "constant"
      value: 0
    }
  }
}
layer {
  name: "loss"
  type: "SoftmaxWithLoss"
  bottom: "ip3"
  bottom: "label"
  top: "loss"
}
I0426 22:51:51.620239  2387 layer_factory.hpp:74] Creating layer ndsb
I0426 22:51:51.621572  2387 net.cpp:84] Creating Layer ndsb
I0426 22:51:51.621590  2387 net.cpp:338] ndsb -> data
I0426 22:51:51.621628  2387 net.cpp:338] ndsb -> label
I0426 22:51:51.621645  2387 net.cpp:113] Setting up ndsb
I0426 22:51:52.053630  2387 db.cpp:34] Opened lmdb /home/nitini/data_files/cross_val_files/cv_training_lmdb
I0426 22:51:52.826557  2387 data_layer.cpp:67] output data size: 256,3,48,48
I0426 22:51:52.826591  2387 data_transformer.cpp:22] Loading mean file from: ./train_all_48_mean.binaryproto
I0426 22:51:53.497989  2387 net.cpp:120] Top shape: 256 3 48 48 (1769472)
I0426 22:51:53.498008  2387 net.cpp:120] Top shape: 256 (256)
I0426 22:51:53.498020  2387 layer_factory.hpp:74] Creating layer conv1
I0426 22:51:53.498046  2387 net.cpp:84] Creating Layer conv1
I0426 22:51:53.498056  2387 net.cpp:380] conv1 <- data
I0426 22:51:53.498076  2387 net.cpp:338] conv1 -> conv1
I0426 22:51:53.498095  2387 net.cpp:113] Setting up conv1
I0426 22:52:04.012573  2387 net.cpp:120] Top shape: 256 128 23 23 (17334272)
I0426 22:52:04.043697  2387 layer_factory.hpp:74] Creating layer reLU1
I0426 22:52:04.043720  2387 net.cpp:84] Creating Layer reLU1
I0426 22:52:04.043728  2387 net.cpp:380] reLU1 <- conv1
I0426 22:52:04.043738  2387 net.cpp:327] reLU1 -> conv1 (in-place)
I0426 22:52:04.043751  2387 net.cpp:113] Setting up reLU1
I0426 22:52:04.044543  2387 net.cpp:120] Top shape: 256 128 23 23 (17334272)
I0426 22:52:04.044556  2387 layer_factory.hpp:74] Creating layer norm1
I0426 22:52:04.044570  2387 net.cpp:84] Creating Layer norm1
I0426 22:52:04.044576  2387 net.cpp:380] norm1 <- conv1
I0426 22:52:04.044585  2387 net.cpp:338] norm1 -> norm1
I0426 22:52:04.044596  2387 net.cpp:113] Setting up norm1
I0426 22:52:04.044610  2387 net.cpp:120] Top shape: 256 128 23 23 (17334272)
I0426 22:52:04.044616  2387 layer_factory.hpp:74] Creating layer conv2
I0426 22:52:04.044631  2387 net.cpp:84] Creating Layer conv2
I0426 22:52:04.044636  2387 net.cpp:380] conv2 <- norm1
I0426 22:52:04.044644  2387 net.cpp:338] conv2 -> conv2
I0426 22:52:04.044659  2387 net.cpp:113] Setting up conv2
I0426 22:52:04.046064  2387 net.cpp:120] Top shape: 256 128 21 21 (14450688)
I0426 22:52:04.046082  2387 layer_factory.hpp:74] Creating layer reLU2
I0426 22:52:04.046092  2387 net.cpp:84] Creating Layer reLU2
I0426 22:52:04.046098  2387 net.cpp:380] reLU2 <- conv2
I0426 22:52:04.046107  2387 net.cpp:327] reLU2 -> conv2 (in-place)
I0426 22:52:04.046115  2387 net.cpp:113] Setting up reLU2
I0426 22:52:04.046162  2387 net.cpp:120] Top shape: 256 128 21 21 (14450688)
I0426 22:52:04.046170  2387 layer_factory.hpp:74] Creating layer norm2
I0426 22:52:04.046180  2387 net.cpp:84] Creating Layer norm2
I0426 22:52:04.046185  2387 net.cpp:380] norm2 <- conv2
I0426 22:52:04.046193  2387 net.cpp:338] norm2 -> norm2
I0426 22:52:04.046202  2387 net.cpp:113] Setting up norm2
I0426 22:52:04.046211  2387 net.cpp:120] Top shape: 256 128 21 21 (14450688)
I0426 22:52:04.046217  2387 layer_factory.hpp:74] Creating layer dropout1
I0426 22:52:04.046233  2387 net.cpp:84] Creating Layer dropout1
I0426 22:52:04.046239  2387 net.cpp:380] dropout1 <- norm2
I0426 22:52:04.046247  2387 net.cpp:327] dropout1 -> norm2 (in-place)
I0426 22:52:04.046257  2387 net.cpp:113] Setting up dropout1
I0426 22:52:04.046270  2387 net.cpp:120] Top shape: 256 128 21 21 (14450688)
I0426 22:52:04.046277  2387 layer_factory.hpp:74] Creating layer conv3
I0426 22:52:04.046288  2387 net.cpp:84] Creating Layer conv3
I0426 22:52:04.046293  2387 net.cpp:380] conv3 <- norm2
I0426 22:52:04.046300  2387 net.cpp:338] conv3 -> conv3
I0426 22:52:04.046308  2387 net.cpp:113] Setting up conv3
I0426 22:52:04.047456  2387 net.cpp:120] Top shape: 256 256 10 10 (6553600)
I0426 22:52:04.047474  2387 layer_factory.hpp:74] Creating layer reLU3
I0426 22:52:04.047483  2387 net.cpp:84] Creating Layer reLU3
I0426 22:52:04.047490  2387 net.cpp:380] reLU3 <- conv3
I0426 22:52:04.047497  2387 net.cpp:327] reLU3 -> conv3 (in-place)
I0426 22:52:04.047505  2387 net.cpp:113] Setting up reLU3
I0426 22:52:04.047551  2387 net.cpp:120] Top shape: 256 256 10 10 (6553600)
I0426 22:52:04.047559  2387 layer_factory.hpp:74] Creating layer norm3
I0426 22:52:04.047569  2387 net.cpp:84] Creating Layer norm3
I0426 22:52:04.047574  2387 net.cpp:380] norm3 <- conv3
I0426 22:52:04.047581  2387 net.cpp:338] norm3 -> norm3
I0426 22:52:04.047590  2387 net.cpp:113] Setting up norm3
I0426 22:52:04.047600  2387 net.cpp:120] Top shape: 256 256 10 10 (6553600)
I0426 22:52:04.047605  2387 layer_factory.hpp:74] Creating layer conv4
I0426 22:52:04.047615  2387 net.cpp:84] Creating Layer conv4
I0426 22:52:04.047619  2387 net.cpp:380] conv4 <- norm3
I0426 22:52:04.047627  2387 net.cpp:338] conv4 -> conv4
I0426 22:52:04.047637  2387 net.cpp:113] Setting up conv4
I0426 22:52:04.049876  2387 net.cpp:120] Top shape: 256 256 9 9 (5308416)
I0426 22:52:04.049906  2387 layer_factory.hpp:74] Creating layer pool1
I0426 22:52:04.049923  2387 net.cpp:84] Creating Layer pool1
I0426 22:52:04.049931  2387 net.cpp:380] pool1 <- conv4
I0426 22:52:04.049939  2387 net.cpp:338] pool1 -> pool1
I0426 22:52:04.049948  2387 net.cpp:113] Setting up pool1
I0426 22:52:04.050117  2387 net.cpp:120] Top shape: 256 256 3 3 (589824)
I0426 22:52:04.050129  2387 layer_factory.hpp:74] Creating layer norm4
I0426 22:52:04.050139  2387 net.cpp:84] Creating Layer norm4
I0426 22:52:04.050145  2387 net.cpp:380] norm4 <- pool1
I0426 22:52:04.050153  2387 net.cpp:338] norm4 -> norm4
I0426 22:52:04.050163  2387 net.cpp:113] Setting up norm4
I0426 22:52:04.050173  2387 net.cpp:120] Top shape: 256 256 3 3 (589824)
I0426 22:52:04.050179  2387 layer_factory.hpp:74] Creating layer dropout2
I0426 22:52:04.050186  2387 net.cpp:84] Creating Layer dropout2
I0426 22:52:04.050191  2387 net.cpp:380] dropout2 <- norm4
I0426 22:52:04.050199  2387 net.cpp:327] dropout2 -> norm4 (in-place)
I0426 22:52:04.050206  2387 net.cpp:113] Setting up dropout2
I0426 22:52:04.050217  2387 net.cpp:120] Top shape: 256 256 3 3 (589824)
I0426 22:52:04.050223  2387 layer_factory.hpp:74] Creating layer ip1
I0426 22:52:04.050236  2387 net.cpp:84] Creating Layer ip1
I0426 22:52:04.050242  2387 net.cpp:380] ip1 <- norm4
I0426 22:52:04.050251  2387 net.cpp:338] ip1 -> ip1
I0426 22:52:04.050262  2387 net.cpp:113] Setting up ip1
I0426 22:52:04.055611  2387 net.cpp:120] Top shape: 256 256 (65536)
I0426 22:52:04.055629  2387 layer_factory.hpp:74] Creating layer reLU4
I0426 22:52:04.055641  2387 net.cpp:84] Creating Layer reLU4
I0426 22:52:04.055647  2387 net.cpp:380] reLU4 <- ip1
I0426 22:52:04.055655  2387 net.cpp:327] reLU4 -> ip1 (in-place)
I0426 22:52:04.055663  2387 net.cpp:113] Setting up reLU4
I0426 22:52:04.055716  2387 net.cpp:120] Top shape: 256 256 (65536)
I0426 22:52:04.055723  2387 layer_factory.hpp:74] Creating layer dropout3
I0426 22:52:04.055732  2387 net.cpp:84] Creating Layer dropout3
I0426 22:52:04.055737  2387 net.cpp:380] dropout3 <- ip1
I0426 22:52:04.055744  2387 net.cpp:327] dropout3 -> ip1 (in-place)
I0426 22:52:04.055752  2387 net.cpp:113] Setting up dropout3
I0426 22:52:04.055764  2387 net.cpp:120] Top shape: 256 256 (65536)
I0426 22:52:04.055771  2387 layer_factory.hpp:74] Creating layer ip2
I0426 22:52:04.055781  2387 net.cpp:84] Creating Layer ip2
I0426 22:52:04.055786  2387 net.cpp:380] ip2 <- ip1
I0426 22:52:04.055794  2387 net.cpp:338] ip2 -> ip2
I0426 22:52:04.055804  2387 net.cpp:113] Setting up ip2
I0426 22:52:04.056386  2387 net.cpp:120] Top shape: 256 256 (65536)
I0426 22:52:04.056399  2387 layer_factory.hpp:74] Creating layer reLU5
I0426 22:52:04.056408  2387 net.cpp:84] Creating Layer reLU5
I0426 22:52:04.056414  2387 net.cpp:380] reLU5 <- ip2
I0426 22:52:04.056421  2387 net.cpp:327] reLU5 -> ip2 (in-place)
I0426 22:52:04.056429  2387 net.cpp:113] Setting up reLU5
I0426 22:52:04.056479  2387 net.cpp:120] Top shape: 256 256 (65536)
I0426 22:52:04.056488  2387 layer_factory.hpp:74] Creating layer dropout4
I0426 22:52:04.056495  2387 net.cpp:84] Creating Layer dropout4
I0426 22:52:04.056501  2387 net.cpp:380] dropout4 <- ip2
I0426 22:52:04.056509  2387 net.cpp:327] dropout4 -> ip2 (in-place)
I0426 22:52:04.056515  2387 net.cpp:113] Setting up dropout4
I0426 22:52:04.056525  2387 net.cpp:120] Top shape: 256 256 (65536)
I0426 22:52:04.056532  2387 layer_factory.hpp:74] Creating layer ip3
I0426 22:52:04.056541  2387 net.cpp:84] Creating Layer ip3
I0426 22:52:04.056547  2387 net.cpp:380] ip3 <- ip2
I0426 22:52:04.056555  2387 net.cpp:338] ip3 -> ip3
I0426 22:52:04.056563  2387 net.cpp:113] Setting up ip3
I0426 22:52:04.056839  2387 net.cpp:120] Top shape: 256 121 (30976)
I0426 22:52:04.056851  2387 layer_factory.hpp:74] Creating layer loss
I0426 22:52:04.056864  2387 net.cpp:84] Creating Layer loss
I0426 22:52:04.056870  2387 net.cpp:380] loss <- ip3
I0426 22:52:04.056877  2387 net.cpp:380] loss <- label
I0426 22:52:04.056905  2387 net.cpp:338] loss -> loss
I0426 22:52:04.057358  2387 net.cpp:113] Setting up loss
I0426 22:52:04.057375  2387 layer_factory.hpp:74] Creating layer loss
…
I0426 22:52:04.151154  2387 net.cpp:257] The NetState phase (1) differed from the phase (0) specified by a rule in layer ndsb
I0426 22:52:04.151378  2387 net.cpp:42] Initializing net from parameters: 
name: "SeaNet"
state {
  phase: TEST
}
layer {
  name: "ndsb"
  type: "Data"
  top: "data"
  top: "label"
  include {
    phase: TEST
  }
  transform_param {
    scale: 0.00390625
    mean_file: "./train_all_48_mean.binaryproto"
  }
  data_param {
    source: "/home/nitini/data_files/cross_val_files/cv_holdout_lmdb"
    batch_size: 256
    backend: LMDB
  }
}
layer {
  name: "conv1"
  type: "Convolution"
  bottom: "data"
  top: "conv1"
  param {
    lr_mult: 1
  }
  param {
    lr_mult: 2
  }
  convolution_param {
    num_output: 128
    kernel_size: 3
    stride: 2
    weight_filler {
      type: "xavier"
    }
    bias_filler {
      type: "constant"
    }
  }
}
layer {
  name: "reLU1"
  type: "ReLU"
  bottom: "conv1"
  top: "conv1"
}
layer {
  name: "norm1"
  type: "LRN"
  bottom: "conv1"
  top: "norm1"
  lrn_param {
    local_size: 5
    alpha: 0.0001
    beta: 0.75
  }
}
layer {
  name: "conv2"
  type: "Convolution"
  bottom: "norm1"
  top: "conv2"
  param {
    lr_mult: 1
  }
  param {
    lr_mult: 2
  }
  convolution_param {
    num_output: 128
    kernel_size: 3
    stride: 1
    weight_filler {
      type: "xavier"
    }
    bias_filler {
      type: "constant"
    }
  }
}
layer {
  name: "reLU2"
  type: "ReLU"
  bottom: "conv2"
  top: "conv2"
}
layer {
  name: "norm2"
  type: "LRN"
  bottom: "conv2"
  top: "norm2"
  lrn_param {
    local_size: 5
    alpha: 0.0001
    beta: 0.75
  }
}
layer {
  name: "dropout1"
  type: "Dropout"
  bottom: "norm2"
  top: "norm2"
  dropout_param {
    dropout_ratio: 0.5
  }
}
layer {
  name: "conv3"
  type: "Convolution"
  bottom: "norm2"
  top: "conv3"
  param {
    lr_mult: 1
  }
  param {
    lr_mult: 2
  }
  convolution_param {
    num_output: 256
    kernel_size: 2
    stride: 2
    weight_filler {
      type: "xavier"
    }
    bias_filler {
      type: "constant"
    }
  }
}
layer {
  name: "reLU3"
  type: "ReLU"
  bottom: "conv3"
  top: "conv3"
}
layer {
  name: "norm3"
  type: "LRN"
  bottom: "conv3"
  top: "norm3"
  lrn_param {
    local_size: 5
    alpha: 0.0001
    beta: 0.75
  }
}
layer {
  name: "conv4"
  type: "Convolution"
  bottom: "norm3"
  top: "conv4"
  param {
    lr_mult: 1
  }
  param {
    lr_mult: 2
  }
  convolution_param {
    num_output: 256
    kernel_size: 2
    stride: 1
    weight_filler {
      type: "xavier"
    }
    bias_filler {
      type: "constant"
    }
  }
}
layer {
  name: "pool1"
  type: "Pooling"
  bottom: "conv4"
  top: "pool1"
  pooling_param {
    pool: MAX
    kernel_size: 3
    stride: 3
  }
}
layer {
  name: "norm4"
  type: "LRN"
  bottom: "pool1"
  top: "norm4"
  lrn_param {
    local_size: 5
    alpha: 0.0001
    beta: 0.75
  }
}
layer {
  name: "dropout2"
  type: "Dropout"
  bottom: "norm4"
  top: "norm4"
  dropout_param {
    dropout_ratio: 0.5
  }
}
layer {
  name: "ip1"
  type: "InnerProduct"
  bottom: "norm4"
  top: "ip1"
  param {
    lr_mult: 1
  }
  param {
    lr_mult: 2
  }
  inner_product_param {
    num_output: 256
    weight_filler {
      type: "xavier"
    }
    bias_filler {
      type: "constant"
    }
  }
}
layer {
  name: "reLU4"
  type: "ReLU"
  bottom: "ip1"
  top: "ip1"
}
layer {
  name: "dropout3"
  type: "Dropout"
  bottom: "ip1"
  top: "ip1"
  dropout_param {
    dropout_ratio: 0.5
  }
}
layer {
  name: "ip2"
  type: "InnerProduct"
  bottom: "ip1"
  top: "ip2"
  param {
    lr_mult: 1
  }
  param {
    lr_mult: 2
  }
  inner_product_param {
    num_output: 256
    weight_filler {
      type: "xavier"
      std: 0.01
    }
    bias_filler {
      type: "constant"
      value: 0
    }
  }
}
layer {
  name: "reLU5"
  type: "ReLU"
  bottom: "ip2"
  top: "ip2"
}
layer {
  name: "dropout4"
  type: "Dropout"
  bottom: "ip2"
  top: "ip2"
  dropout_param {
    dropout_ratio: 0.5
  }
}
layer {
  name: "ip3"
  type: "InnerProduct"
  bottom: "ip2"
  top: "ip3"
  param {
    lr_mult: 1
  }
  param {
    lr_mult: 2
  }
  inner_product_param {
    num_output: 121
    weight_filler {
      type: "xavier"
      std: 0.01
    }
    bias_filler {
      type: "constant"
      value: 0
    }
  }
}
layer {
  name: "accuracy"
  type: "Accuracy"
  bottom: "ip3"
  bottom: "label"
  top: "accuracy"
  include {
    phase: TEST
  }
}
layer {
  name: "loss"
  type: "SoftmaxWithLoss"
  bottom: "ip3"
  bottom: "label"
  top: "loss"
}
I0426 22:52:04.151515  2387 layer_factory.hpp:74] Creating layer ndsb
I0426 22:52:04.151528  2387 net.cpp:84] Creating Layer ndsb
I0426 22:52:04.151535  2387 net.cpp:338] ndsb -> data
I0426 22:52:04.151547  2387 net.cpp:338] ndsb -> label
I0426 22:52:04.151556  2387 net.cpp:113] Setting up ndsb
I0426 22:52:04.442031  2387 db.cpp:34] Opened lmdb /home/nitini/data_files/cross_val_files/cv_holdout_lmdb
I0426 22:52:05.570653  2387 data_layer.cpp:67] output data size: 256,3,48,48
I0426 22:52:05.570696  2387 data_transformer.cpp:22] Loading mean file from: ./train_all_48_mean.binaryproto
I0426 22:52:06.761824  2387 net.cpp:120] Top shape: 256 3 48 48 (1769472)
I0426 22:52:06.761853  2387 net.cpp:120] Top shape: 256 (256)
I0426 22:52:06.761864  2387 layer_factory.hpp:74] Creating layer label_ndsb_1_split
I0426 22:52:06.761898  2387 net.cpp:84] Creating Layer label_ndsb_1_split
I0426 22:52:06.761908  2387 net.cpp:380] label_ndsb_1_split <- label
I0426 22:52:06.761919  2387 net.cpp:338] label_ndsb_1_split -> label_ndsb_1_split_0
I0426 22:52:06.761934  2387 net.cpp:338] label_ndsb_1_split -> label_ndsb_1_split_1
I0426 22:52:06.761942  2387 net.cpp:113] Setting up label_ndsb_1_split
I0426 22:52:06.761952  2387 net.cpp:120] Top shape: 256 (256)
I0426 22:52:06.761960  2387 net.cpp:120] Top shape: 256 (256)
I0426 22:52:06.761965  2387 layer_factory.hpp:74] Creating layer conv1
I0426 22:52:06.761978  2387 net.cpp:84] Creating Layer conv1
I0426 22:52:06.761984  2387 net.cpp:380] conv1 <- data
I0426 22:52:06.761993  2387 net.cpp:338] conv1 -> conv1
I0426 22:52:06.762043  2387 net.cpp:113] Setting up conv1
I0426 22:52:06.762444  2387 net.cpp:120] Top shape: 256 128 23 23 (17334272)
I0426 22:52:06.762465  2387 layer_factory.hpp:74] Creating layer reLU1
I0426 22:52:06.762477  2387 net.cpp:84] Creating Layer reLU1
I0426 22:52:06.762485  2387 net.cpp:380] reLU1 <- conv1
I0426 22:52:06.762491  2387 net.cpp:327] reLU1 -> conv1 (in-place)
I0426 22:52:06.762501  2387 net.cpp:113] Setting up reLU1
I0426 22:52:06.762648  2387 net.cpp:120] Top shape: 256 128 23 23 (17334272)
I0426 22:52:06.762662  2387 layer_factory.hpp:74] Creating layer norm1
I0426 22:52:06.762677  2387 net.cpp:84] Creating Layer norm1
I0426 22:52:06.762683  2387 net.cpp:380] norm1 <- conv1
I0426 22:52:06.762691  2387 net.cpp:338] norm1 -> norm1
I0426 22:52:06.762701  2387 net.cpp:113] Setting up norm1
I0426 22:52:06.762712  2387 net.cpp:120] Top shape: 256 128 23 23 (17334272)
I0426 22:52:06.762717  2387 layer_factory.hpp:74] Creating layer conv2
I0426 22:52:06.762728  2387 net.cpp:84] Creating Layer conv2
I0426 22:52:06.762734  2387 net.cpp:380] conv2 <- norm1
I0426 22:52:06.762742  2387 net.cpp:338] conv2 -> conv2
I0426 22:52:06.762751  2387 net.cpp:113] Setting up conv2
I0426 22:52:06.764257  2387 net.cpp:120] Top shape: 256 128 21 21 (14450688)
I0426 22:52:06.764276  2387 layer_factory.hpp:74] Creating layer reLU2
I0426 22:52:06.764286  2387 net.cpp:84] Creating Layer reLU2
I0426 22:52:06.764292  2387 net.cpp:380] reLU2 <- conv2
I0426 22:52:06.764302  2387 net.cpp:327] reLU2 -> conv2 (in-place)
I0426 22:52:06.764310  2387 net.cpp:113] Setting up reLU2
I0426 22:52:06.764375  2387 net.cpp:120] Top shape: 256 128 21 21 (14450688)
I0426 22:52:06.764387  2387 layer_factory.hpp:74] Creating layer norm2
I0426 22:52:06.764400  2387 net.cpp:84] Creating Layer norm2
I0426 22:52:06.764405  2387 net.cpp:380] norm2 <- conv2
I0426 22:52:06.764412  2387 net.cpp:338] norm2 -> norm2
I0426 22:52:06.764421  2387 net.cpp:113] Setting up norm2
I0426 22:52:06.764435  2387 net.cpp:120] Top shape: 256 128 21 21 (14450688)
I0426 22:52:06.764441  2387 layer_factory.hpp:74] Creating layer dropout1
I0426 22:52:06.764451  2387 net.cpp:84] Creating Layer dropout1
I0426 22:52:06.764456  2387 net.cpp:380] dropout1 <- norm2
I0426 22:52:06.764466  2387 net.cpp:327] dropout1 -> norm2 (in-place)
I0426 22:52:06.764474  2387 net.cpp:113] Setting up dropout1
I0426 22:52:06.764484  2387 net.cpp:120] Top shape: 256 128 21 21 (14450688)
I0426 22:52:06.764489  2387 layer_factory.hpp:74] Creating layer conv3
I0426 22:52:06.764499  2387 net.cpp:84] Creating Layer conv3
I0426 22:52:06.764504  2387 net.cpp:380] conv3 <- norm2
I0426 22:52:06.764515  2387 net.cpp:338] conv3 -> conv3
I0426 22:52:06.764525  2387 net.cpp:113] Setting up conv3
I0426 22:52:06.765904  2387 net.cpp:120] Top shape: 256 256 10 10 (6553600)
I0426 22:52:06.765923  2387 layer_factory.hpp:74] Creating layer reLU3
I0426 22:52:06.765931  2387 net.cpp:84] Creating Layer reLU3
I0426 22:52:06.765938  2387 net.cpp:380] reLU3 <- conv3
I0426 22:52:06.765947  2387 net.cpp:327] reLU3 -> conv3 (in-place)
I0426 22:52:06.765956  2387 net.cpp:113] Setting up reLU3
I0426 22:52:06.766016  2387 net.cpp:120] Top shape: 256 256 10 10 (6553600)
I0426 22:52:06.766023  2387 layer_factory.hpp:74] Creating layer norm3
I0426 22:52:06.766034  2387 net.cpp:84] Creating Layer norm3
I0426 22:52:06.766041  2387 net.cpp:380] norm3 <- conv3
I0426 22:52:06.766047  2387 net.cpp:338] norm3 -> norm3
I0426 22:52:06.766057  2387 net.cpp:113] Setting up norm3
I0426 22:52:06.766064  2387 net.cpp:120] Top shape: 256 256 10 10 (6553600)
I0426 22:52:06.766070  2387 layer_factory.hpp:74] Creating layer conv4
I0426 22:52:06.766083  2387 net.cpp:84] Creating Layer conv4
I0426 22:52:06.766088  2387 net.cpp:380] conv4 <- norm3
I0426 22:52:06.766098  2387 net.cpp:338] conv4 -> conv4
I0426 22:52:06.766108  2387 net.cpp:113] Setting up conv4
I0426 22:52:06.768589  2387 net.cpp:120] Top shape: 256 256 9 9 (5308416)
I0426 22:52:06.768607  2387 layer_factory.hpp:74] Creating layer pool1
I0426 22:52:06.768620  2387 net.cpp:84] Creating Layer pool1
I0426 22:52:06.768646  2387 net.cpp:380] pool1 <- conv4
I0426 22:52:06.768654  2387 net.cpp:338] pool1 -> pool1
I0426 22:52:06.768663  2387 net.cpp:113] Setting up pool1
I0426 22:52:06.768728  2387 net.cpp:120] Top shape: 256 256 3 3 (589824)
I0426 22:52:06.768739  2387 layer_factory.hpp:74] Creating layer norm4
I0426 22:52:06.768749  2387 net.cpp:84] Creating Layer norm4
I0426 22:52:06.768757  2387 net.cpp:380] norm4 <- pool1
I0426 22:52:06.768764  2387 net.cpp:338] norm4 -> norm4
I0426 22:52:06.768772  2387 net.cpp:113] Setting up norm4
I0426 22:52:06.768782  2387 net.cpp:120] Top shape: 256 256 3 3 (589824)
I0426 22:52:06.768787  2387 layer_factory.hpp:74] Creating layer dropout2
I0426 22:52:06.768795  2387 net.cpp:84] Creating Layer dropout2
I0426 22:52:06.768800  2387 net.cpp:380] dropout2 <- norm4
I0426 22:52:06.768810  2387 net.cpp:327] dropout2 -> norm4 (in-place)
I0426 22:52:06.768817  2387 net.cpp:113] Setting up dropout2
I0426 22:52:06.768826  2387 net.cpp:120] Top shape: 256 256 3 3 (589824)
I0426 22:52:06.768831  2387 layer_factory.hpp:74] Creating layer ip1
I0426 22:52:06.768865  2387 net.cpp:84] Creating Layer ip1
I0426 22:52:06.768872  2387 net.cpp:380] ip1 <- norm4
I0426 22:52:06.768884  2387 net.cpp:338] ip1 -> ip1
I0426 22:52:06.768894  2387 net.cpp:113] Setting up ip1
I0426 22:52:06.773836  2387 net.cpp:120] Top shape: 256 256 (65536)
I0426 22:52:06.773859  2387 layer_factory.hpp:74] Creating layer reLU4
I0426 22:52:06.773869  2387 net.cpp:84] Creating Layer reLU4
I0426 22:52:06.773874  2387 net.cpp:380] reLU4 <- ip1
I0426 22:52:06.773893  2387 net.cpp:327] reLU4 -> ip1 (in-place)
I0426 22:52:06.773903  2387 net.cpp:113] Setting up reLU4
I0426 22:52:06.774052  2387 net.cpp:120] Top shape: 256 256 (65536)
I0426 22:52:06.774065  2387 layer_factory.hpp:74] Creating layer dropout3
I0426 22:52:06.774075  2387 net.cpp:84] Creating Layer dropout3
I0426 22:52:06.774081  2387 net.cpp:380] dropout3 <- ip1
I0426 22:52:06.774096  2387 net.cpp:327] dropout3 -> ip1 (in-place)
I0426 22:52:06.774104  2387 net.cpp:113] Setting up dropout3
I0426 22:52:06.774113  2387 net.cpp:120] Top shape: 256 256 (65536)
I0426 22:52:06.774119  2387 layer_factory.hpp:74] Creating layer ip2
I0426 22:52:06.774129  2387 net.cpp:84] Creating Layer ip2
I0426 22:52:06.774134  2387 net.cpp:380] ip2 <- ip1
I0426 22:52:06.774147  2387 net.cpp:338] ip2 -> ip2
I0426 22:52:06.774157  2387 net.cpp:113] Setting up ip2
I0426 22:52:06.774718  2387 net.cpp:120] Top shape: 256 256 (65536)
I0426 22:52:06.774731  2387 layer_factory.hpp:74] Creating layer reLU5
I0426 22:52:06.774742  2387 net.cpp:84] Creating Layer reLU5
I0426 22:52:06.774749  2387 net.cpp:380] reLU5 <- ip2
I0426 22:52:06.774755  2387 net.cpp:327] reLU5 -> ip2 (in-place)
I0426 22:52:06.774763  2387 net.cpp:113] Setting up reLU5
I0426 22:52:06.774824  2387 net.cpp:120] Top shape: 256 256 (65536)
I0426 22:52:06.774832  2387 layer_factory.hpp:74] Creating layer dropout4
I0426 22:52:06.774840  2387 net.cpp:84] Creating Layer dropout4
I0426 22:52:06.774847  2387 net.cpp:380] dropout4 <- ip2
I0426 22:52:06.774857  2387 net.cpp:327] dropout4 -> ip2 (in-place)
I0426 22:52:06.774866  2387 net.cpp:113] Setting up dropout4
I0426 22:52:06.774874  2387 net.cpp:120] Top shape: 256 256 (65536)
I0426 22:52:06.774893  2387 layer_factory.hpp:74] Creating layer ip3
I0426 22:52:06.774904  2387 net.cpp:84] Creating Layer ip3
I0426 22:52:06.774910  2387 net.cpp:380] ip3 <- ip2
I0426 22:52:06.774921  2387 net.cpp:338] ip3 -> ip3
I0426 22:52:06.774930  2387 net.cpp:113] Setting up ip3
I0426 22:52:06.775205  2387 net.cpp:120] Top shape: 256 121 (30976)
I0426 22:52:06.775218  2387 layer_factory.hpp:74] Creating layer ip3_ip3_0_split
I0426 22:52:06.775228  2387 net.cpp:84] Creating Layer ip3_ip3_0_split
I0426 22:52:06.775238  2387 net.cpp:380] ip3_ip3_0_split <- ip3
I0426 22:52:06.775245  2387 net.cpp:338] ip3_ip3_0_split -> ip3_ip3_0_split_0
I0426 22:52:06.775255  2387 net.cpp:338] ip3_ip3_0_split -> ip3_ip3_0_split_1
I0426 22:52:06.775264  2387 net.cpp:113] Setting up ip3_ip3_0_split
I0426 22:52:06.775291  2387 net.cpp:120] Top shape: 256 121 (30976)
I0426 22:52:06.775300  2387 net.cpp:120] Top shape: 256 121 (30976)
I0426 22:52:06.775305  2387 layer_factory.hpp:74] Creating layer accuracy
I0426 22:52:06.775318  2387 net.cpp:84] Creating Layer accuracy
I0426 22:52:06.775324  2387 net.cpp:380] accuracy <- ip3_ip3_0_split_0
I0426 22:52:06.775331  2387 net.cpp:380] accuracy <- label_ndsb_1_split_0
I0426 22:52:06.775338  2387 net.cpp:338] accuracy -> accuracy
I0426 22:52:06.775347  2387 net.cpp:113] Setting up accuracy
…
