…
I0427 03:00:53.671583 30346 net.cpp:257] The NetState phase (0) differed from the phase (1) specified by a rule in layer accuracy
I0427 03:00:53.671850 30346 net.cpp:42] Initializing net from parameters: 
name: "SeaNet"
state {
  phase: TRAIN
}
layer {
  name: "ndsb"
  type: "Data"
  top: "data"
  top: "label"
  include {
    phase: TRAIN
  }
  transform_param {
    scale: 0.00390625
    mean_file: "./train_all_48_mean.binaryproto"
  }
  data_param {
    source: "/home/nitini/data_files/cross_val_files/cv_training_lmdb"
    batch_size: 256
    backend: LMDB
  }
}
layer {
  name: "conv1"
  type: "Convolution"
  bottom: "data"
  top: "conv1"
  param {
    lr_mult: 1
  }
  param {
    lr_mult: 2
  }
  convolution_param {
    num_output: 128
    kernel_size: 3
    stride: 2
    weight_filler {
      type: "xavier"
    }
    bias_filler {
      type: "constant"
    }
  }
}
layer {
  name: "reLU1"
  type: "ReLU"
  bottom: "conv1"
  top: "conv1"
}
layer {
  name: "norm1"
  type: "LRN"
  bottom: "conv1"
  top: "norm1"
  lrn_param {
    local_size: 5
    alpha: 0.0001
    beta: 0.75
  }
}
layer {
  name: "conv2"
  type: "Convolution"
  bottom: "norm1"
  top: "conv2"
  param {
    lr_mult: 1
  }
  param {
    lr_mult: 2
  }
  convolution_param {
    num_output: 128
    kernel_size: 3
    stride: 1
    weight_filler {
      type: "xavier"
    }
    bias_filler {
      type: "constant"
    }
  }
}
layer {
  name: "reLU2"
  type: "ReLU"
  bottom: "conv2"
  top: "conv2"
}
layer {
  name: "norm2"
  type: "LRN"
  bottom: "conv2"
  top: "norm2"
  lrn_param {
    local_size: 5
    alpha: 0.0001
    beta: 0.75
  }
}
layer {
  name: "dropout1"
  type: "Dropout"
  bottom: "norm2"
  top: "norm2"
  dropout_param {
    dropout_ratio: 0.5
  }
}
layer {
  name: "conv3"
  type: "Convolution"
  bottom: "norm2"
  top: "conv3"
  param {
    lr_mult: 1
  }
  param {
    lr_mult: 2
  }
  convolution_param {
    num_output: 256
    kernel_size: 2
    stride: 2
    weight_filler {
      type: "xavier"
    }
    bias_filler {
      type: "constant"
    }
  }
}
layer {
  name: "reLU3"
  type: "ReLU"
  bottom: "conv3"
  top: "conv3"
}
layer {
  name: "norm3"
  type: "LRN"
  bottom: "conv3"
  top: "norm3"
  lrn_param {
    local_size: 5
    alpha: 0.0001
    beta: 0.75
  }
}
layer {
  name: "conv4"
  type: "Convolution"
  bottom: "norm3"
  top: "conv4"
  param {
    lr_mult: 1
  }
  param {
    lr_mult: 2
  }
  convolution_param {
    num_output: 256
    kernel_size: 2
    stride: 1
    weight_filler {
      type: "xavier"
    }
    bias_filler {
      type: "constant"
    }
  }
}
layer {
  name: "pool1"
  type: "Pooling"
  bottom: "conv4"
  top: "pool1"
  pooling_param {
    pool: MAX
    kernel_size: 3
    stride: 3
  }
}
layer {
  name: "norm4"
  type: "LRN"
  bottom: "pool1"
  top: "norm4"
  lrn_param {
    local_size: 5
    alpha: 0.0001
    beta: 0.75
  }
}
layer {
  name: "dropout2"
  type: "Dropout"
  bottom: "norm4"
  top: "norm4"
  dropout_param {
    dropout_ratio: 0.5
  }
}
layer {
  name: "ip1"
  type: "InnerProduct"
  bottom: "norm4"
  top: "ip1"
  param {
    lr_mult: 1
  }
  param {
    lr_mult: 2
  }
  inner_product_param {
    num_output: 256
    weight_filler {
      type: "xavier"
    }
    bias_filler {
      type: "constant"
    }
  }
}
layer {
  name: "reLU4"
  type: "ReLU"
  bottom: "ip1"
  top: "ip1"
}
layer {
  name: "dropout3"
  type: "Dropout"
  bottom: "ip1"
  top: "ip1"
  dropout_param {
    dropout_ratio: 0.5
  }
}
layer {
  name: "ip2"
  type: "InnerProduct"
  bottom: "ip1"
  top: "ip2"
  param {
    lr_mult: 1
  }
  param {
    lr_mult: 2
  }
  inner_product_param {
    num_output: 256
    weight_filler {
      type: "xavier"
      std: 0.01
    }
    bias_filler {
      type: "constant"
      value: 0
    }
  }
}
layer {
  name: "reLU5"
  type: "ReLU"
  bottom: "ip2"
  top: "ip2"
}
layer {
  name: "dropout4"
  type: "Dropout"
  bottom: "ip2"
  top: "ip2"
  dropout_param {
    dropout_ratio: 0.5
  }
}
layer {
  name: "ip3"
  type: "InnerProduct"
  bottom: "ip2"
  top: "ip3"
  param {
    lr_mult: 1
  }
  param {
    lr_mult: 2
  }
  inner_product_param {
    num_output: 121
    weight_filler {
      type: "xavier"
      std: 0.01
    }
    bias_filler {
      type: "constant"
      value: 0
    }
  }
}
layer {
  name: "loss"
  type: "SoftmaxWithLoss"
  bottom: "ip3"
  bottom: "label"
  top: "loss"
}
I0427 03:00:53.672013 30346 layer_factory.hpp:74] Creating layer ndsb
I0427 03:00:53.672036 30346 net.cpp:84] Creating Layer ndsb
I0427 03:00:53.672049 30346 net.cpp:338] ndsb -> data
I0427 03:00:53.672082 30346 net.cpp:338] ndsb -> label
I0427 03:00:53.672101 30346 net.cpp:113] Setting up ndsb
I0427 03:00:54.076560 30346 db.cpp:34] Opened lmdb /home/nitini/data_files/cross_val_files/cv_training_lmdb
I0427 03:00:54.738379 30346 data_layer.cpp:67] output data size: 256,3,48,48
I0427 03:00:54.738421 30346 data_transformer.cpp:22] Loading mean file from: ./train_all_48_mean.binaryproto
I0427 03:00:55.125015 30346 net.cpp:120] Top shape: 256 3 48 48 (1769472)
I0427 03:00:55.125032 30346 net.cpp:120] Top shape: 256 (256)
I0427 03:00:55.125043 30346 layer_factory.hpp:74] Creating layer conv1
I0427 03:00:55.125069 30346 net.cpp:84] Creating Layer conv1
I0427 03:00:55.125080 30346 net.cpp:380] conv1 <- data
I0427 03:00:55.125104 30346 net.cpp:338] conv1 -> conv1
I0427 03:00:55.125123 30346 net.cpp:113] Setting up conv1
I0427 03:00:59.716424 30346 net.cpp:120] Top shape: 256 128 23 23 (17334272)
I0427 03:00:59.747285 30346 layer_factory.hpp:74] Creating layer reLU1
I0427 03:00:59.747308 30346 net.cpp:84] Creating Layer reLU1
I0427 03:00:59.747314 30346 net.cpp:380] reLU1 <- conv1
I0427 03:00:59.747325 30346 net.cpp:327] reLU1 -> conv1 (in-place)
I0427 03:00:59.747336 30346 net.cpp:113] Setting up reLU1
I0427 03:00:59.751668 30346 net.cpp:120] Top shape: 256 128 23 23 (17334272)
I0427 03:00:59.751682 30346 layer_factory.hpp:74] Creating layer norm1
I0427 03:00:59.751696 30346 net.cpp:84] Creating Layer norm1
I0427 03:00:59.751703 30346 net.cpp:380] norm1 <- conv1
I0427 03:00:59.751711 30346 net.cpp:338] norm1 -> norm1
I0427 03:00:59.751723 30346 net.cpp:113] Setting up norm1
I0427 03:00:59.751736 30346 net.cpp:120] Top shape: 256 128 23 23 (17334272)
I0427 03:00:59.751742 30346 layer_factory.hpp:74] Creating layer conv2
I0427 03:00:59.751755 30346 net.cpp:84] Creating Layer conv2
I0427 03:00:59.751761 30346 net.cpp:380] conv2 <- norm1
I0427 03:00:59.751770 30346 net.cpp:338] conv2 -> conv2
I0427 03:00:59.751780 30346 net.cpp:113] Setting up conv2
I0427 03:00:59.753084 30346 net.cpp:120] Top shape: 256 128 21 21 (14450688)
I0427 03:00:59.753103 30346 layer_factory.hpp:74] Creating layer reLU2
I0427 03:00:59.753113 30346 net.cpp:84] Creating Layer reLU2
I0427 03:00:59.753118 30346 net.cpp:380] reLU2 <- conv2
I0427 03:00:59.753125 30346 net.cpp:327] reLU2 -> conv2 (in-place)
I0427 03:00:59.753134 30346 net.cpp:113] Setting up reLU2
I0427 03:00:59.753182 30346 net.cpp:120] Top shape: 256 128 21 21 (14450688)
I0427 03:00:59.753190 30346 layer_factory.hpp:74] Creating layer norm2
I0427 03:00:59.753200 30346 net.cpp:84] Creating Layer norm2
I0427 03:00:59.753206 30346 net.cpp:380] norm2 <- conv2
I0427 03:00:59.753212 30346 net.cpp:338] norm2 -> norm2
I0427 03:00:59.753221 30346 net.cpp:113] Setting up norm2
I0427 03:00:59.753232 30346 net.cpp:120] Top shape: 256 128 21 21 (14450688)
I0427 03:00:59.753288 30346 layer_factory.hpp:74] Creating layer dropout1
I0427 03:00:59.753309 30346 net.cpp:84] Creating Layer dropout1
I0427 03:00:59.753341 30346 net.cpp:380] dropout1 <- norm2
I0427 03:00:59.753350 30346 net.cpp:327] dropout1 -> norm2 (in-place)
I0427 03:00:59.753360 30346 net.cpp:113] Setting up dropout1
I0427 03:00:59.753375 30346 net.cpp:120] Top shape: 256 128 21 21 (14450688)
I0427 03:00:59.753381 30346 layer_factory.hpp:74] Creating layer conv3
I0427 03:00:59.753391 30346 net.cpp:84] Creating Layer conv3
I0427 03:00:59.753396 30346 net.cpp:380] conv3 <- norm2
I0427 03:00:59.753404 30346 net.cpp:338] conv3 -> conv3
I0427 03:00:59.753413 30346 net.cpp:113] Setting up conv3
I0427 03:00:59.754631 30346 net.cpp:120] Top shape: 256 256 10 10 (6553600)
I0427 03:00:59.754648 30346 layer_factory.hpp:74] Creating layer reLU3
I0427 03:00:59.754658 30346 net.cpp:84] Creating Layer reLU3
I0427 03:00:59.754664 30346 net.cpp:380] reLU3 <- conv3
I0427 03:00:59.754673 30346 net.cpp:327] reLU3 -> conv3 (in-place)
I0427 03:00:59.754680 30346 net.cpp:113] Setting up reLU3
I0427 03:00:59.754776 30346 net.cpp:120] Top shape: 256 256 10 10 (6553600)
I0427 03:00:59.754788 30346 layer_factory.hpp:74] Creating layer norm3
I0427 03:00:59.754797 30346 net.cpp:84] Creating Layer norm3
I0427 03:00:59.754803 30346 net.cpp:380] norm3 <- conv3
I0427 03:00:59.754812 30346 net.cpp:338] norm3 -> norm3
I0427 03:00:59.754820 30346 net.cpp:113] Setting up norm3
I0427 03:00:59.754829 30346 net.cpp:120] Top shape: 256 256 10 10 (6553600)
I0427 03:00:59.754835 30346 layer_factory.hpp:74] Creating layer conv4
I0427 03:00:59.754844 30346 net.cpp:84] Creating Layer conv4
I0427 03:00:59.754850 30346 net.cpp:380] conv4 <- norm3
I0427 03:00:59.754858 30346 net.cpp:338] conv4 -> conv4
I0427 03:00:59.754868 30346 net.cpp:113] Setting up conv4
I0427 03:00:59.757239 30346 net.cpp:120] Top shape: 256 256 9 9 (5308416)
I0427 03:00:59.757256 30346 layer_factory.hpp:74] Creating layer pool1
I0427 03:00:59.757273 30346 net.cpp:84] Creating Layer pool1
I0427 03:00:59.757279 30346 net.cpp:380] pool1 <- conv4
I0427 03:00:59.757288 30346 net.cpp:338] pool1 -> pool1
I0427 03:00:59.757297 30346 net.cpp:113] Setting up pool1
I0427 03:00:59.757446 30346 net.cpp:120] Top shape: 256 256 3 3 (589824)
I0427 03:00:59.757457 30346 layer_factory.hpp:74] Creating layer norm4
I0427 03:00:59.757467 30346 net.cpp:84] Creating Layer norm4
I0427 03:00:59.757472 30346 net.cpp:380] norm4 <- pool1
I0427 03:00:59.757480 30346 net.cpp:338] norm4 -> norm4
I0427 03:00:59.757489 30346 net.cpp:113] Setting up norm4
I0427 03:00:59.757498 30346 net.cpp:120] Top shape: 256 256 3 3 (589824)
I0427 03:00:59.757503 30346 layer_factory.hpp:74] Creating layer dropout2
I0427 03:00:59.757511 30346 net.cpp:84] Creating Layer dropout2
I0427 03:00:59.757516 30346 net.cpp:380] dropout2 <- norm4
I0427 03:00:59.757524 30346 net.cpp:327] dropout2 -> norm4 (in-place)
I0427 03:00:59.757531 30346 net.cpp:113] Setting up dropout2
I0427 03:00:59.757539 30346 net.cpp:120] Top shape: 256 256 3 3 (589824)
I0427 03:00:59.757544 30346 layer_factory.hpp:74] Creating layer ip1
I0427 03:00:59.757555 30346 net.cpp:84] Creating Layer ip1
I0427 03:00:59.757561 30346 net.cpp:380] ip1 <- norm4
I0427 03:00:59.757568 30346 net.cpp:338] ip1 -> ip1
I0427 03:00:59.757594 30346 net.cpp:113] Setting up ip1
I0427 03:00:59.762286 30346 net.cpp:120] Top shape: 256 256 (65536)
I0427 03:00:59.762305 30346 layer_factory.hpp:74] Creating layer reLU4
I0427 03:00:59.762315 30346 net.cpp:84] Creating Layer reLU4
I0427 03:00:59.762321 30346 net.cpp:380] reLU4 <- ip1
I0427 03:00:59.762328 30346 net.cpp:327] reLU4 -> ip1 (in-place)
I0427 03:00:59.762337 30346 net.cpp:113] Setting up reLU4
I0427 03:00:59.762390 30346 net.cpp:120] Top shape: 256 256 (65536)
I0427 03:00:59.762398 30346 layer_factory.hpp:74] Creating layer dropout3
I0427 03:00:59.762408 30346 net.cpp:84] Creating Layer dropout3
I0427 03:00:59.762413 30346 net.cpp:380] dropout3 <- ip1
I0427 03:00:59.762419 30346 net.cpp:327] dropout3 -> ip1 (in-place)
I0427 03:00:59.762428 30346 net.cpp:113] Setting up dropout3
I0427 03:00:59.762440 30346 net.cpp:120] Top shape: 256 256 (65536)
I0427 03:00:59.762460 30346 layer_factory.hpp:74] Creating layer ip2
I0427 03:00:59.762470 30346 net.cpp:84] Creating Layer ip2
I0427 03:00:59.762476 30346 net.cpp:380] ip2 <- ip1
I0427 03:00:59.762485 30346 net.cpp:338] ip2 -> ip2
I0427 03:00:59.762495 30346 net.cpp:113] Setting up ip2
I0427 03:00:59.762995 30346 net.cpp:120] Top shape: 256 256 (65536)
I0427 03:00:59.763007 30346 layer_factory.hpp:74] Creating layer reLU5
I0427 03:00:59.763017 30346 net.cpp:84] Creating Layer reLU5
I0427 03:00:59.763026 30346 net.cpp:380] reLU5 <- ip2
I0427 03:00:59.763034 30346 net.cpp:327] reLU5 -> ip2 (in-place)
I0427 03:00:59.763042 30346 net.cpp:113] Setting up reLU5
I0427 03:00:59.763098 30346 net.cpp:120] Top shape: 256 256 (65536)
I0427 03:00:59.763106 30346 layer_factory.hpp:74] Creating layer dropout4
I0427 03:00:59.763115 30346 net.cpp:84] Creating Layer dropout4
I0427 03:00:59.763121 30346 net.cpp:380] dropout4 <- ip2
I0427 03:00:59.763133 30346 net.cpp:327] dropout4 -> ip2 (in-place)
I0427 03:00:59.763140 30346 net.cpp:113] Setting up dropout4
I0427 03:00:59.763149 30346 net.cpp:120] Top shape: 256 256 (65536)
I0427 03:00:59.763154 30346 layer_factory.hpp:74] Creating layer ip3
I0427 03:00:59.763164 30346 net.cpp:84] Creating Layer ip3
I0427 03:00:59.763170 30346 net.cpp:380] ip3 <- ip2
I0427 03:00:59.763177 30346 net.cpp:338] ip3 -> ip3
I0427 03:00:59.763187 30346 net.cpp:113] Setting up ip3
I0427 03:00:59.763483 30346 net.cpp:120] Top shape: 256 121 (30976)
I0427 03:00:59.763497 30346 layer_factory.hpp:74] Creating layer loss
I0427 03:00:59.763510 30346 net.cpp:84] Creating Layer loss
I0427 03:00:59.763517 30346 net.cpp:380] loss <- ip3
I0427 03:00:59.763523 30346 net.cpp:380] loss <- label
I0427 03:00:59.763533 30346 net.cpp:338] loss -> loss
I0427 03:00:59.764814 30346 net.cpp:113] Setting up loss
I0427 03:00:59.764830 30346 layer_factory.hpp:74] Creating layer loss
…
I0427 03:00:59.858862 30346 net.cpp:257] The NetState phase (1) differed from the phase (0) specified by a rule in layer ndsb
I0427 03:00:59.859079 30346 net.cpp:42] Initializing net from parameters: 
name: "SeaNet"
state {
  phase: TEST
}
layer {
  name: "ndsb"
  type: "Data"
  top: "data"
  top: "label"
  include {
    phase: TEST
  }
  transform_param {
    scale: 0.00390625
    mean_file: "./train_all_48_mean.binaryproto"
  }
  data_param {
    source: "/home/nitini/data_files/cross_val_files/cv_holdout_lmdb"
    batch_size: 256
    backend: LMDB
  }
}
layer {
  name: "conv1"
  type: "Convolution"
  bottom: "data"
  top: "conv1"
  param {
    lr_mult: 1
  }
  param {
    lr_mult: 2
  }
  convolution_param {
    num_output: 128
    kernel_size: 3
    stride: 2
    weight_filler {
      type: "xavier"
    }
    bias_filler {
      type: "constant"
    }
  }
}
layer {
  name: "reLU1"
  type: "ReLU"
  bottom: "conv1"
  top: "conv1"
}
layer {
  name: "norm1"
  type: "LRN"
  bottom: "conv1"
  top: "norm1"
  lrn_param {
    local_size: 5
    alpha: 0.0001
    beta: 0.75
  }
}
layer {
  name: "conv2"
  type: "Convolution"
  bottom: "norm1"
  top: "conv2"
  param {
    lr_mult: 1
  }
  param {
    lr_mult: 2
  }
  convolution_param {
    num_output: 128
    kernel_size: 3
    stride: 1
    weight_filler {
      type: "xavier"
    }
    bias_filler {
      type: "constant"
    }
  }
}
layer {
  name: "reLU2"
  type: "ReLU"
  bottom: "conv2"
  top: "conv2"
}
layer {
  name: "norm2"
  type: "LRN"
  bottom: "conv2"
  top: "norm2"
  lrn_param {
    local_size: 5
    alpha: 0.0001
    beta: 0.75
  }
}
layer {
  name: "dropout1"
  type: "Dropout"
  bottom: "norm2"
  top: "norm2"
  dropout_param {
    dropout_ratio: 0.5
  }
}
layer {
  name: "conv3"
  type: "Convolution"
  bottom: "norm2"
  top: "conv3"
  param {
    lr_mult: 1
  }
  param {
    lr_mult: 2
  }
  convolution_param {
    num_output: 256
    kernel_size: 2
    stride: 2
    weight_filler {
      type: "xavier"
    }
    bias_filler {
      type: "constant"
    }
  }
}
layer {
  name: "reLU3"
  type: "ReLU"
  bottom: "conv3"
  top: "conv3"
}
layer {
  name: "norm3"
  type: "LRN"
  bottom: "conv3"
  top: "norm3"
  lrn_param {
    local_size: 5
    alpha: 0.0001
    beta: 0.75
  }
}
layer {
  name: "conv4"
  type: "Convolution"
  bottom: "norm3"
  top: "conv4"
  param {
    lr_mult: 1
  }
  param {
    lr_mult: 2
  }
  convolution_param {
    num_output: 256
    kernel_size: 2
    stride: 1
    weight_filler {
      type: "xavier"
    }
    bias_filler {
      type: "constant"
    }
  }
}
layer {
  name: "pool1"
  type: "Pooling"
  bottom: "conv4"
  top: "pool1"
  pooling_param {
    pool: MAX
    kernel_size: 3
    stride: 3
  }
}
layer {
  name: "norm4"
  type: "LRN"
  bottom: "pool1"
  top: "norm4"
  lrn_param {
    local_size: 5
    alpha: 0.0001
    beta: 0.75
  }
}
layer {
  name: "dropout2"
  type: "Dropout"
  bottom: "norm4"
  top: "norm4"
  dropout_param {
    dropout_ratio: 0.5
  }
}
layer {
  name: "ip1"
  type: "InnerProduct"
  bottom: "norm4"
  top: "ip1"
  param {
    lr_mult: 1
  }
  param {
    lr_mult: 2
  }
  inner_product_param {
    num_output: 256
    weight_filler {
      type: "xavier"
    }
    bias_filler {
      type: "constant"
    }
  }
}
layer {
  name: "reLU4"
  type: "ReLU"
  bottom: "ip1"
  top: "ip1"
}
layer {
  name: "dropout3"
  type: "Dropout"
  bottom: "ip1"
  top: "ip1"
  dropout_param {
    dropout_ratio: 0.5
  }
}
layer {
  name: "ip2"
  type: "InnerProduct"
  bottom: "ip1"
  top: "ip2"
  param {
    lr_mult: 1
  }
  param {
    lr_mult: 2
  }
  inner_product_param {
    num_output: 256
    weight_filler {
      type: "xavier"
      std: 0.01
    }
    bias_filler {
      type: "constant"
      value: 0
    }
  }
}
layer {
  name: "reLU5"
  type: "ReLU"
  bottom: "ip2"
  top: "ip2"
}
layer {
  name: "dropout4"
  type: "Dropout"
  bottom: "ip2"
  top: "ip2"
  dropout_param {
    dropout_ratio: 0.5
  }
}
layer {
  name: "ip3"
  type: "InnerProduct"
  bottom: "ip2"
  top: "ip3"
  param {
    lr_mult: 1
  }
  param {
    lr_mult: 2
  }
  inner_product_param {
    num_output: 121
    weight_filler {
      type: "xavier"
      std: 0.01
    }
    bias_filler {
      type: "constant"
      value: 0
    }
  }
}
layer {
  name: "accuracy"
  type: "Accuracy"
  bottom: "ip3"
  bottom: "label"
  top: "accuracy"
  include {
    phase: TEST
  }
}
layer {
  name: "loss"
  type: "SoftmaxWithLoss"
  bottom: "ip3"
  bottom: "label"
  top: "loss"
}
I0427 03:00:59.859206 30346 layer_factory.hpp:74] Creating layer ndsb
I0427 03:00:59.859220 30346 net.cpp:84] Creating Layer ndsb
I0427 03:00:59.859227 30346 net.cpp:338] ndsb -> data
I0427 03:00:59.859238 30346 net.cpp:338] ndsb -> label
I0427 03:00:59.859248 30346 net.cpp:113] Setting up ndsb
I0427 03:01:00.138320 30346 db.cpp:34] Opened lmdb /home/nitini/data_files/cross_val_files/cv_holdout_lmdb
I0427 03:01:00.457350 30346 data_layer.cpp:67] output data size: 256,3,48,48
I0427 03:01:00.457366 30346 data_transformer.cpp:22] Loading mean file from: ./train_all_48_mean.binaryproto
I0427 03:01:01.230151 30346 net.cpp:120] Top shape: 256 3 48 48 (1769472)
I0427 03:01:01.230170 30346 net.cpp:120] Top shape: 256 (256)
I0427 03:01:01.230178 30346 layer_factory.hpp:74] Creating layer label_ndsb_1_split
I0427 03:01:01.230195 30346 net.cpp:84] Creating Layer label_ndsb_1_split
I0427 03:01:01.230201 30346 net.cpp:380] label_ndsb_1_split <- label
I0427 03:01:01.230211 30346 net.cpp:338] label_ndsb_1_split -> label_ndsb_1_split_0
I0427 03:01:01.230223 30346 net.cpp:338] label_ndsb_1_split -> label_ndsb_1_split_1
I0427 03:01:01.230232 30346 net.cpp:113] Setting up label_ndsb_1_split
I0427 03:01:01.230242 30346 net.cpp:120] Top shape: 256 (256)
I0427 03:01:01.230247 30346 net.cpp:120] Top shape: 256 (256)
I0427 03:01:01.230252 30346 layer_factory.hpp:74] Creating layer conv1
I0427 03:01:01.230264 30346 net.cpp:84] Creating Layer conv1
I0427 03:01:01.230270 30346 net.cpp:380] conv1 <- data
I0427 03:01:01.230278 30346 net.cpp:338] conv1 -> conv1
I0427 03:01:01.230288 30346 net.cpp:113] Setting up conv1
I0427 03:01:01.230653 30346 net.cpp:120] Top shape: 256 128 23 23 (17334272)
I0427 03:01:01.230674 30346 layer_factory.hpp:74] Creating layer reLU1
I0427 03:01:01.230684 30346 net.cpp:84] Creating Layer reLU1
I0427 03:01:01.230690 30346 net.cpp:380] reLU1 <- conv1
I0427 03:01:01.230697 30346 net.cpp:327] reLU1 -> conv1 (in-place)
I0427 03:01:01.230705 30346 net.cpp:113] Setting up reLU1
I0427 03:01:01.230849 30346 net.cpp:120] Top shape: 256 128 23 23 (17334272)
I0427 03:01:01.230862 30346 layer_factory.hpp:74] Creating layer norm1
I0427 03:01:01.230875 30346 net.cpp:84] Creating Layer norm1
I0427 03:01:01.230881 30346 net.cpp:380] norm1 <- conv1
I0427 03:01:01.230892 30346 net.cpp:338] norm1 -> norm1
I0427 03:01:01.230901 30346 net.cpp:113] Setting up norm1
I0427 03:01:01.230911 30346 net.cpp:120] Top shape: 256 128 23 23 (17334272)
I0427 03:01:01.230917 30346 layer_factory.hpp:74] Creating layer conv2
I0427 03:01:01.230929 30346 net.cpp:84] Creating Layer conv2
I0427 03:01:01.230936 30346 net.cpp:380] conv2 <- norm1
I0427 03:01:01.230943 30346 net.cpp:338] conv2 -> conv2
I0427 03:01:01.230952 30346 net.cpp:113] Setting up conv2
I0427 03:01:01.232470 30346 net.cpp:120] Top shape: 256 128 21 21 (14450688)
I0427 03:01:01.232488 30346 layer_factory.hpp:74] Creating layer reLU2
I0427 03:01:01.232497 30346 net.cpp:84] Creating Layer reLU2
I0427 03:01:01.232503 30346 net.cpp:380] reLU2 <- conv2
I0427 03:01:01.232514 30346 net.cpp:327] reLU2 -> conv2 (in-place)
I0427 03:01:01.232523 30346 net.cpp:113] Setting up reLU2
I0427 03:01:01.232604 30346 net.cpp:120] Top shape: 256 128 21 21 (14450688)
I0427 03:01:01.232614 30346 layer_factory.hpp:74] Creating layer norm2
I0427 03:01:01.232625 30346 net.cpp:84] Creating Layer norm2
I0427 03:01:01.232631 30346 net.cpp:380] norm2 <- conv2
I0427 03:01:01.232638 30346 net.cpp:338] norm2 -> norm2
I0427 03:01:01.232647 30346 net.cpp:113] Setting up norm2
I0427 03:01:01.232661 30346 net.cpp:120] Top shape: 256 128 21 21 (14450688)
I0427 03:01:01.232692 30346 layer_factory.hpp:74] Creating layer dropout1
I0427 03:01:01.232702 30346 net.cpp:84] Creating Layer dropout1
I0427 03:01:01.232708 30346 net.cpp:380] dropout1 <- norm2
I0427 03:01:01.232718 30346 net.cpp:327] dropout1 -> norm2 (in-place)
I0427 03:01:01.232729 30346 net.cpp:113] Setting up dropout1
I0427 03:01:01.232739 30346 net.cpp:120] Top shape: 256 128 21 21 (14450688)
I0427 03:01:01.232745 30346 layer_factory.hpp:74] Creating layer conv3
I0427 03:01:01.232754 30346 net.cpp:84] Creating Layer conv3
I0427 03:01:01.232763 30346 net.cpp:380] conv3 <- norm2
I0427 03:01:01.232770 30346 net.cpp:338] conv3 -> conv3
I0427 03:01:01.232780 30346 net.cpp:113] Setting up conv3
I0427 03:01:01.234166 30346 net.cpp:120] Top shape: 256 256 10 10 (6553600)
I0427 03:01:01.234184 30346 layer_factory.hpp:74] Creating layer reLU3
I0427 03:01:01.234194 30346 net.cpp:84] Creating Layer reLU3
I0427 03:01:01.234200 30346 net.cpp:380] reLU3 <- conv3
I0427 03:01:01.234210 30346 net.cpp:327] reLU3 -> conv3 (in-place)
I0427 03:01:01.234220 30346 net.cpp:113] Setting up reLU3
I0427 03:01:01.234277 30346 net.cpp:120] Top shape: 256 256 10 10 (6553600)
I0427 03:01:01.234284 30346 layer_factory.hpp:74] Creating layer norm3
I0427 03:01:01.234292 30346 net.cpp:84] Creating Layer norm3
I0427 03:01:01.234297 30346 net.cpp:380] norm3 <- conv3
I0427 03:01:01.234304 30346 net.cpp:338] norm3 -> norm3
I0427 03:01:01.234313 30346 net.cpp:113] Setting up norm3
I0427 03:01:01.234323 30346 net.cpp:120] Top shape: 256 256 10 10 (6553600)
I0427 03:01:01.234329 30346 layer_factory.hpp:74] Creating layer conv4
I0427 03:01:01.234341 30346 net.cpp:84] Creating Layer conv4
I0427 03:01:01.234347 30346 net.cpp:380] conv4 <- norm3
I0427 03:01:01.234356 30346 net.cpp:338] conv4 -> conv4
I0427 03:01:01.234365 30346 net.cpp:113] Setting up conv4
I0427 03:01:01.236855 30346 net.cpp:120] Top shape: 256 256 9 9 (5308416)
I0427 03:01:01.236871 30346 layer_factory.hpp:74] Creating layer pool1
I0427 03:01:01.236881 30346 net.cpp:84] Creating Layer pool1
I0427 03:01:01.236887 30346 net.cpp:380] pool1 <- conv4
I0427 03:01:01.236896 30346 net.cpp:338] pool1 -> pool1
I0427 03:01:01.236904 30346 net.cpp:113] Setting up pool1
I0427 03:01:01.236974 30346 net.cpp:120] Top shape: 256 256 3 3 (589824)
I0427 03:01:01.236984 30346 layer_factory.hpp:74] Creating layer norm4
I0427 03:01:01.236995 30346 net.cpp:84] Creating Layer norm4
I0427 03:01:01.237001 30346 net.cpp:380] norm4 <- pool1
I0427 03:01:01.237009 30346 net.cpp:338] norm4 -> norm4
I0427 03:01:01.237017 30346 net.cpp:113] Setting up norm4
I0427 03:01:01.237025 30346 net.cpp:120] Top shape: 256 256 3 3 (589824)
I0427 03:01:01.237031 30346 layer_factory.hpp:74] Creating layer dropout2
I0427 03:01:01.237040 30346 net.cpp:84] Creating Layer dropout2
I0427 03:01:01.237045 30346 net.cpp:380] dropout2 <- norm4
I0427 03:01:01.237053 30346 net.cpp:327] dropout2 -> norm4 (in-place)
I0427 03:01:01.237061 30346 net.cpp:113] Setting up dropout2
I0427 03:01:01.237069 30346 net.cpp:120] Top shape: 256 256 3 3 (589824)
I0427 03:01:01.237076 30346 layer_factory.hpp:74] Creating layer ip1
I0427 03:01:01.237087 30346 net.cpp:84] Creating Layer ip1
I0427 03:01:01.237092 30346 net.cpp:380] ip1 <- norm4
I0427 03:01:01.237103 30346 net.cpp:338] ip1 -> ip1
I0427 03:01:01.237113 30346 net.cpp:113] Setting up ip1
I0427 03:01:01.241798 30346 net.cpp:120] Top shape: 256 256 (65536)
I0427 03:01:01.241816 30346 layer_factory.hpp:74] Creating layer reLU4
I0427 03:01:01.241827 30346 net.cpp:84] Creating Layer reLU4
I0427 03:01:01.241832 30346 net.cpp:380] reLU4 <- ip1
I0427 03:01:01.241839 30346 net.cpp:327] reLU4 -> ip1 (in-place)
I0427 03:01:01.241847 30346 net.cpp:113] Setting up reLU4
I0427 03:01:01.241996 30346 net.cpp:120] Top shape: 256 256 (65536)
I0427 03:01:01.242007 30346 layer_factory.hpp:74] Creating layer dropout3
I0427 03:01:01.242017 30346 net.cpp:84] Creating Layer dropout3
I0427 03:01:01.242022 30346 net.cpp:380] dropout3 <- ip1
I0427 03:01:01.242033 30346 net.cpp:327] dropout3 -> ip1 (in-place)
I0427 03:01:01.242054 30346 net.cpp:113] Setting up dropout3
I0427 03:01:01.242064 30346 net.cpp:120] Top shape: 256 256 (65536)
I0427 03:01:01.242070 30346 layer_factory.hpp:74] Creating layer ip2
I0427 03:01:01.242079 30346 net.cpp:84] Creating Layer ip2
I0427 03:01:01.242084 30346 net.cpp:380] ip2 <- ip1
I0427 03:01:01.242095 30346 net.cpp:338] ip2 -> ip2
I0427 03:01:01.242105 30346 net.cpp:113] Setting up ip2
I0427 03:01:01.242676 30346 net.cpp:120] Top shape: 256 256 (65536)
I0427 03:01:01.242689 30346 layer_factory.hpp:74] Creating layer reLU5
I0427 03:01:01.242701 30346 net.cpp:84] Creating Layer reLU5
I0427 03:01:01.242707 30346 net.cpp:380] reLU5 <- ip2
I0427 03:01:01.242713 30346 net.cpp:327] reLU5 -> ip2 (in-place)
I0427 03:01:01.242720 30346 net.cpp:113] Setting up reLU5
I0427 03:01:01.242784 30346 net.cpp:120] Top shape: 256 256 (65536)
I0427 03:01:01.242794 30346 layer_factory.hpp:74] Creating layer dropout4
I0427 03:01:01.242804 30346 net.cpp:84] Creating Layer dropout4
I0427 03:01:01.242808 30346 net.cpp:380] dropout4 <- ip2
I0427 03:01:01.242816 30346 net.cpp:327] dropout4 -> ip2 (in-place)
I0427 03:01:01.242823 30346 net.cpp:113] Setting up dropout4
I0427 03:01:01.242831 30346 net.cpp:120] Top shape: 256 256 (65536)
I0427 03:01:01.242837 30346 layer_factory.hpp:74] Creating layer ip3
I0427 03:01:01.242846 30346 net.cpp:84] Creating Layer ip3
I0427 03:01:01.242851 30346 net.cpp:380] ip3 <- ip2
I0427 03:01:01.242861 30346 net.cpp:338] ip3 -> ip3
I0427 03:01:01.242871 30346 net.cpp:113] Setting up ip3
I0427 03:01:01.243155 30346 net.cpp:120] Top shape: 256 121 (30976)
I0427 03:01:01.243167 30346 layer_factory.hpp:74] Creating layer ip3_ip3_0_split
I0427 03:01:01.243178 30346 net.cpp:84] Creating Layer ip3_ip3_0_split
I0427 03:01:01.243185 30346 net.cpp:380] ip3_ip3_0_split <- ip3
I0427 03:01:01.243191 30346 net.cpp:338] ip3_ip3_0_split -> ip3_ip3_0_split_0
I0427 03:01:01.243203 30346 net.cpp:338] ip3_ip3_0_split -> ip3_ip3_0_split_1
I0427 03:01:01.243211 30346 net.cpp:113] Setting up ip3_ip3_0_split
I0427 03:01:01.243221 30346 net.cpp:120] Top shape: 256 121 (30976)
I0427 03:01:01.243227 30346 net.cpp:120] Top shape: 256 121 (30976)
I0427 03:01:01.243232 30346 layer_factory.hpp:74] Creating layer accuracy
I0427 03:01:01.243247 30346 net.cpp:84] Creating Layer accuracy
I0427 03:01:01.243253 30346 net.cpp:380] accuracy <- ip3_ip3_0_split_0
I0427 03:01:01.243260 30346 net.cpp:380] accuracy <- label_ndsb_1_split_0
I0427 03:01:01.243268 30346 net.cpp:338] accuracy -> accuracy
I0427 03:01:01.243276 30346 net.cpp:113] Setting up accuracy
…
