…
I0426 03:58:29.856508 12220 net.cpp:257] The NetState phase (0) differed from the phase (1) specified by a rule in layer accuracy
I0426 03:58:29.856722 12220 net.cpp:42] Initializing net from parameters: 
name: "SeaNet"
state {
  phase: TRAIN
}
layer {
  name: "ndsb"
  type: "Data"
  top: "data"
  top: "label"
  include {
    phase: TRAIN
  }
  transform_param {
    scale: 0.00390625
    mean_file: "./train_all_48_mean.binaryproto"
  }
  data_param {
    source: "/home/nitini/data_files/cross_val_files/cv_training_lmdb"
    batch_size: 256
    backend: LMDB
  }
}
layer {
  name: "conv1"
  type: "Convolution"
  bottom: "data"
  top: "conv1"
  param {
    lr_mult: 1
  }
  param {
    lr_mult: 2
  }
  convolution_param {
    num_output: 64
    kernel_size: 3
    stride: 2
    weight_filler {
      type: "xavier"
    }
    bias_filler {
      type: "constant"
    }
  }
}
layer {
  name: "reLU1"
  type: "ReLU"
  bottom: "conv1"
  top: "conv1"
}
layer {
  name: "norm1"
  type: "LRN"
  bottom: "conv1"
  top: "norm1"
  lrn_param {
    local_size: 5
    alpha: 0.0001
    beta: 0.75
  }
}
layer {
  name: "conv2"
  type: "Convolution"
  bottom: "norm1"
  top: "conv2"
  param {
    lr_mult: 1
  }
  param {
    lr_mult: 2
  }
  convolution_param {
    num_output: 64
    kernel_size: 3
    stride: 1
    weight_filler {
      type: "xavier"
    }
    bias_filler {
      type: "constant"
    }
  }
}
layer {
  name: "reLU2"
  type: "ReLU"
  bottom: "conv2"
  top: "conv2"
}
layer {
  name: "norm2"
  type: "LRN"
  bottom: "conv2"
  top: "norm2"
  lrn_param {
    local_size: 5
    alpha: 0.0001
    beta: 0.75
  }
}
layer {
  name: "dropout1"
  type: "Dropout"
  bottom: "norm2"
  top: "norm2"
  dropout_param {
    dropout_ratio: 0.6
  }
}
layer {
  name: "conv3"
  type: "Convolution"
  bottom: "norm2"
  top: "conv3"
  param {
    lr_mult: 1
  }
  param {
    lr_mult: 2
  }
  convolution_param {
    num_output: 128
    kernel_size: 2
    stride: 1
    weight_filler {
      type: "xavier"
    }
    bias_filler {
      type: "constant"
    }
  }
}
layer {
  name: "reLU3"
  type: "ReLU"
  bottom: "conv3"
  top: "conv3"
}
layer {
  name: "norm3"
  type: "LRN"
  bottom: "conv3"
  top: "norm3"
  lrn_param {
    local_size: 5
    alpha: 0.0001
    beta: 0.75
  }
}
layer {
  name: "conv4"
  type: "Convolution"
  bottom: "norm3"
  top: "conv4"
  param {
    lr_mult: 1
  }
  param {
    lr_mult: 2
  }
  convolution_param {
    num_output: 128
    kernel_size: 2
    stride: 1
    weight_filler {
      type: "xavier"
    }
    bias_filler {
      type: "constant"
    }
  }
}
layer {
  name: "pool1"
  type: "Pooling"
  bottom: "conv4"
  top: "pool1"
  pooling_param {
    pool: MAX
    kernel_size: 2
    stride: 2
  }
}
layer {
  name: "norm4"
  type: "LRN"
  bottom: "pool1"
  top: "norm4"
  lrn_param {
    local_size: 5
    alpha: 0.0001
    beta: 0.75
  }
}
layer {
  name: "dropout2"
  type: "Dropout"
  bottom: "norm4"
  top: "norm4"
  dropout_param {
    dropout_ratio: 0.5
  }
}
layer {
  name: "ip1"
  type: "InnerProduct"
  bottom: "norm4"
  top: "ip1"
  param {
    lr_mult: 1
  }
  param {
    lr_mult: 2
  }
  inner_product_param {
    num_output: 512
    weight_filler {
      type: "xavier"
    }
    bias_filler {
      type: "constant"
    }
  }
}
layer {
  name: "reLU4"
  type: "ReLU"
  bottom: "ip1"
  top: "ip1"
}
layer {
  name: "dropout3"
  type: "Dropout"
  bottom: "ip1"
  top: "ip1"
  dropout_param {
    dropout_ratio: 0.5
  }
}
layer {
  name: "ip2"
  type: "InnerProduct"
  bottom: "ip1"
  top: "ip2"
  param {
    lr_mult: 1
  }
  param {
    lr_mult: 2
  }
  inner_product_param {
    num_output: 256
    weight_filler {
      type: "xavier"
      std: 0.01
    }
    bias_filler {
      type: "constant"
      value: 0
    }
  }
}
layer {
  name: "reLU5"
  type: "ReLU"
  bottom: "ip2"
  top: "ip2"
}
layer {
  name: "dropout4"
  type: "Dropout"
  bottom: "ip2"
  top: "ip2"
  dropout_param {
    dropout_ratio: 0.6
  }
}
layer {
  name: "ip3"
  type: "InnerProduct"
  bottom: "ip2"
  top: "ip3"
  param {
    lr_mult: 1
  }
  param {
    lr_mult: 2
  }
  inner_product_param {
    num_output: 121
    weight_filler {
      type: "xavier"
      std: 0.01
    }
    bias_filler {
      type: "constant"
      value: 0
    }
  }
}
layer {
  name: "loss"
  type: "SoftmaxWithLoss"
  bottom: "ip3"
  bottom: "label"
  top: "loss"
}
I0426 03:58:29.856899 12220 layer_factory.hpp:74] Creating layer ndsb
I0426 03:58:29.856927 12220 net.cpp:84] Creating Layer ndsb
I0426 03:58:29.856940 12220 net.cpp:338] ndsb -> data
I0426 03:58:29.856982 12220 net.cpp:338] ndsb -> label
I0426 03:58:29.857002 12220 net.cpp:113] Setting up ndsb
I0426 03:58:30.237360 12220 db.cpp:34] Opened lmdb /home/nitini/data_files/cross_val_files/cv_training_lmdb
I0426 03:58:30.268687 12220 data_layer.cpp:67] output data size: 256,3,48,48
I0426 03:58:30.268713 12220 data_transformer.cpp:22] Loading mean file from: ./train_all_48_mean.binaryproto
I0426 03:58:30.366467 12220 net.cpp:120] Top shape: 256 3 48 48 (1769472)
I0426 03:58:30.366485 12220 net.cpp:120] Top shape: 256 (256)
I0426 03:58:30.366498 12220 layer_factory.hpp:74] Creating layer conv1
I0426 03:58:30.366529 12220 net.cpp:84] Creating Layer conv1
I0426 03:58:30.366541 12220 net.cpp:380] conv1 <- data
I0426 03:58:30.366566 12220 net.cpp:338] conv1 -> conv1
I0426 03:58:30.366586 12220 net.cpp:113] Setting up conv1
I0426 03:58:32.358342 12220 net.cpp:120] Top shape: 256 64 23 23 (8667136)
I0426 03:58:32.358414 12220 layer_factory.hpp:74] Creating layer reLU1
I0426 03:58:32.358436 12220 net.cpp:84] Creating Layer reLU1
I0426 03:58:32.358445 12220 net.cpp:380] reLU1 <- conv1
I0426 03:58:32.358455 12220 net.cpp:327] reLU1 -> conv1 (in-place)
I0426 03:58:32.358469 12220 net.cpp:113] Setting up reLU1
I0426 03:58:32.358711 12220 net.cpp:120] Top shape: 256 64 23 23 (8667136)
I0426 03:58:32.358723 12220 layer_factory.hpp:74] Creating layer norm1
I0426 03:58:32.358738 12220 net.cpp:84] Creating Layer norm1
I0426 03:58:32.358746 12220 net.cpp:380] norm1 <- conv1
I0426 03:58:32.358753 12220 net.cpp:338] norm1 -> norm1
I0426 03:58:32.358765 12220 net.cpp:113] Setting up norm1
I0426 03:58:32.358779 12220 net.cpp:120] Top shape: 256 64 23 23 (8667136)
I0426 03:58:32.358785 12220 layer_factory.hpp:74] Creating layer conv2
I0426 03:58:32.358801 12220 net.cpp:84] Creating Layer conv2
I0426 03:58:32.358809 12220 net.cpp:380] conv2 <- norm1
I0426 03:58:32.358818 12220 net.cpp:338] conv2 -> conv2
I0426 03:58:32.358829 12220 net.cpp:113] Setting up conv2
I0426 03:58:32.359355 12220 net.cpp:120] Top shape: 256 64 21 21 (7225344)
I0426 03:58:32.359388 12220 layer_factory.hpp:74] Creating layer reLU2
I0426 03:58:32.359400 12220 net.cpp:84] Creating Layer reLU2
I0426 03:58:32.359406 12220 net.cpp:380] reLU2 <- conv2
I0426 03:58:32.359416 12220 net.cpp:327] reLU2 -> conv2 (in-place)
I0426 03:58:32.359423 12220 net.cpp:113] Setting up reLU2
I0426 03:58:32.359477 12220 net.cpp:120] Top shape: 256 64 21 21 (7225344)
I0426 03:58:32.359485 12220 layer_factory.hpp:74] Creating layer norm2
I0426 03:58:32.359495 12220 net.cpp:84] Creating Layer norm2
I0426 03:58:32.359501 12220 net.cpp:380] norm2 <- conv2
I0426 03:58:32.359509 12220 net.cpp:338] norm2 -> norm2
I0426 03:58:32.359519 12220 net.cpp:113] Setting up norm2
I0426 03:58:32.359527 12220 net.cpp:120] Top shape: 256 64 21 21 (7225344)
I0426 03:58:32.359534 12220 layer_factory.hpp:74] Creating layer dropout1
I0426 03:58:32.359552 12220 net.cpp:84] Creating Layer dropout1
I0426 03:58:32.359590 12220 net.cpp:380] dropout1 <- norm2
I0426 03:58:32.359599 12220 net.cpp:327] dropout1 -> norm2 (in-place)
I0426 03:58:32.359618 12220 net.cpp:113] Setting up dropout1
I0426 03:58:32.359639 12220 net.cpp:120] Top shape: 256 64 21 21 (7225344)
I0426 03:58:32.359647 12220 layer_factory.hpp:74] Creating layer conv3
I0426 03:58:32.359659 12220 net.cpp:84] Creating Layer conv3
I0426 03:58:32.359665 12220 net.cpp:380] conv3 <- norm2
I0426 03:58:32.359674 12220 net.cpp:338] conv3 -> conv3
I0426 03:58:32.359683 12220 net.cpp:113] Setting up conv3
I0426 03:58:32.360168 12220 net.cpp:120] Top shape: 256 128 20 20 (13107200)
I0426 03:58:32.360188 12220 layer_factory.hpp:74] Creating layer reLU3
I0426 03:58:32.360196 12220 net.cpp:84] Creating Layer reLU3
I0426 03:58:32.360208 12220 net.cpp:380] reLU3 <- conv3
I0426 03:58:32.360215 12220 net.cpp:327] reLU3 -> conv3 (in-place)
I0426 03:58:32.360224 12220 net.cpp:113] Setting up reLU3
I0426 03:58:32.360273 12220 net.cpp:120] Top shape: 256 128 20 20 (13107200)
I0426 03:58:32.360281 12220 layer_factory.hpp:74] Creating layer norm3
I0426 03:58:32.360291 12220 net.cpp:84] Creating Layer norm3
I0426 03:58:32.360296 12220 net.cpp:380] norm3 <- conv3
I0426 03:58:32.360304 12220 net.cpp:338] norm3 -> norm3
I0426 03:58:32.360312 12220 net.cpp:113] Setting up norm3
I0426 03:58:32.360321 12220 net.cpp:120] Top shape: 256 128 20 20 (13107200)
I0426 03:58:32.360327 12220 layer_factory.hpp:74] Creating layer conv4
I0426 03:58:32.360337 12220 net.cpp:84] Creating Layer conv4
I0426 03:58:32.360343 12220 net.cpp:380] conv4 <- norm3
I0426 03:58:32.360352 12220 net.cpp:338] conv4 -> conv4
I0426 03:58:32.360362 12220 net.cpp:113] Setting up conv4
I0426 03:58:32.361091 12220 net.cpp:120] Top shape: 256 128 19 19 (11829248)
I0426 03:58:32.361107 12220 layer_factory.hpp:74] Creating layer pool1
I0426 03:58:32.361127 12220 net.cpp:84] Creating Layer pool1
I0426 03:58:32.361135 12220 net.cpp:380] pool1 <- conv4
I0426 03:58:32.361142 12220 net.cpp:338] pool1 -> pool1
I0426 03:58:32.361151 12220 net.cpp:113] Setting up pool1
I0426 03:58:32.361320 12220 net.cpp:120] Top shape: 256 128 10 10 (3276800)
I0426 03:58:32.361332 12220 layer_factory.hpp:74] Creating layer norm4
I0426 03:58:32.361342 12220 net.cpp:84] Creating Layer norm4
I0426 03:58:32.361348 12220 net.cpp:380] norm4 <- pool1
I0426 03:58:32.361357 12220 net.cpp:338] norm4 -> norm4
I0426 03:58:32.361366 12220 net.cpp:113] Setting up norm4
I0426 03:58:32.361388 12220 net.cpp:120] Top shape: 256 128 10 10 (3276800)
I0426 03:58:32.361395 12220 layer_factory.hpp:74] Creating layer dropout2
I0426 03:58:32.361404 12220 net.cpp:84] Creating Layer dropout2
I0426 03:58:32.361410 12220 net.cpp:380] dropout2 <- norm4
I0426 03:58:32.361418 12220 net.cpp:327] dropout2 -> norm4 (in-place)
I0426 03:58:32.361426 12220 net.cpp:113] Setting up dropout2
I0426 03:58:32.361434 12220 net.cpp:120] Top shape: 256 128 10 10 (3276800)
I0426 03:58:32.361440 12220 layer_factory.hpp:74] Creating layer ip1
I0426 03:58:32.361452 12220 net.cpp:84] Creating Layer ip1
I0426 03:58:32.361459 12220 net.cpp:380] ip1 <- norm4
I0426 03:58:32.361467 12220 net.cpp:338] ip1 -> ip1
I0426 03:58:32.361479 12220 net.cpp:113] Setting up ip1
I0426 03:58:32.420450 12220 net.cpp:120] Top shape: 256 512 (131072)
I0426 03:58:32.420511 12220 layer_factory.hpp:74] Creating layer reLU4
I0426 03:58:32.420534 12220 net.cpp:84] Creating Layer reLU4
I0426 03:58:32.420542 12220 net.cpp:380] reLU4 <- ip1
I0426 03:58:32.420554 12220 net.cpp:327] reLU4 -> ip1 (in-place)
I0426 03:58:32.420568 12220 net.cpp:113] Setting up reLU4
I0426 03:58:32.420680 12220 net.cpp:120] Top shape: 256 512 (131072)
I0426 03:58:32.420689 12220 layer_factory.hpp:74] Creating layer dropout3
I0426 03:58:32.420701 12220 net.cpp:84] Creating Layer dropout3
I0426 03:58:32.420706 12220 net.cpp:380] dropout3 <- ip1
I0426 03:58:32.420714 12220 net.cpp:327] dropout3 -> ip1 (in-place)
I0426 03:58:32.420723 12220 net.cpp:113] Setting up dropout3
I0426 03:58:32.420745 12220 net.cpp:120] Top shape: 256 512 (131072)
I0426 03:58:32.420786 12220 layer_factory.hpp:74] Creating layer ip2
I0426 03:58:32.420800 12220 net.cpp:84] Creating Layer ip2
I0426 03:58:32.420806 12220 net.cpp:380] ip2 <- ip1
I0426 03:58:32.420816 12220 net.cpp:338] ip2 -> ip2
I0426 03:58:32.420827 12220 net.cpp:113] Setting up ip2
I0426 03:58:32.421792 12220 net.cpp:120] Top shape: 256 256 (65536)
I0426 03:58:32.421805 12220 layer_factory.hpp:74] Creating layer reLU5
I0426 03:58:32.421814 12220 net.cpp:84] Creating Layer reLU5
I0426 03:58:32.421820 12220 net.cpp:380] reLU5 <- ip2
I0426 03:58:32.421828 12220 net.cpp:327] reLU5 -> ip2 (in-place)
I0426 03:58:32.421838 12220 net.cpp:113] Setting up reLU5
I0426 03:58:32.421900 12220 net.cpp:120] Top shape: 256 256 (65536)
I0426 03:58:32.421907 12220 layer_factory.hpp:74] Creating layer dropout4
I0426 03:58:32.421917 12220 net.cpp:84] Creating Layer dropout4
I0426 03:58:32.421923 12220 net.cpp:380] dropout4 <- ip2
I0426 03:58:32.421931 12220 net.cpp:327] dropout4 -> ip2 (in-place)
I0426 03:58:32.421938 12220 net.cpp:113] Setting up dropout4
I0426 03:58:32.421947 12220 net.cpp:120] Top shape: 256 256 (65536)
I0426 03:58:32.421952 12220 layer_factory.hpp:74] Creating layer ip3
I0426 03:58:32.421962 12220 net.cpp:84] Creating Layer ip3
I0426 03:58:32.421969 12220 net.cpp:380] ip3 <- ip2
I0426 03:58:32.421978 12220 net.cpp:338] ip3 -> ip3
I0426 03:58:32.421988 12220 net.cpp:113] Setting up ip3
I0426 03:58:32.422230 12220 net.cpp:120] Top shape: 256 121 (30976)
I0426 03:58:32.422242 12220 layer_factory.hpp:74] Creating layer loss
I0426 03:58:32.422263 12220 net.cpp:84] Creating Layer loss
I0426 03:58:32.422269 12220 net.cpp:380] loss <- ip3
I0426 03:58:32.422276 12220 net.cpp:380] loss <- label
I0426 03:58:32.422291 12220 net.cpp:338] loss -> loss
I0426 03:58:32.422302 12220 net.cpp:113] Setting up loss
I0426 03:58:32.422314 12220 layer_factory.hpp:74] Creating layer loss
…
I0426 03:58:32.499516 12220 net.cpp:257] The NetState phase (1) differed from the phase (0) specified by a rule in layer ndsb
I0426 03:58:32.499778 12220 net.cpp:42] Initializing net from parameters: 
name: "SeaNet"
state {
  phase: TEST
}
layer {
  name: "ndsb"
  type: "Data"
  top: "data"
  top: "label"
  include {
    phase: TEST
  }
  transform_param {
    scale: 0.00390625
    mean_file: "./train_all_48_mean.binaryproto"
  }
  data_param {
    source: "/home/nitini/data_files/cross_val_files/cv_holdout_lmdb"
    batch_size: 256
    backend: LMDB
  }
}
layer {
  name: "conv1"
  type: "Convolution"
  bottom: "data"
  top: "conv1"
  param {
    lr_mult: 1
  }
  param {
    lr_mult: 2
  }
  convolution_param {
    num_output: 64
    kernel_size: 3
    stride: 2
    weight_filler {
      type: "xavier"
    }
    bias_filler {
      type: "constant"
    }
  }
}
layer {
  name: "reLU1"
  type: "ReLU"
  bottom: "conv1"
  top: "conv1"
}
layer {
  name: "norm1"
  type: "LRN"
  bottom: "conv1"
  top: "norm1"
  lrn_param {
    local_size: 5
    alpha: 0.0001
    beta: 0.75
  }
}
layer {
  name: "conv2"
  type: "Convolution"
  bottom: "norm1"
  top: "conv2"
  param {
    lr_mult: 1
  }
  param {
    lr_mult: 2
  }
  convolution_param {
    num_output: 64
    kernel_size: 3
    stride: 1
    weight_filler {
      type: "xavier"
    }
    bias_filler {
      type: "constant"
    }
  }
}
layer {
  name: "reLU2"
  type: "ReLU"
  bottom: "conv2"
  top: "conv2"
}
layer {
  name: "norm2"
  type: "LRN"
  bottom: "conv2"
  top: "norm2"
  lrn_param {
    local_size: 5
    alpha: 0.0001
    beta: 0.75
  }
}
layer {
  name: "dropout1"
  type: "Dropout"
  bottom: "norm2"
  top: "norm2"
  dropout_param {
    dropout_ratio: 0.6
  }
}
layer {
  name: "conv3"
  type: "Convolution"
  bottom: "norm2"
  top: "conv3"
  param {
    lr_mult: 1
  }
  param {
    lr_mult: 2
  }
  convolution_param {
    num_output: 128
    kernel_size: 2
    stride: 1
    weight_filler {
      type: "xavier"
    }
    bias_filler {
      type: "constant"
    }
  }
}
layer {
  name: "reLU3"
  type: "ReLU"
  bottom: "conv3"
  top: "conv3"
}
layer {
  name: "norm3"
  type: "LRN"
  bottom: "conv3"
  top: "norm3"
  lrn_param {
    local_size: 5
    alpha: 0.0001
    beta: 0.75
  }
}
layer {
  name: "conv4"
  type: "Convolution"
  bottom: "norm3"
  top: "conv4"
  param {
    lr_mult: 1
  }
  param {
    lr_mult: 2
  }
  convolution_param {
    num_output: 128
    kernel_size: 2
    stride: 1
    weight_filler {
      type: "xavier"
    }
    bias_filler {
      type: "constant"
    }
  }
}
layer {
  name: "pool1"
  type: "Pooling"
  bottom: "conv4"
  top: "pool1"
  pooling_param {
    pool: MAX
    kernel_size: 2
    stride: 2
  }
}
layer {
  name: "norm4"
  type: "LRN"
  bottom: "pool1"
  top: "norm4"
  lrn_param {
    local_size: 5
    alpha: 0.0001
    beta: 0.75
  }
}
layer {
  name: "dropout2"
  type: "Dropout"
  bottom: "norm4"
  top: "norm4"
  dropout_param {
    dropout_ratio: 0.5
  }
}
layer {
  name: "ip1"
  type: "InnerProduct"
  bottom: "norm4"
  top: "ip1"
  param {
    lr_mult: 1
  }
  param {
    lr_mult: 2
  }
  inner_product_param {
    num_output: 512
    weight_filler {
      type: "xavier"
    }
    bias_filler {
      type: "constant"
    }
  }
}
layer {
  name: "reLU4"
  type: "ReLU"
  bottom: "ip1"
  top: "ip1"
}
layer {
  name: "dropout3"
  type: "Dropout"
  bottom: "ip1"
  top: "ip1"
  dropout_param {
    dropout_ratio: 0.5
  }
}
layer {
  name: "ip2"
  type: "InnerProduct"
  bottom: "ip1"
  top: "ip2"
  param {
    lr_mult: 1
  }
  param {
    lr_mult: 2
  }
  inner_product_param {
    num_output: 256
    weight_filler {
      type: "xavier"
      std: 0.01
    }
    bias_filler {
      type: "constant"
      value: 0
    }
  }
}
layer {
  name: "reLU5"
  type: "ReLU"
  bottom: "ip2"
  top: "ip2"
}
layer {
  name: "dropout4"
  type: "Dropout"
  bottom: "ip2"
  top: "ip2"
  dropout_param {
    dropout_ratio: 0.6
  }
}
layer {
  name: "ip3"
  type: "InnerProduct"
  bottom: "ip2"
  top: "ip3"
  param {
    lr_mult: 1
  }
  param {
    lr_mult: 2
  }
  inner_product_param {
    num_output: 121
    weight_filler {
      type: "xavier"
      std: 0.01
    }
    bias_filler {
      type: "constant"
      value: 0
    }
  }
}
layer {
  name: "accuracy"
  type: "Accuracy"
  bottom: "ip3"
  bottom: "label"
  top: "accuracy"
  include {
    phase: TEST
  }
}
layer {
  name: "loss"
  type: "SoftmaxWithLoss"
  bottom: "ip3"
  bottom: "label"
  top: "loss"
}
I0426 03:58:32.499932 12220 layer_factory.hpp:74] Creating layer ndsb
I0426 03:58:32.499948 12220 net.cpp:84] Creating Layer ndsb
I0426 03:58:32.499958 12220 net.cpp:338] ndsb -> data
I0426 03:58:32.499974 12220 net.cpp:338] ndsb -> label
I0426 03:58:32.499982 12220 net.cpp:113] Setting up ndsb
I0426 03:58:32.816967 12220 db.cpp:34] Opened lmdb /home/nitini/data_files/cross_val_files/cv_holdout_lmdb
I0426 03:58:32.848263 12220 data_layer.cpp:67] output data size: 256,3,48,48
I0426 03:58:32.848284 12220 data_transformer.cpp:22] Loading mean file from: ./train_all_48_mean.binaryproto
I0426 03:58:32.914495 12220 net.cpp:120] Top shape: 256 3 48 48 (1769472)
I0426 03:58:32.914513 12220 net.cpp:120] Top shape: 256 (256)
I0426 03:58:32.914523 12220 layer_factory.hpp:74] Creating layer label_ndsb_1_split
I0426 03:58:32.914549 12220 net.cpp:84] Creating Layer label_ndsb_1_split
I0426 03:58:32.914557 12220 net.cpp:380] label_ndsb_1_split <- label
I0426 03:58:32.914569 12220 net.cpp:338] label_ndsb_1_split -> label_ndsb_1_split_0
I0426 03:58:32.914585 12220 net.cpp:338] label_ndsb_1_split -> label_ndsb_1_split_1
I0426 03:58:32.914595 12220 net.cpp:113] Setting up label_ndsb_1_split
I0426 03:58:32.914605 12220 net.cpp:120] Top shape: 256 (256)
I0426 03:58:32.914613 12220 net.cpp:120] Top shape: 256 (256)
I0426 03:58:32.914618 12220 layer_factory.hpp:74] Creating layer conv1
I0426 03:58:32.914633 12220 net.cpp:84] Creating Layer conv1
I0426 03:58:32.914638 12220 net.cpp:380] conv1 <- data
I0426 03:58:32.914646 12220 net.cpp:338] conv1 -> conv1
I0426 03:58:32.914657 12220 net.cpp:113] Setting up conv1
I0426 03:58:32.915081 12220 net.cpp:120] Top shape: 256 64 23 23 (8667136)
I0426 03:58:32.915102 12220 layer_factory.hpp:74] Creating layer reLU1
I0426 03:58:32.915114 12220 net.cpp:84] Creating Layer reLU1
I0426 03:58:32.915120 12220 net.cpp:380] reLU1 <- conv1
I0426 03:58:32.915129 12220 net.cpp:327] reLU1 -> conv1 (in-place)
I0426 03:58:32.915138 12220 net.cpp:113] Setting up reLU1
I0426 03:58:32.915287 12220 net.cpp:120] Top shape: 256 64 23 23 (8667136)
I0426 03:58:32.915299 12220 layer_factory.hpp:74] Creating layer norm1
I0426 03:58:32.915313 12220 net.cpp:84] Creating Layer norm1
I0426 03:58:32.915320 12220 net.cpp:380] norm1 <- conv1
I0426 03:58:32.915328 12220 net.cpp:338] norm1 -> norm1
I0426 03:58:32.915338 12220 net.cpp:113] Setting up norm1
I0426 03:58:32.915349 12220 net.cpp:120] Top shape: 256 64 23 23 (8667136)
I0426 03:58:32.915354 12220 layer_factory.hpp:74] Creating layer conv2
I0426 03:58:32.915380 12220 net.cpp:84] Creating Layer conv2
I0426 03:58:32.915387 12220 net.cpp:380] conv2 <- norm1
I0426 03:58:32.915397 12220 net.cpp:338] conv2 -> conv2
I0426 03:58:32.915407 12220 net.cpp:113] Setting up conv2
I0426 03:58:32.915925 12220 net.cpp:120] Top shape: 256 64 21 21 (7225344)
I0426 03:58:32.915943 12220 layer_factory.hpp:74] Creating layer reLU2
I0426 03:58:32.915954 12220 net.cpp:84] Creating Layer reLU2
I0426 03:58:32.915961 12220 net.cpp:380] reLU2 <- conv2
I0426 03:58:32.915969 12220 net.cpp:327] reLU2 -> conv2 (in-place)
I0426 03:58:32.915978 12220 net.cpp:113] Setting up reLU2
I0426 03:58:32.916034 12220 net.cpp:120] Top shape: 256 64 21 21 (7225344)
I0426 03:58:32.916043 12220 layer_factory.hpp:74] Creating layer norm2
I0426 03:58:32.916054 12220 net.cpp:84] Creating Layer norm2
I0426 03:58:32.916059 12220 net.cpp:380] norm2 <- conv2
I0426 03:58:32.916069 12220 net.cpp:338] norm2 -> norm2
I0426 03:58:32.916076 12220 net.cpp:113] Setting up norm2
I0426 03:58:32.916092 12220 net.cpp:120] Top shape: 256 64 21 21 (7225344)
I0426 03:58:32.916129 12220 layer_factory.hpp:74] Creating layer dropout1
I0426 03:58:32.916142 12220 net.cpp:84] Creating Layer dropout1
I0426 03:58:32.916148 12220 net.cpp:380] dropout1 <- norm2
I0426 03:58:32.916157 12220 net.cpp:327] dropout1 -> norm2 (in-place)
I0426 03:58:32.916165 12220 net.cpp:113] Setting up dropout1
I0426 03:58:32.916175 12220 net.cpp:120] Top shape: 256 64 21 21 (7225344)
I0426 03:58:32.916180 12220 layer_factory.hpp:74] Creating layer conv3
I0426 03:58:32.916191 12220 net.cpp:84] Creating Layer conv3
I0426 03:58:32.916196 12220 net.cpp:380] conv3 <- norm2
I0426 03:58:32.916205 12220 net.cpp:338] conv3 -> conv3
I0426 03:58:32.916214 12220 net.cpp:113] Setting up conv3
I0426 03:58:32.916738 12220 net.cpp:120] Top shape: 256 128 20 20 (13107200)
I0426 03:58:32.916757 12220 layer_factory.hpp:74] Creating layer reLU3
I0426 03:58:32.916769 12220 net.cpp:84] Creating Layer reLU3
I0426 03:58:32.916774 12220 net.cpp:380] reLU3 <- conv3
I0426 03:58:32.916782 12220 net.cpp:327] reLU3 -> conv3 (in-place)
I0426 03:58:32.916790 12220 net.cpp:113] Setting up reLU3
I0426 03:58:32.916842 12220 net.cpp:120] Top shape: 256 128 20 20 (13107200)
I0426 03:58:32.916851 12220 layer_factory.hpp:74] Creating layer norm3
I0426 03:58:32.916862 12220 net.cpp:84] Creating Layer norm3
I0426 03:58:32.916867 12220 net.cpp:380] norm3 <- conv3
I0426 03:58:32.916875 12220 net.cpp:338] norm3 -> norm3
I0426 03:58:32.916883 12220 net.cpp:113] Setting up norm3
I0426 03:58:32.916893 12220 net.cpp:120] Top shape: 256 128 20 20 (13107200)
I0426 03:58:32.916898 12220 layer_factory.hpp:74] Creating layer conv4
I0426 03:58:32.916908 12220 net.cpp:84] Creating Layer conv4
I0426 03:58:32.916914 12220 net.cpp:380] conv4 <- norm3
I0426 03:58:32.916923 12220 net.cpp:338] conv4 -> conv4
I0426 03:58:32.916931 12220 net.cpp:113] Setting up conv4
I0426 03:58:32.917671 12220 net.cpp:120] Top shape: 256 128 19 19 (11829248)
I0426 03:58:32.917688 12220 layer_factory.hpp:74] Creating layer pool1
I0426 03:58:32.917703 12220 net.cpp:84] Creating Layer pool1
I0426 03:58:32.917711 12220 net.cpp:380] pool1 <- conv4
I0426 03:58:32.917719 12220 net.cpp:338] pool1 -> pool1
I0426 03:58:32.917729 12220 net.cpp:113] Setting up pool1
I0426 03:58:32.917791 12220 net.cpp:120] Top shape: 256 128 10 10 (3276800)
I0426 03:58:32.917800 12220 layer_factory.hpp:74] Creating layer norm4
I0426 03:58:32.917810 12220 net.cpp:84] Creating Layer norm4
I0426 03:58:32.917816 12220 net.cpp:380] norm4 <- pool1
I0426 03:58:32.917824 12220 net.cpp:338] norm4 -> norm4
I0426 03:58:32.917834 12220 net.cpp:113] Setting up norm4
I0426 03:58:32.917842 12220 net.cpp:120] Top shape: 256 128 10 10 (3276800)
I0426 03:58:32.917847 12220 layer_factory.hpp:74] Creating layer dropout2
I0426 03:58:32.917856 12220 net.cpp:84] Creating Layer dropout2
I0426 03:58:32.917861 12220 net.cpp:380] dropout2 <- norm4
I0426 03:58:32.917868 12220 net.cpp:327] dropout2 -> norm4 (in-place)
I0426 03:58:32.917876 12220 net.cpp:113] Setting up dropout2
I0426 03:58:32.917884 12220 net.cpp:120] Top shape: 256 128 10 10 (3276800)
I0426 03:58:32.917891 12220 layer_factory.hpp:74] Creating layer ip1
I0426 03:58:32.917903 12220 net.cpp:84] Creating Layer ip1
I0426 03:58:32.917908 12220 net.cpp:380] ip1 <- norm4
I0426 03:58:32.917917 12220 net.cpp:338] ip1 -> ip1
I0426 03:58:32.917927 12220 net.cpp:113] Setting up ip1
I0426 03:58:32.981194 12220 net.cpp:120] Top shape: 256 512 (131072)
I0426 03:58:32.981255 12220 layer_factory.hpp:74] Creating layer reLU4
I0426 03:58:32.981274 12220 net.cpp:84] Creating Layer reLU4
I0426 03:58:32.981283 12220 net.cpp:380] reLU4 <- ip1
I0426 03:58:32.981295 12220 net.cpp:327] reLU4 -> ip1 (in-place)
I0426 03:58:32.981309 12220 net.cpp:113] Setting up reLU4
I0426 03:58:32.981623 12220 net.cpp:120] Top shape: 256 512 (131072)
I0426 03:58:32.981637 12220 layer_factory.hpp:74] Creating layer dropout3
I0426 03:58:32.981650 12220 net.cpp:84] Creating Layer dropout3
I0426 03:58:32.981657 12220 net.cpp:380] dropout3 <- ip1
I0426 03:58:32.981681 12220 net.cpp:327] dropout3 -> ip1 (in-place)
I0426 03:58:32.981726 12220 net.cpp:113] Setting up dropout3
I0426 03:58:32.981737 12220 net.cpp:120] Top shape: 256 512 (131072)
I0426 03:58:32.981744 12220 layer_factory.hpp:74] Creating layer ip2
I0426 03:58:32.981756 12220 net.cpp:84] Creating Layer ip2
I0426 03:58:32.981762 12220 net.cpp:380] ip2 <- ip1
I0426 03:58:32.981772 12220 net.cpp:338] ip2 -> ip2
I0426 03:58:32.981784 12220 net.cpp:113] Setting up ip2
I0426 03:58:32.982766 12220 net.cpp:120] Top shape: 256 256 (65536)
I0426 03:58:32.982780 12220 layer_factory.hpp:74] Creating layer reLU5
I0426 03:58:32.982790 12220 net.cpp:84] Creating Layer reLU5
I0426 03:58:32.982795 12220 net.cpp:380] reLU5 <- ip2
I0426 03:58:32.982803 12220 net.cpp:327] reLU5 -> ip2 (in-place)
I0426 03:58:32.982811 12220 net.cpp:113] Setting up reLU5
I0426 03:58:32.982872 12220 net.cpp:120] Top shape: 256 256 (65536)
I0426 03:58:32.982882 12220 layer_factory.hpp:74] Creating layer dropout4
I0426 03:58:32.982890 12220 net.cpp:84] Creating Layer dropout4
I0426 03:58:32.982897 12220 net.cpp:380] dropout4 <- ip2
I0426 03:58:32.982905 12220 net.cpp:327] dropout4 -> ip2 (in-place)
I0426 03:58:32.982913 12220 net.cpp:113] Setting up dropout4
I0426 03:58:32.982920 12220 net.cpp:120] Top shape: 256 256 (65536)
I0426 03:58:32.982926 12220 layer_factory.hpp:74] Creating layer ip3
I0426 03:58:32.982938 12220 net.cpp:84] Creating Layer ip3
I0426 03:58:32.982942 12220 net.cpp:380] ip3 <- ip2
I0426 03:58:32.982951 12220 net.cpp:338] ip3 -> ip3
I0426 03:58:32.982959 12220 net.cpp:113] Setting up ip3
I0426 03:58:32.983198 12220 net.cpp:120] Top shape: 256 121 (30976)
I0426 03:58:32.983209 12220 layer_factory.hpp:74] Creating layer ip3_ip3_0_split
I0426 03:58:32.983219 12220 net.cpp:84] Creating Layer ip3_ip3_0_split
I0426 03:58:32.983224 12220 net.cpp:380] ip3_ip3_0_split <- ip3
I0426 03:58:32.983233 12220 net.cpp:338] ip3_ip3_0_split -> ip3_ip3_0_split_0
I0426 03:58:32.983245 12220 net.cpp:338] ip3_ip3_0_split -> ip3_ip3_0_split_1
I0426 03:58:32.983254 12220 net.cpp:113] Setting up ip3_ip3_0_split
I0426 03:58:32.983263 12220 net.cpp:120] Top shape: 256 121 (30976)
I0426 03:58:32.983269 12220 net.cpp:120] Top shape: 256 121 (30976)
I0426 03:58:32.983274 12220 layer_factory.hpp:74] Creating layer accuracy
I0426 03:58:32.983296 12220 net.cpp:84] Creating Layer accuracy
I0426 03:58:32.983302 12220 net.cpp:380] accuracy <- ip3_ip3_0_split_0
I0426 03:58:32.983309 12220 net.cpp:380] accuracy <- label_ndsb_1_split_0
I0426 03:58:32.983319 12220 net.cpp:338] accuracy -> accuracy
I0426 03:58:32.983327 12220 net.cpp:113] Setting up accuracy
…
