…
I0426 02:37:23.926796  2391 net.cpp:257] The NetState phase (0) differed from the phase (1) specified by a rule in layer accuracy
I0426 02:37:23.927009  2391 net.cpp:42] Initializing net from parameters: 
name: "SeaNet"
state {
  phase: TRAIN
}
layer {
  name: "ndsb"
  type: "Data"
  top: "data"
  top: "label"
  include {
    phase: TRAIN
  }
  transform_param {
    scale: 0.00390625
    mean_file: "./train_all_48_mean.binaryproto"
  }
  data_param {
    source: "/home/nitini/data_files/cross_val_files/cv_training_lmdb"
    batch_size: 256
    backend: LMDB
  }
}
layer {
  name: "conv1"
  type: "Convolution"
  bottom: "data"
  top: "conv1"
  param {
    lr_mult: 1
  }
  param {
    lr_mult: 2
  }
  convolution_param {
    num_output: 64
    kernel_size: 3
    stride: 1
    weight_filler {
      type: "xavier"
    }
    bias_filler {
      type: "constant"
    }
  }
}
layer {
  name: "reLU1"
  type: "ReLU"
  bottom: "conv1"
  top: "conv1"
}
layer {
  name: "norm1"
  type: "LRN"
  bottom: "conv1"
  top: "norm1"
  lrn_param {
    local_size: 5
    alpha: 0.0001
    beta: 0.75
  }
}
layer {
  name: "conv2"
  type: "Convolution"
  bottom: "norm1"
  top: "conv2"
  param {
    lr_mult: 1
  }
  param {
    lr_mult: 2
  }
  convolution_param {
    num_output: 64
    kernel_size: 3
    stride: 1
    weight_filler {
      type: "xavier"
    }
    bias_filler {
      type: "constant"
    }
  }
}
layer {
  name: "reLU2"
  type: "ReLU"
  bottom: "conv2"
  top: "conv2"
}
layer {
  name: "norm2"
  type: "LRN"
  bottom: "conv2"
  top: "norm2"
  lrn_param {
    local_size: 5
    alpha: 0.0001
    beta: 0.75
  }
}
layer {
  name: "dropout1"
  type: "Dropout"
  bottom: "norm2"
  top: "norm2"
  dropout_param {
    dropout_ratio: 0.5
  }
}
layer {
  name: "conv3"
  type: "Convolution"
  bottom: "norm2"
  top: "conv3"
  param {
    lr_mult: 1
  }
  param {
    lr_mult: 2
  }
  convolution_param {
    num_output: 128
    kernel_size: 2
    stride: 1
    weight_filler {
      type: "xavier"
    }
    bias_filler {
      type: "constant"
    }
  }
}
layer {
  name: "reLU3"
  type: "ReLU"
  bottom: "conv3"
  top: "conv3"
}
layer {
  name: "norm3"
  type: "LRN"
  bottom: "conv3"
  top: "norm3"
  lrn_param {
    local_size: 5
    alpha: 0.0001
    beta: 0.75
  }
}
layer {
  name: "conv4"
  type: "Convolution"
  bottom: "norm3"
  top: "conv4"
  param {
    lr_mult: 1
  }
  param {
    lr_mult: 2
  }
  convolution_param {
    num_output: 128
    kernel_size: 2
    stride: 1
    weight_filler {
      type: "xavier"
    }
    bias_filler {
      type: "constant"
    }
  }
}
layer {
  name: "pool1"
  type: "Pooling"
  bottom: "conv4"
  top: "pool1"
  pooling_param {
    pool: MAX
    kernel_size: 2
    stride: 2
  }
}
layer {
  name: "norm4"
  type: "LRN"
  bottom: "pool1"
  top: "norm4"
  lrn_param {
    local_size: 5
    alpha: 0.0001
    beta: 0.75
  }
}
layer {
  name: "dropout2"
  type: "Dropout"
  bottom: "norm4"
  top: "norm4"
  dropout_param {
    dropout_ratio: 0.5
  }
}
layer {
  name: "ip1"
  type: "InnerProduct"
  bottom: "norm4"
  top: "ip1"
  param {
    lr_mult: 1
  }
  param {
    lr_mult: 2
  }
  inner_product_param {
    num_output: 512
    weight_filler {
      type: "xavier"
    }
    bias_filler {
      type: "constant"
    }
  }
}
layer {
  name: "reLU4"
  type: "ReLU"
  bottom: "ip1"
  top: "ip1"
}
layer {
  name: "dropout3"
  type: "Dropout"
  bottom: "ip1"
  top: "ip1"
  dropout_param {
    dropout_ratio: 0.5
  }
}
layer {
  name: "ip2"
  type: "InnerProduct"
  bottom: "ip1"
  top: "ip2"
  param {
    lr_mult: 1
  }
  param {
    lr_mult: 2
  }
  inner_product_param {
    num_output: 256
    weight_filler {
      type: "xavier"
      std: 0.01
    }
    bias_filler {
      type: "constant"
      value: 0
    }
  }
}
layer {
  name: "reLU5"
  type: "ReLU"
  bottom: "ip2"
  top: "ip2"
}
layer {
  name: "dropout4"
  type: "Dropout"
  bottom: "ip2"
  top: "ip2"
  dropout_param {
    dropout_ratio: 0.5
  }
}
layer {
  name: "ip3"
  type: "InnerProduct"
  bottom: "ip2"
  top: "ip3"
  param {
    lr_mult: 1
  }
  param {
    lr_mult: 2
  }
  inner_product_param {
    num_output: 121
    weight_filler {
      type: "xavier"
      std: 0.01
    }
    bias_filler {
      type: "constant"
      value: 0
    }
  }
}
layer {
  name: "loss"
  type: "SoftmaxWithLoss"
  bottom: "ip3"
  bottom: "label"
  top: "loss"
}
I0426 02:37:23.927178  2391 layer_factory.hpp:74] Creating layer ndsb
I0426 02:37:23.928740  2391 net.cpp:84] Creating Layer ndsb
I0426 02:37:23.928760  2391 net.cpp:338] ndsb -> data
I0426 02:37:23.928799  2391 net.cpp:338] ndsb -> label
I0426 02:37:23.928818  2391 net.cpp:113] Setting up ndsb
I0426 02:37:24.554523  2391 db.cpp:34] Opened lmdb /home/nitini/data_files/cross_val_files/cv_training_lmdb
I0426 02:37:25.567340  2391 data_layer.cpp:67] output data size: 256,3,48,48
I0426 02:37:25.567405  2391 data_transformer.cpp:22] Loading mean file from: ./train_all_48_mean.binaryproto
I0426 02:37:26.389837  2391 net.cpp:120] Top shape: 256 3 48 48 (1769472)
I0426 02:37:26.389868  2391 net.cpp:120] Top shape: 256 (256)
I0426 02:37:26.389880  2391 layer_factory.hpp:74] Creating layer conv1
I0426 02:37:26.389911  2391 net.cpp:84] Creating Layer conv1
I0426 02:37:26.389924  2391 net.cpp:380] conv1 <- data
I0426 02:37:26.389945  2391 net.cpp:338] conv1 -> conv1
I0426 02:37:26.389966  2391 net.cpp:113] Setting up conv1
I0426 02:37:37.746647  2391 net.cpp:120] Top shape: 256 64 46 46 (34668544)
I0426 02:37:37.778305  2391 layer_factory.hpp:74] Creating layer reLU1
I0426 02:37:37.778328  2391 net.cpp:84] Creating Layer reLU1
I0426 02:37:37.778337  2391 net.cpp:380] reLU1 <- conv1
I0426 02:37:37.778347  2391 net.cpp:327] reLU1 -> conv1 (in-place)
I0426 02:37:37.778359  2391 net.cpp:113] Setting up reLU1
I0426 02:37:37.779499  2391 net.cpp:120] Top shape: 256 64 46 46 (34668544)
I0426 02:37:37.779512  2391 layer_factory.hpp:74] Creating layer norm1
I0426 02:37:37.779527  2391 net.cpp:84] Creating Layer norm1
I0426 02:37:37.779533  2391 net.cpp:380] norm1 <- conv1
I0426 02:37:37.779542  2391 net.cpp:338] norm1 -> norm1
I0426 02:37:37.779554  2391 net.cpp:113] Setting up norm1
I0426 02:37:37.779568  2391 net.cpp:120] Top shape: 256 64 46 46 (34668544)
I0426 02:37:37.779575  2391 layer_factory.hpp:74] Creating layer conv2
I0426 02:37:37.779589  2391 net.cpp:84] Creating Layer conv2
I0426 02:37:37.779597  2391 net.cpp:380] conv2 <- norm1
I0426 02:37:37.779604  2391 net.cpp:338] conv2 -> conv2
I0426 02:37:37.779615  2391 net.cpp:113] Setting up conv2
I0426 02:37:37.780151  2391 net.cpp:120] Top shape: 256 64 44 44 (31719424)
I0426 02:37:37.780169  2391 layer_factory.hpp:74] Creating layer reLU2
I0426 02:37:37.780179  2391 net.cpp:84] Creating Layer reLU2
I0426 02:37:37.780185  2391 net.cpp:380] reLU2 <- conv2
I0426 02:37:37.780194  2391 net.cpp:327] reLU2 -> conv2 (in-place)
I0426 02:37:37.780201  2391 net.cpp:113] Setting up reLU2
I0426 02:37:37.780251  2391 net.cpp:120] Top shape: 256 64 44 44 (31719424)
I0426 02:37:37.780261  2391 layer_factory.hpp:74] Creating layer norm2
I0426 02:37:37.780269  2391 net.cpp:84] Creating Layer norm2
I0426 02:37:37.780275  2391 net.cpp:380] norm2 <- conv2
I0426 02:37:37.780283  2391 net.cpp:338] norm2 -> norm2
I0426 02:37:37.780292  2391 net.cpp:113] Setting up norm2
I0426 02:37:37.780300  2391 net.cpp:120] Top shape: 256 64 44 44 (31719424)
I0426 02:37:37.780306  2391 layer_factory.hpp:74] Creating layer dropout1
I0426 02:37:37.780323  2391 net.cpp:84] Creating Layer dropout1
I0426 02:37:37.780359  2391 net.cpp:380] dropout1 <- norm2
I0426 02:37:37.780366  2391 net.cpp:327] dropout1 -> norm2 (in-place)
I0426 02:37:37.780393  2391 net.cpp:113] Setting up dropout1
I0426 02:37:37.780407  2391 net.cpp:120] Top shape: 256 64 44 44 (31719424)
I0426 02:37:37.780414  2391 layer_factory.hpp:74] Creating layer conv3
I0426 02:37:37.780426  2391 net.cpp:84] Creating Layer conv3
I0426 02:37:37.780431  2391 net.cpp:380] conv3 <- norm2
I0426 02:37:37.780439  2391 net.cpp:338] conv3 -> conv3
I0426 02:37:37.780448  2391 net.cpp:113] Setting up conv3
I0426 02:37:37.780933  2391 net.cpp:120] Top shape: 256 128 43 43 (60588032)
I0426 02:37:37.780952  2391 layer_factory.hpp:74] Creating layer reLU3
I0426 02:37:37.780961  2391 net.cpp:84] Creating Layer reLU3
I0426 02:37:37.780967  2391 net.cpp:380] reLU3 <- conv3
I0426 02:37:37.780974  2391 net.cpp:327] reLU3 -> conv3 (in-place)
I0426 02:37:37.780982  2391 net.cpp:113] Setting up reLU3
I0426 02:37:37.781033  2391 net.cpp:120] Top shape: 256 128 43 43 (60588032)
I0426 02:37:37.781043  2391 layer_factory.hpp:74] Creating layer norm3
I0426 02:37:37.781051  2391 net.cpp:84] Creating Layer norm3
I0426 02:37:37.781057  2391 net.cpp:380] norm3 <- conv3
I0426 02:37:37.781065  2391 net.cpp:338] norm3 -> norm3
I0426 02:37:37.781074  2391 net.cpp:113] Setting up norm3
I0426 02:37:37.781083  2391 net.cpp:120] Top shape: 256 128 43 43 (60588032)
I0426 02:37:37.781088  2391 layer_factory.hpp:74] Creating layer conv4
I0426 02:37:37.781100  2391 net.cpp:84] Creating Layer conv4
I0426 02:37:37.781105  2391 net.cpp:380] conv4 <- norm3
I0426 02:37:37.781114  2391 net.cpp:338] conv4 -> conv4
I0426 02:37:37.781124  2391 net.cpp:113] Setting up conv4
I0426 02:37:37.781869  2391 net.cpp:120] Top shape: 256 128 42 42 (57802752)
I0426 02:37:37.781888  2391 layer_factory.hpp:74] Creating layer pool1
I0426 02:37:37.781906  2391 net.cpp:84] Creating Layer pool1
I0426 02:37:37.781913  2391 net.cpp:380] pool1 <- conv4
I0426 02:37:37.781921  2391 net.cpp:338] pool1 -> pool1
I0426 02:37:37.781930  2391 net.cpp:113] Setting up pool1
I0426 02:37:37.782101  2391 net.cpp:120] Top shape: 256 128 21 21 (14450688)
I0426 02:37:37.782114  2391 layer_factory.hpp:74] Creating layer norm4
I0426 02:37:37.782125  2391 net.cpp:84] Creating Layer norm4
I0426 02:37:37.782131  2391 net.cpp:380] norm4 <- pool1
I0426 02:37:37.782140  2391 net.cpp:338] norm4 -> norm4
I0426 02:37:37.782148  2391 net.cpp:113] Setting up norm4
I0426 02:37:37.782158  2391 net.cpp:120] Top shape: 256 128 21 21 (14450688)
I0426 02:37:37.782165  2391 layer_factory.hpp:74] Creating layer dropout2
I0426 02:37:37.782172  2391 net.cpp:84] Creating Layer dropout2
I0426 02:37:37.782178  2391 net.cpp:380] dropout2 <- norm4
I0426 02:37:37.782186  2391 net.cpp:327] dropout2 -> norm4 (in-place)
I0426 02:37:37.782194  2391 net.cpp:113] Setting up dropout2
I0426 02:37:37.782202  2391 net.cpp:120] Top shape: 256 128 21 21 (14450688)
I0426 02:37:37.782208  2391 layer_factory.hpp:74] Creating layer ip1
I0426 02:37:37.782220  2391 net.cpp:84] Creating Layer ip1
I0426 02:37:37.782227  2391 net.cpp:380] ip1 <- norm4
I0426 02:37:37.782235  2391 net.cpp:338] ip1 -> ip1
I0426 02:37:37.782248  2391 net.cpp:113] Setting up ip1
I0426 02:37:38.036311  2391 net.cpp:120] Top shape: 256 512 (131072)
I0426 02:37:38.036386  2391 layer_factory.hpp:74] Creating layer reLU4
I0426 02:37:38.036411  2391 net.cpp:84] Creating Layer reLU4
I0426 02:37:38.036419  2391 net.cpp:380] reLU4 <- ip1
I0426 02:37:38.036434  2391 net.cpp:327] reLU4 -> ip1 (in-place)
I0426 02:37:38.036448  2391 net.cpp:113] Setting up reLU4
I0426 02:37:38.036563  2391 net.cpp:120] Top shape: 256 512 (131072)
I0426 02:37:38.036572  2391 layer_factory.hpp:74] Creating layer dropout3
I0426 02:37:38.036583  2391 net.cpp:84] Creating Layer dropout3
I0426 02:37:38.036589  2391 net.cpp:380] dropout3 <- ip1
I0426 02:37:38.036598  2391 net.cpp:327] dropout3 -> ip1 (in-place)
I0426 02:37:38.036607  2391 net.cpp:113] Setting up dropout3
I0426 02:37:38.036628  2391 net.cpp:120] Top shape: 256 512 (131072)
I0426 02:37:38.036669  2391 layer_factory.hpp:74] Creating layer ip2
I0426 02:37:38.036684  2391 net.cpp:84] Creating Layer ip2
I0426 02:37:38.036690  2391 net.cpp:380] ip2 <- ip1
I0426 02:37:38.036700  2391 net.cpp:338] ip2 -> ip2
I0426 02:37:38.036713  2391 net.cpp:113] Setting up ip2
I0426 02:37:38.037703  2391 net.cpp:120] Top shape: 256 256 (65536)
I0426 02:37:38.037717  2391 layer_factory.hpp:74] Creating layer reLU5
I0426 02:37:38.037726  2391 net.cpp:84] Creating Layer reLU5
I0426 02:37:38.037732  2391 net.cpp:380] reLU5 <- ip2
I0426 02:37:38.037740  2391 net.cpp:327] reLU5 -> ip2 (in-place)
I0426 02:37:38.037747  2391 net.cpp:113] Setting up reLU5
I0426 02:37:38.037808  2391 net.cpp:120] Top shape: 256 256 (65536)
I0426 02:37:38.037817  2391 layer_factory.hpp:74] Creating layer dropout4
I0426 02:37:38.037827  2391 net.cpp:84] Creating Layer dropout4
I0426 02:37:38.037832  2391 net.cpp:380] dropout4 <- ip2
I0426 02:37:38.037840  2391 net.cpp:327] dropout4 -> ip2 (in-place)
I0426 02:37:38.037848  2391 net.cpp:113] Setting up dropout4
I0426 02:37:38.037856  2391 net.cpp:120] Top shape: 256 256 (65536)
I0426 02:37:38.037863  2391 layer_factory.hpp:74] Creating layer ip3
I0426 02:37:38.037873  2391 net.cpp:84] Creating Layer ip3
I0426 02:37:38.037879  2391 net.cpp:380] ip3 <- ip2
I0426 02:37:38.037889  2391 net.cpp:338] ip3 -> ip3
I0426 02:37:38.037899  2391 net.cpp:113] Setting up ip3
I0426 02:37:38.038142  2391 net.cpp:120] Top shape: 256 121 (30976)
I0426 02:37:38.038154  2391 layer_factory.hpp:74] Creating layer loss
I0426 02:37:38.038173  2391 net.cpp:84] Creating Layer loss
I0426 02:37:38.038180  2391 net.cpp:380] loss <- ip3
I0426 02:37:38.038187  2391 net.cpp:380] loss <- label
I0426 02:37:38.038200  2391 net.cpp:338] loss -> loss
I0426 02:37:38.038887  2391 net.cpp:113] Setting up loss
I0426 02:37:38.038908  2391 layer_factory.hpp:74] Creating layer loss
…
I0426 02:37:38.134505  2391 net.cpp:257] The NetState phase (1) differed from the phase (0) specified by a rule in layer ndsb
I0426 02:37:38.134732  2391 net.cpp:42] Initializing net from parameters: 
name: "SeaNet"
state {
  phase: TEST
}
layer {
  name: "ndsb"
  type: "Data"
  top: "data"
  top: "label"
  include {
    phase: TEST
  }
  transform_param {
    scale: 0.00390625
    mean_file: "./train_all_48_mean.binaryproto"
  }
  data_param {
    source: "/home/nitini/data_files/cross_val_files/cv_holdout_lmdb"
    batch_size: 256
    backend: LMDB
  }
}
layer {
  name: "conv1"
  type: "Convolution"
  bottom: "data"
  top: "conv1"
  param {
    lr_mult: 1
  }
  param {
    lr_mult: 2
  }
  convolution_param {
    num_output: 64
    kernel_size: 3
    stride: 1
    weight_filler {
      type: "xavier"
    }
    bias_filler {
      type: "constant"
    }
  }
}
layer {
  name: "reLU1"
  type: "ReLU"
  bottom: "conv1"
  top: "conv1"
}
layer {
  name: "norm1"
  type: "LRN"
  bottom: "conv1"
  top: "norm1"
  lrn_param {
    local_size: 5
    alpha: 0.0001
    beta: 0.75
  }
}
layer {
  name: "conv2"
  type: "Convolution"
  bottom: "norm1"
  top: "conv2"
  param {
    lr_mult: 1
  }
  param {
    lr_mult: 2
  }
  convolution_param {
    num_output: 64
    kernel_size: 3
    stride: 1
    weight_filler {
      type: "xavier"
    }
    bias_filler {
      type: "constant"
    }
  }
}
layer {
  name: "reLU2"
  type: "ReLU"
  bottom: "conv2"
  top: "conv2"
}
layer {
  name: "norm2"
  type: "LRN"
  bottom: "conv2"
  top: "norm2"
  lrn_param {
    local_size: 5
    alpha: 0.0001
    beta: 0.75
  }
}
layer {
  name: "dropout1"
  type: "Dropout"
  bottom: "norm2"
  top: "norm2"
  dropout_param {
    dropout_ratio: 0.5
  }
}
layer {
  name: "conv3"
  type: "Convolution"
  bottom: "norm2"
  top: "conv3"
  param {
    lr_mult: 1
  }
  param {
    lr_mult: 2
  }
  convolution_param {
    num_output: 128
    kernel_size: 2
    stride: 1
    weight_filler {
      type: "xavier"
    }
    bias_filler {
      type: "constant"
    }
  }
}
layer {
  name: "reLU3"
  type: "ReLU"
  bottom: "conv3"
  top: "conv3"
}
layer {
  name: "norm3"
  type: "LRN"
  bottom: "conv3"
  top: "norm3"
  lrn_param {
    local_size: 5
    alpha: 0.0001
    beta: 0.75
  }
}
layer {
  name: "conv4"
  type: "Convolution"
  bottom: "norm3"
  top: "conv4"
  param {
    lr_mult: 1
  }
  param {
    lr_mult: 2
  }
  convolution_param {
    num_output: 128
    kernel_size: 2
    stride: 1
    weight_filler {
      type: "xavier"
    }
    bias_filler {
      type: "constant"
    }
  }
}
layer {
  name: "pool1"
  type: "Pooling"
  bottom: "conv4"
  top: "pool1"
  pooling_param {
    pool: MAX
    kernel_size: 2
    stride: 2
  }
}
layer {
  name: "norm4"
  type: "LRN"
  bottom: "pool1"
  top: "norm4"
  lrn_param {
    local_size: 5
    alpha: 0.0001
    beta: 0.75
  }
}
layer {
  name: "dropout2"
  type: "Dropout"
  bottom: "norm4"
  top: "norm4"
  dropout_param {
    dropout_ratio: 0.5
  }
}
layer {
  name: "ip1"
  type: "InnerProduct"
  bottom: "norm4"
  top: "ip1"
  param {
    lr_mult: 1
  }
  param {
    lr_mult: 2
  }
  inner_product_param {
    num_output: 512
    weight_filler {
      type: "xavier"
    }
    bias_filler {
      type: "constant"
    }
  }
}
layer {
  name: "reLU4"
  type: "ReLU"
  bottom: "ip1"
  top: "ip1"
}
layer {
  name: "dropout3"
  type: "Dropout"
  bottom: "ip1"
  top: "ip1"
  dropout_param {
    dropout_ratio: 0.5
  }
}
layer {
  name: "ip2"
  type: "InnerProduct"
  bottom: "ip1"
  top: "ip2"
  param {
    lr_mult: 1
  }
  param {
    lr_mult: 2
  }
  inner_product_param {
    num_output: 256
    weight_filler {
      type: "xavier"
      std: 0.01
    }
    bias_filler {
      type: "constant"
      value: 0
    }
  }
}
layer {
  name: "reLU5"
  type: "ReLU"
  bottom: "ip2"
  top: "ip2"
}
layer {
  name: "dropout4"
  type: "Dropout"
  bottom: "ip2"
  top: "ip2"
  dropout_param {
    dropout_ratio: 0.5
  }
}
layer {
  name: "ip3"
  type: "InnerProduct"
  bottom: "ip2"
  top: "ip3"
  param {
    lr_mult: 1
  }
  param {
    lr_mult: 2
  }
  inner_product_param {
    num_output: 121
    weight_filler {
      type: "xavier"
      std: 0.01
    }
    bias_filler {
      type: "constant"
      value: 0
    }
  }
}
layer {
  name: "accuracy"
  type: "Accuracy"
  bottom: "ip3"
  bottom: "label"
  top: "accuracy"
  include {
    phase: TEST
  }
}
layer {
  name: "loss"
  type: "SoftmaxWithLoss"
  bottom: "ip3"
  bottom: "label"
  top: "loss"
}
I0426 02:37:38.134874  2391 layer_factory.hpp:74] Creating layer ndsb
I0426 02:37:38.134889  2391 net.cpp:84] Creating Layer ndsb
I0426 02:37:38.134897  2391 net.cpp:338] ndsb -> data
I0426 02:37:38.134908  2391 net.cpp:338] ndsb -> label
I0426 02:37:38.134918  2391 net.cpp:113] Setting up ndsb
I0426 02:37:38.516108  2391 db.cpp:34] Opened lmdb /home/nitini/data_files/cross_val_files/cv_holdout_lmdb
I0426 02:37:39.300537  2391 data_layer.cpp:67] output data size: 256,3,48,48
I0426 02:37:39.300581  2391 data_transformer.cpp:22] Loading mean file from: ./train_all_48_mean.binaryproto
I0426 02:37:42.022841  2391 net.cpp:120] Top shape: 256 3 48 48 (1769472)
I0426 02:37:42.022876  2391 net.cpp:120] Top shape: 256 (256)
I0426 02:37:42.022888  2391 layer_factory.hpp:74] Creating layer label_ndsb_1_split
I0426 02:37:42.022912  2391 net.cpp:84] Creating Layer label_ndsb_1_split
I0426 02:37:42.022920  2391 net.cpp:380] label_ndsb_1_split <- label
I0426 02:37:42.022933  2391 net.cpp:338] label_ndsb_1_split -> label_ndsb_1_split_0
I0426 02:37:42.022948  2391 net.cpp:338] label_ndsb_1_split -> label_ndsb_1_split_1
I0426 02:37:42.022958  2391 net.cpp:113] Setting up label_ndsb_1_split
I0426 02:37:42.022968  2391 net.cpp:120] Top shape: 256 (256)
I0426 02:37:42.022974  2391 net.cpp:120] Top shape: 256 (256)
I0426 02:37:42.022979  2391 layer_factory.hpp:74] Creating layer conv1
I0426 02:37:42.022994  2391 net.cpp:84] Creating Layer conv1
I0426 02:37:42.023000  2391 net.cpp:380] conv1 <- data
I0426 02:37:42.023008  2391 net.cpp:338] conv1 -> conv1
I0426 02:37:42.023020  2391 net.cpp:113] Setting up conv1
I0426 02:37:42.023458  2391 net.cpp:120] Top shape: 256 64 46 46 (34668544)
I0426 02:37:42.023479  2391 layer_factory.hpp:74] Creating layer reLU1
I0426 02:37:42.023491  2391 net.cpp:84] Creating Layer reLU1
I0426 02:37:42.023497  2391 net.cpp:380] reLU1 <- conv1
I0426 02:37:42.023505  2391 net.cpp:327] reLU1 -> conv1 (in-place)
I0426 02:37:42.023514  2391 net.cpp:113] Setting up reLU1
I0426 02:37:42.023658  2391 net.cpp:120] Top shape: 256 64 46 46 (34668544)
I0426 02:37:42.023669  2391 layer_factory.hpp:74] Creating layer norm1
I0426 02:37:42.023684  2391 net.cpp:84] Creating Layer norm1
I0426 02:37:42.023689  2391 net.cpp:380] norm1 <- conv1
I0426 02:37:42.023699  2391 net.cpp:338] norm1 -> norm1
I0426 02:37:42.023707  2391 net.cpp:113] Setting up norm1
I0426 02:37:42.023717  2391 net.cpp:120] Top shape: 256 64 46 46 (34668544)
I0426 02:37:42.023723  2391 layer_factory.hpp:74] Creating layer conv2
I0426 02:37:42.023736  2391 net.cpp:84] Creating Layer conv2
I0426 02:37:42.023742  2391 net.cpp:380] conv2 <- norm1
I0426 02:37:42.023751  2391 net.cpp:338] conv2 -> conv2
I0426 02:37:42.023761  2391 net.cpp:113] Setting up conv2
I0426 02:37:42.024272  2391 net.cpp:120] Top shape: 256 64 44 44 (31719424)
I0426 02:37:42.024299  2391 layer_factory.hpp:74] Creating layer reLU2
I0426 02:37:42.024309  2391 net.cpp:84] Creating Layer reLU2
I0426 02:37:42.024315  2391 net.cpp:380] reLU2 <- conv2
I0426 02:37:42.024323  2391 net.cpp:327] reLU2 -> conv2 (in-place)
I0426 02:37:42.024332  2391 net.cpp:113] Setting up reLU2
I0426 02:37:42.024406  2391 net.cpp:120] Top shape: 256 64 44 44 (31719424)
I0426 02:37:42.024417  2391 layer_factory.hpp:74] Creating layer norm2
I0426 02:37:42.024427  2391 net.cpp:84] Creating Layer norm2
I0426 02:37:42.024433  2391 net.cpp:380] norm2 <- conv2
I0426 02:37:42.024441  2391 net.cpp:338] norm2 -> norm2
I0426 02:37:42.024449  2391 net.cpp:113] Setting up norm2
I0426 02:37:42.024466  2391 net.cpp:120] Top shape: 256 64 44 44 (31719424)
I0426 02:37:42.024507  2391 layer_factory.hpp:74] Creating layer dropout1
I0426 02:37:42.024519  2391 net.cpp:84] Creating Layer dropout1
I0426 02:37:42.024524  2391 net.cpp:380] dropout1 <- norm2
I0426 02:37:42.024533  2391 net.cpp:327] dropout1 -> norm2 (in-place)
I0426 02:37:42.024540  2391 net.cpp:113] Setting up dropout1
I0426 02:37:42.024550  2391 net.cpp:120] Top shape: 256 64 44 44 (31719424)
I0426 02:37:42.024556  2391 layer_factory.hpp:74] Creating layer conv3
I0426 02:37:42.024566  2391 net.cpp:84] Creating Layer conv3
I0426 02:37:42.024571  2391 net.cpp:380] conv3 <- norm2
I0426 02:37:42.024580  2391 net.cpp:338] conv3 -> conv3
I0426 02:37:42.024590  2391 net.cpp:113] Setting up conv3
I0426 02:37:42.025081  2391 net.cpp:120] Top shape: 256 128 43 43 (60588032)
I0426 02:37:42.025100  2391 layer_factory.hpp:74] Creating layer reLU3
I0426 02:37:42.025110  2391 net.cpp:84] Creating Layer reLU3
I0426 02:37:42.025116  2391 net.cpp:380] reLU3 <- conv3
I0426 02:37:42.025125  2391 net.cpp:327] reLU3 -> conv3 (in-place)
I0426 02:37:42.025132  2391 net.cpp:113] Setting up reLU3
I0426 02:37:42.025187  2391 net.cpp:120] Top shape: 256 128 43 43 (60588032)
I0426 02:37:42.025194  2391 layer_factory.hpp:74] Creating layer norm3
I0426 02:37:42.025204  2391 net.cpp:84] Creating Layer norm3
I0426 02:37:42.025210  2391 net.cpp:380] norm3 <- conv3
I0426 02:37:42.025218  2391 net.cpp:338] norm3 -> norm3
I0426 02:37:42.025226  2391 net.cpp:113] Setting up norm3
I0426 02:37:42.025234  2391 net.cpp:120] Top shape: 256 128 43 43 (60588032)
I0426 02:37:42.025243  2391 layer_factory.hpp:74] Creating layer conv4
I0426 02:37:42.025255  2391 net.cpp:84] Creating Layer conv4
I0426 02:37:42.025260  2391 net.cpp:380] conv4 <- norm3
I0426 02:37:42.025269  2391 net.cpp:338] conv4 -> conv4
I0426 02:37:42.025279  2391 net.cpp:113] Setting up conv4
I0426 02:37:42.026021  2391 net.cpp:120] Top shape: 256 128 42 42 (57802752)
I0426 02:37:42.026038  2391 layer_factory.hpp:74] Creating layer pool1
I0426 02:37:42.026051  2391 net.cpp:84] Creating Layer pool1
I0426 02:37:42.026057  2391 net.cpp:380] pool1 <- conv4
I0426 02:37:42.026065  2391 net.cpp:338] pool1 -> pool1
I0426 02:37:42.026073  2391 net.cpp:113] Setting up pool1
I0426 02:37:42.026137  2391 net.cpp:120] Top shape: 256 128 21 21 (14450688)
I0426 02:37:42.026146  2391 layer_factory.hpp:74] Creating layer norm4
I0426 02:37:42.026156  2391 net.cpp:84] Creating Layer norm4
I0426 02:37:42.026161  2391 net.cpp:380] norm4 <- pool1
I0426 02:37:42.026170  2391 net.cpp:338] norm4 -> norm4
I0426 02:37:42.026177  2391 net.cpp:113] Setting up norm4
I0426 02:37:42.026186  2391 net.cpp:120] Top shape: 256 128 21 21 (14450688)
I0426 02:37:42.026191  2391 layer_factory.hpp:74] Creating layer dropout2
I0426 02:37:42.026201  2391 net.cpp:84] Creating Layer dropout2
I0426 02:37:42.026206  2391 net.cpp:380] dropout2 <- norm4
I0426 02:37:42.026216  2391 net.cpp:327] dropout2 -> norm4 (in-place)
I0426 02:37:42.026222  2391 net.cpp:113] Setting up dropout2
I0426 02:37:42.026231  2391 net.cpp:120] Top shape: 256 128 21 21 (14450688)
I0426 02:37:42.026235  2391 layer_factory.hpp:74] Creating layer ip1
I0426 02:37:42.026249  2391 net.cpp:84] Creating Layer ip1
I0426 02:37:42.026254  2391 net.cpp:380] ip1 <- norm4
I0426 02:37:42.026264  2391 net.cpp:338] ip1 -> ip1
I0426 02:37:42.026273  2391 net.cpp:113] Setting up ip1
I0426 02:37:42.278934  2391 net.cpp:120] Top shape: 256 512 (131072)
I0426 02:37:42.278992  2391 layer_factory.hpp:74] Creating layer reLU4
I0426 02:37:42.279011  2391 net.cpp:84] Creating Layer reLU4
I0426 02:37:42.279021  2391 net.cpp:380] reLU4 <- ip1
I0426 02:37:42.279032  2391 net.cpp:327] reLU4 -> ip1 (in-place)
I0426 02:37:42.279045  2391 net.cpp:113] Setting up reLU4
I0426 02:37:42.279361  2391 net.cpp:120] Top shape: 256 512 (131072)
I0426 02:37:42.279389  2391 layer_factory.hpp:74] Creating layer dropout3
I0426 02:37:42.279402  2391 net.cpp:84] Creating Layer dropout3
I0426 02:37:42.279418  2391 net.cpp:380] dropout3 <- ip1
I0426 02:37:42.279428  2391 net.cpp:327] dropout3 -> ip1 (in-place)
I0426 02:37:42.279470  2391 net.cpp:113] Setting up dropout3
I0426 02:37:42.279482  2391 net.cpp:120] Top shape: 256 512 (131072)
I0426 02:37:42.279489  2391 layer_factory.hpp:74] Creating layer ip2
I0426 02:37:42.279501  2391 net.cpp:84] Creating Layer ip2
I0426 02:37:42.279506  2391 net.cpp:380] ip2 <- ip1
I0426 02:37:42.279515  2391 net.cpp:338] ip2 -> ip2
I0426 02:37:42.279526  2391 net.cpp:113] Setting up ip2
I0426 02:37:42.280586  2391 net.cpp:120] Top shape: 256 256 (65536)
I0426 02:37:42.280601  2391 layer_factory.hpp:74] Creating layer reLU5
I0426 02:37:42.280613  2391 net.cpp:84] Creating Layer reLU5
I0426 02:37:42.280619  2391 net.cpp:380] reLU5 <- ip2
I0426 02:37:42.280629  2391 net.cpp:327] reLU5 -> ip2 (in-place)
I0426 02:37:42.280637  2391 net.cpp:113] Setting up reLU5
I0426 02:37:42.280704  2391 net.cpp:120] Top shape: 256 256 (65536)
I0426 02:37:42.280712  2391 layer_factory.hpp:74] Creating layer dropout4
I0426 02:37:42.280721  2391 net.cpp:84] Creating Layer dropout4
I0426 02:37:42.280726  2391 net.cpp:380] dropout4 <- ip2
I0426 02:37:42.280735  2391 net.cpp:327] dropout4 -> ip2 (in-place)
I0426 02:37:42.280743  2391 net.cpp:113] Setting up dropout4
I0426 02:37:42.280751  2391 net.cpp:120] Top shape: 256 256 (65536)
I0426 02:37:42.280757  2391 layer_factory.hpp:74] Creating layer ip3
I0426 02:37:42.280766  2391 net.cpp:84] Creating Layer ip3
I0426 02:37:42.280771  2391 net.cpp:380] ip3 <- ip2
I0426 02:37:42.280781  2391 net.cpp:338] ip3 -> ip3
I0426 02:37:42.280791  2391 net.cpp:113] Setting up ip3
I0426 02:37:42.281064  2391 net.cpp:120] Top shape: 256 121 (30976)
I0426 02:37:42.281077  2391 layer_factory.hpp:74] Creating layer ip3_ip3_0_split
I0426 02:37:42.281088  2391 net.cpp:84] Creating Layer ip3_ip3_0_split
I0426 02:37:42.281095  2391 net.cpp:380] ip3_ip3_0_split <- ip3
I0426 02:37:42.281102  2391 net.cpp:338] ip3_ip3_0_split -> ip3_ip3_0_split_0
I0426 02:37:42.281113  2391 net.cpp:338] ip3_ip3_0_split -> ip3_ip3_0_split_1
I0426 02:37:42.281121  2391 net.cpp:113] Setting up ip3_ip3_0_split
I0426 02:37:42.281133  2391 net.cpp:120] Top shape: 256 121 (30976)
I0426 02:37:42.281141  2391 net.cpp:120] Top shape: 256 121 (30976)
I0426 02:37:42.281147  2391 layer_factory.hpp:74] Creating layer accuracy
I0426 02:37:42.281162  2391 net.cpp:84] Creating Layer accuracy
I0426 02:37:42.281167  2391 net.cpp:380] accuracy <- ip3_ip3_0_split_0
I0426 02:37:42.281174  2391 net.cpp:380] accuracy <- label_ndsb_1_split_0
I0426 02:37:42.281183  2391 net.cpp:338] accuracy -> accuracy
I0426 02:37:42.281190  2391 net.cpp:113] Setting up accuracy
…
