…
I0427 20:23:29.612752 20018 net.cpp:257] The NetState phase (0) differed from the phase (1) specified by a rule in layer accuracy
I0427 20:23:29.612916 20018 net.cpp:42] Initializing net from parameters: 
name: "SeaNet"
state {
  phase: TRAIN
}
layer {
  name: "ndsb"
  type: "Data"
  top: "data"
  top: "label"
  include {
    phase: TRAIN
  }
  transform_param {
    scale: 0.00390625
    mean_file: "../train_all_48_mean.binaryproto"
  }
  data_param {
    source: "/home/nitini/data_files/cross_val_files/cv_training_lmdb"
    batch_size: 256
    backend: LMDB
  }
}
layer {
  name: "conv1"
  type: "Convolution"
  bottom: "data"
  top: "conv1"
  param {
    lr_mult: 1
  }
  param {
    lr_mult: 2
  }
  convolution_param {
    num_output: 64
    kernel_size: 7
    stride: 1
    weight_filler {
      type: "xavier"
    }
    bias_filler {
      type: "constant"
    }
  }
}
layer {
  name: "reLU1"
  type: "ReLU"
  bottom: "conv1"
  top: "conv1"
}
layer {
  name: "conv2"
  type: "Convolution"
  bottom: "conv1"
  top: "conv2"
  param {
    lr_mult: 1
  }
  param {
    lr_mult: 2
  }
  convolution_param {
    num_output: 64
    kernel_size: 5
    stride: 1
    weight_filler {
      type: "xavier"
    }
    bias_filler {
      type: "constant"
    }
  }
}
layer {
  name: "reLU2"
  type: "ReLU"
  bottom: "conv2"
  top: "conv2"
}
layer {
  name: "conv3"
  type: "Convolution"
  bottom: "conv2"
  top: "conv3"
  param {
    lr_mult: 1
  }
  param {
    lr_mult: 2
  }
  convolution_param {
    num_output: 64
    kernel_size: 3
    stride: 1
    weight_filler {
      type: "xavier"
    }
    bias_filler {
      type: "constant"
    }
  }
}
layer {
  name: "reLU3"
  type: "ReLU"
  bottom: "conv3"
  top: "conv3"
}
layer {
  name: "pool1"
  type: "Pooling"
  bottom: "conv3"
  top: "pool1"
  pooling_param {
    pool: MAX
    kernel_size: 3
    stride: 3
  }
}
layer {
  name: "norm1"
  type: "LRN"
  bottom: "pool1"
  top: "norm1"
  lrn_param {
    local_size: 5
    alpha: 0.0001
    beta: 0.75
  }
}
layer {
  name: "ip1"
  type: "InnerProduct"
  bottom: "norm1"
  top: "ip1"
  param {
    lr_mult: 1
  }
  param {
    lr_mult: 2
  }
  inner_product_param {
    num_output: 256
    weight_filler {
      type: "xavier"
    }
    bias_filler {
      type: "constant"
    }
  }
}
layer {
  name: "dropout1"
  type: "Dropout"
  bottom: "ip1"
  top: "ip1"
  dropout_param {
    dropout_ratio: 0.7
  }
}
layer {
  name: "ip2"
  type: "InnerProduct"
  bottom: "ip1"
  top: "ip2"
  param {
    lr_mult: 1
  }
  param {
    lr_mult: 2
  }
  inner_product_param {
    num_output: 256
    weight_filler {
      type: "xavier"
      std: 0.01
    }
    bias_filler {
      type: "constant"
      value: 0
    }
  }
}
layer {
  name: "ip3"
  type: "InnerProduct"
  bottom: "ip2"
  top: "ip3"
  param {
    lr_mult: 1
  }
  param {
    lr_mult: 2
  }
  inner_product_param {
    num_output: 121
    weight_filler {
      type: "xavier"
      std: 0.01
    }
    bias_filler {
      type: "constant"
      value: 0
    }
  }
}
layer {
  name: "accuracy"
  type: "Accuracy"
  bottom: "ip3"
  bottom: "label"
  top: "accuracy"
  include {
    phase: TRAIN
  }
}
layer {
  name: "loss"
  type: "SoftmaxWithLoss"
  bottom: "ip3"
  bottom: "label"
  top: "loss"
}
I0427 20:23:29.613064 20018 layer_factory.hpp:74] Creating layer ndsb
I0427 20:23:29.613087 20018 net.cpp:84] Creating Layer ndsb
I0427 20:23:29.613104 20018 net.cpp:338] ndsb -> data
I0427 20:23:29.613164 20018 net.cpp:338] ndsb -> label
I0427 20:23:29.613183 20018 net.cpp:113] Setting up ndsb
I0427 20:23:29.684257 20018 db.cpp:34] Opened lmdb /home/nitini/data_files/cross_val_files/cv_training_lmdb
I0427 20:23:29.690018 20018 data_layer.cpp:67] output data size: 256,3,48,48
I0427 20:23:29.690037 20018 data_transformer.cpp:22] Loading mean file from: ../train_all_48_mean.binaryproto
I0427 20:23:29.712007 20018 net.cpp:120] Top shape: 256 3 48 48 (1769472)
I0427 20:23:29.712020 20018 net.cpp:120] Top shape: 256 (256)
I0427 20:23:29.712028 20018 layer_factory.hpp:74] Creating layer label_ndsb_1_split
I0427 20:23:29.712041 20018 net.cpp:84] Creating Layer label_ndsb_1_split
I0427 20:23:29.712050 20018 net.cpp:380] label_ndsb_1_split <- label
I0427 20:23:29.712069 20018 net.cpp:338] label_ndsb_1_split -> label_ndsb_1_split_0
I0427 20:23:29.712080 20018 net.cpp:338] label_ndsb_1_split -> label_ndsb_1_split_1
I0427 20:23:29.712088 20018 net.cpp:113] Setting up label_ndsb_1_split
I0427 20:23:29.712100 20018 net.cpp:120] Top shape: 256 (256)
I0427 20:23:29.712107 20018 net.cpp:120] Top shape: 256 (256)
I0427 20:23:29.712112 20018 layer_factory.hpp:74] Creating layer conv1
I0427 20:23:29.712124 20018 net.cpp:84] Creating Layer conv1
I0427 20:23:29.712131 20018 net.cpp:380] conv1 <- data
I0427 20:23:29.712138 20018 net.cpp:338] conv1 -> conv1
I0427 20:23:29.712149 20018 net.cpp:113] Setting up conv1
I0427 20:23:30.134651 20018 net.cpp:120] Top shape: 256 64 42 42 (28901376)
I0427 20:23:30.134696 20018 layer_factory.hpp:74] Creating layer reLU1
I0427 20:23:30.134712 20018 net.cpp:84] Creating Layer reLU1
I0427 20:23:30.134721 20018 net.cpp:380] reLU1 <- conv1
I0427 20:23:30.134731 20018 net.cpp:327] reLU1 -> conv1 (in-place)
I0427 20:23:30.134742 20018 net.cpp:113] Setting up reLU1
I0427 20:23:30.134899 20018 net.cpp:120] Top shape: 256 64 42 42 (28901376)
I0427 20:23:30.134912 20018 layer_factory.hpp:74] Creating layer conv2
I0427 20:23:30.134927 20018 net.cpp:84] Creating Layer conv2
I0427 20:23:30.134932 20018 net.cpp:380] conv2 <- conv1
I0427 20:23:30.134941 20018 net.cpp:338] conv2 -> conv2
I0427 20:23:30.134953 20018 net.cpp:113] Setting up conv2
I0427 20:23:30.136005 20018 net.cpp:120] Top shape: 256 64 38 38 (23658496)
I0427 20:23:30.136024 20018 layer_factory.hpp:74] Creating layer reLU2
I0427 20:23:30.136034 20018 net.cpp:84] Creating Layer reLU2
I0427 20:23:30.136040 20018 net.cpp:380] reLU2 <- conv2
I0427 20:23:30.136050 20018 net.cpp:327] reLU2 -> conv2 (in-place)
I0427 20:23:30.136059 20018 net.cpp:113] Setting up reLU2
I0427 20:23:30.136108 20018 net.cpp:120] Top shape: 256 64 38 38 (23658496)
I0427 20:23:30.136116 20018 layer_factory.hpp:74] Creating layer conv3
I0427 20:23:30.136127 20018 net.cpp:84] Creating Layer conv3
I0427 20:23:30.136133 20018 net.cpp:380] conv3 <- conv2
I0427 20:23:30.136142 20018 net.cpp:338] conv3 -> conv3
I0427 20:23:30.136152 20018 net.cpp:113] Setting up conv3
I0427 20:23:30.136654 20018 net.cpp:120] Top shape: 256 64 36 36 (21233664)
I0427 20:23:30.136672 20018 layer_factory.hpp:74] Creating layer reLU3
I0427 20:23:30.136682 20018 net.cpp:84] Creating Layer reLU3
I0427 20:23:30.136688 20018 net.cpp:380] reLU3 <- conv3
I0427 20:23:30.136697 20018 net.cpp:327] reLU3 -> conv3 (in-place)
I0427 20:23:30.136704 20018 net.cpp:113] Setting up reLU3
I0427 20:23:30.136756 20018 net.cpp:120] Top shape: 256 64 36 36 (21233664)
I0427 20:23:30.136765 20018 layer_factory.hpp:74] Creating layer pool1
I0427 20:23:30.136782 20018 net.cpp:84] Creating Layer pool1
I0427 20:23:30.136788 20018 net.cpp:380] pool1 <- conv3
I0427 20:23:30.136796 20018 net.cpp:338] pool1 -> pool1
I0427 20:23:30.136806 20018 net.cpp:113] Setting up pool1
I0427 20:23:30.136957 20018 net.cpp:120] Top shape: 256 64 12 12 (2359296)
I0427 20:23:30.136970 20018 layer_factory.hpp:74] Creating layer norm1
I0427 20:23:30.136981 20018 net.cpp:84] Creating Layer norm1
I0427 20:23:30.136988 20018 net.cpp:380] norm1 <- pool1
I0427 20:23:30.137001 20018 net.cpp:338] norm1 -> norm1
I0427 20:23:30.137039 20018 net.cpp:113] Setting up norm1
I0427 20:23:30.137053 20018 net.cpp:120] Top shape: 256 64 12 12 (2359296)
I0427 20:23:30.137059 20018 layer_factory.hpp:74] Creating layer ip1
I0427 20:23:30.137071 20018 net.cpp:84] Creating Layer ip1
I0427 20:23:30.137078 20018 net.cpp:380] ip1 <- norm1
I0427 20:23:30.137084 20018 net.cpp:338] ip1 -> ip1
I0427 20:23:30.137097 20018 net.cpp:113] Setting up ip1
I0427 20:23:30.158957 20018 net.cpp:120] Top shape: 256 256 (65536)
I0427 20:23:30.158977 20018 layer_factory.hpp:74] Creating layer dropout1
I0427 20:23:30.158990 20018 net.cpp:84] Creating Layer dropout1
I0427 20:23:30.158996 20018 net.cpp:380] dropout1 <- ip1
I0427 20:23:30.159004 20018 net.cpp:327] dropout1 -> ip1 (in-place)
I0427 20:23:30.159015 20018 net.cpp:113] Setting up dropout1
I0427 20:23:30.159028 20018 net.cpp:120] Top shape: 256 256 (65536)
I0427 20:23:30.159034 20018 layer_factory.hpp:74] Creating layer ip2
I0427 20:23:30.159044 20018 net.cpp:84] Creating Layer ip2
I0427 20:23:30.159049 20018 net.cpp:380] ip2 <- ip1
I0427 20:23:30.159057 20018 net.cpp:338] ip2 -> ip2
I0427 20:23:30.159066 20018 net.cpp:113] Setting up ip2
I0427 20:23:30.159544 20018 net.cpp:120] Top shape: 256 256 (65536)
I0427 20:23:30.159560 20018 layer_factory.hpp:74] Creating layer ip3
I0427 20:23:30.159581 20018 net.cpp:84] Creating Layer ip3
I0427 20:23:30.159590 20018 net.cpp:380] ip3 <- ip2
I0427 20:23:30.159597 20018 net.cpp:338] ip3 -> ip3
I0427 20:23:30.159607 20018 net.cpp:113] Setting up ip3
I0427 20:23:30.159842 20018 net.cpp:120] Top shape: 256 121 (30976)
I0427 20:23:30.159853 20018 layer_factory.hpp:74] Creating layer ip3_ip3_0_split
I0427 20:23:30.159863 20018 net.cpp:84] Creating Layer ip3_ip3_0_split
I0427 20:23:30.159868 20018 net.cpp:380] ip3_ip3_0_split <- ip3
I0427 20:23:30.159875 20018 net.cpp:338] ip3_ip3_0_split -> ip3_ip3_0_split_0
I0427 20:23:30.159884 20018 net.cpp:338] ip3_ip3_0_split -> ip3_ip3_0_split_1
I0427 20:23:30.159893 20018 net.cpp:113] Setting up ip3_ip3_0_split
I0427 20:23:30.159901 20018 net.cpp:120] Top shape: 256 121 (30976)
I0427 20:23:30.159909 20018 net.cpp:120] Top shape: 256 121 (30976)
I0427 20:23:30.159914 20018 layer_factory.hpp:74] Creating layer accuracy
I0427 20:23:30.159925 20018 net.cpp:84] Creating Layer accuracy
I0427 20:23:30.159931 20018 net.cpp:380] accuracy <- ip3_ip3_0_split_0
I0427 20:23:30.159937 20018 net.cpp:380] accuracy <- label_ndsb_1_split_0
I0427 20:23:30.159945 20018 net.cpp:338] accuracy -> accuracy
I0427 20:23:30.159953 20018 net.cpp:113] Setting up accuracy
…
