…
I0428 17:11:09.192287  2374 net.cpp:257] The NetState phase (0) differed from the phase (1) specified by a rule in layer accuracy
I0428 17:11:09.192528  2374 net.cpp:42] Initializing net from parameters: 
name: "SeaNet"
state {
  phase: TRAIN
}
layer {
  name: "ndsb"
  type: "Data"
  top: "data"
  top: "label"
  include {
    phase: TRAIN
  }
  transform_param {
    scale: 0.00390625
    mean_file: "../train_all_48_mean.binaryproto"
  }
  data_param {
    source: "/home/nitini/data_files/cross_val_files/cv_training_lmdb"
    batch_size: 256
    backend: LMDB
  }
}
layer {
  name: "conv1"
  type: "Convolution"
  bottom: "data"
  top: "conv1"
  param {
    lr_mult: 1
  }
  param {
    lr_mult: 2
  }
  convolution_param {
    num_output: 128
    kernel_size: 3
    stride: 2
    weight_filler {
      type: "xavier"
    }
    bias_filler {
      type: "constant"
    }
  }
}
layer {
  name: "reLU1"
  type: "ReLU"
  bottom: "conv1"
  top: "conv1"
}
layer {
  name: "norm1"
  type: "LRN"
  bottom: "conv1"
  top: "norm1"
  lrn_param {
    local_size: 5
    alpha: 0.0001
    beta: 0.75
  }
}
layer {
  name: "conv2"
  type: "Convolution"
  bottom: "norm1"
  top: "conv2"
  param {
    lr_mult: 1
  }
  param {
    lr_mult: 2
  }
  convolution_param {
    num_output: 128
    kernel_size: 3
    stride: 1
    weight_filler {
      type: "xavier"
    }
    bias_filler {
      type: "constant"
    }
  }
}
layer {
  name: "reLU2"
  type: "ReLU"
  bottom: "conv2"
  top: "conv2"
}
layer {
  name: "norm2"
  type: "LRN"
  bottom: "conv2"
  top: "norm2"
  lrn_param {
    local_size: 5
    alpha: 0.0001
    beta: 0.75
  }
}
layer {
  name: "dropout1"
  type: "Dropout"
  bottom: "norm2"
  top: "norm2"
  dropout_param {
    dropout_ratio: 0.5
  }
}
layer {
  name: "conv3"
  type: "Convolution"
  bottom: "norm2"
  top: "conv3"
  param {
    lr_mult: 1
  }
  param {
    lr_mult: 2
  }
  convolution_param {
    num_output: 256
    kernel_size: 2
    stride: 2
    weight_filler {
      type: "xavier"
    }
    bias_filler {
      type: "constant"
    }
  }
}
layer {
  name: "reLU3"
  type: "ReLU"
  bottom: "conv3"
  top: "conv3"
}
layer {
  name: "norm3"
  type: "LRN"
  bottom: "conv3"
  top: "norm3"
  lrn_param {
    local_size: 5
    alpha: 0.0001
    beta: 0.75
  }
}
layer {
  name: "conv4"
  type: "Convolution"
  bottom: "norm3"
  top: "conv4"
  param {
    lr_mult: 1
  }
  param {
    lr_mult: 2
  }
  convolution_param {
    num_output: 256
    kernel_size: 2
    stride: 1
    weight_filler {
      type: "xavier"
    }
    bias_filler {
      type: "constant"
    }
  }
}
layer {
  name: "pool1"
  type: "Pooling"
  bottom: "conv4"
  top: "pool1"
  pooling_param {
    pool: MAX
    kernel_size: 3
    stride: 3
  }
}
layer {
  name: "norm4"
  type: "LRN"
  bottom: "pool1"
  top: "norm4"
  lrn_param {
    local_size: 5
    alpha: 0.0001
    beta: 0.75
  }
}
layer {
  name: "dropout2"
  type: "Dropout"
  bottom: "norm4"
  top: "norm4"
  dropout_param {
    dropout_ratio: 0.5
  }
}
layer {
  name: "ip1"
  type: "InnerProduct"
  bottom: "norm4"
  top: "ip1"
  param {
    lr_mult: 1
  }
  param {
    lr_mult: 2
  }
  inner_product_param {
    num_output: 256
    weight_filler {
      type: "xavier"
    }
    bias_filler {
      type: "constant"
    }
  }
}
layer {
  name: "reLU4"
  type: "ReLU"
  bottom: "ip1"
  top: "ip1"
}
layer {
  name: "dropout3"
  type: "Dropout"
  bottom: "ip1"
  top: "ip1"
  dropout_param {
    dropout_ratio: 0.5
  }
}
layer {
  name: "ip2"
  type: "InnerProduct"
  bottom: "ip1"
  top: "ip2"
  param {
    lr_mult: 1
  }
  param {
    lr_mult: 2
  }
  inner_product_param {
    num_output: 256
    weight_filler {
      type: "xavier"
      std: 0.01
    }
    bias_filler {
      type: "constant"
      value: 0
    }
  }
}
layer {
  name: "reLU5"
  type: "ReLU"
  bottom: "ip2"
  top: "ip2"
}
layer {
  name: "dropout4"
  type: "Dropout"
  bottom: "ip2"
  top: "ip2"
  dropout_param {
    dropout_ratio: 0.5
  }
}
layer {
  name: "ip3"
  type: "InnerProduct"
  bottom: "ip2"
  top: "ip3"
  param {
    lr_mult: 1
  }
  param {
    lr_mult: 2
  }
  inner_product_param {
    num_output: 121
    weight_filler {
      type: "xavier"
      std: 0.01
    }
    bias_filler {
      type: "constant"
      value: 0
    }
  }
}
layer {
  name: "accuracy"
  type: "Accuracy"
  bottom: "ip3"
  bottom: "label"
  top: "accuracy"
  include {
    phase: TRAIN
  }
}
layer {
  name: "loss"
  type: "SoftmaxWithLoss"
  bottom: "ip3"
  bottom: "label"
  top: "loss"
}
I0428 17:11:09.192733  2374 layer_factory.hpp:74] Creating layer ndsb
I0428 17:11:10.902345  2374 net.cpp:84] Creating Layer ndsb
I0428 17:11:10.902387  2374 net.cpp:338] ndsb -> data
I0428 17:11:10.902429  2374 net.cpp:338] ndsb -> label
I0428 17:11:10.902451  2374 net.cpp:113] Setting up ndsb
I0428 17:11:10.987506  2374 db.cpp:34] Opened lmdb /home/nitini/data_files/cross_val_files/cv_training_lmdb
I0428 17:11:11.276649  2374 data_layer.cpp:67] output data size: 256,3,48,48
I0428 17:11:11.276684  2374 data_transformer.cpp:22] Loading mean file from: ../train_all_48_mean.binaryproto
I0428 17:11:11.543231  2374 net.cpp:120] Top shape: 256 3 48 48 (1769472)
I0428 17:11:11.543256  2374 net.cpp:120] Top shape: 256 (256)
I0428 17:11:11.543267  2374 layer_factory.hpp:74] Creating layer label_ndsb_1_split
I0428 17:11:11.543283  2374 net.cpp:84] Creating Layer label_ndsb_1_split
I0428 17:11:11.543293  2374 net.cpp:380] label_ndsb_1_split <- label
I0428 17:11:11.543310  2374 net.cpp:338] label_ndsb_1_split -> label_ndsb_1_split_0
I0428 17:11:11.543336  2374 net.cpp:338] label_ndsb_1_split -> label_ndsb_1_split_1
I0428 17:11:11.543346  2374 net.cpp:113] Setting up label_ndsb_1_split
I0428 17:11:11.543359  2374 net.cpp:120] Top shape: 256 (256)
I0428 17:11:11.543366  2374 net.cpp:120] Top shape: 256 (256)
I0428 17:11:11.543371  2374 layer_factory.hpp:74] Creating layer conv1
I0428 17:11:11.543388  2374 net.cpp:84] Creating Layer conv1
I0428 17:11:11.543395  2374 net.cpp:380] conv1 <- data
I0428 17:11:11.543402  2374 net.cpp:338] conv1 -> conv1
I0428 17:11:11.543414  2374 net.cpp:113] Setting up conv1
I0428 17:11:16.346269  2374 net.cpp:120] Top shape: 256 128 23 23 (17334272)
I0428 17:11:16.352442  2374 layer_factory.hpp:74] Creating layer reLU1
I0428 17:11:16.352460  2374 net.cpp:84] Creating Layer reLU1
I0428 17:11:16.352468  2374 net.cpp:380] reLU1 <- conv1
I0428 17:11:16.352478  2374 net.cpp:327] reLU1 -> conv1 (in-place)
I0428 17:11:16.352489  2374 net.cpp:113] Setting up reLU1
I0428 17:11:16.353338  2374 net.cpp:120] Top shape: 256 128 23 23 (17334272)
I0428 17:11:16.353351  2374 layer_factory.hpp:74] Creating layer norm1
I0428 17:11:16.353368  2374 net.cpp:84] Creating Layer norm1
I0428 17:11:16.353374  2374 net.cpp:380] norm1 <- conv1
I0428 17:11:16.353382  2374 net.cpp:338] norm1 -> norm1
I0428 17:11:16.353394  2374 net.cpp:113] Setting up norm1
I0428 17:11:16.353407  2374 net.cpp:120] Top shape: 256 128 23 23 (17334272)
I0428 17:11:16.353413  2374 layer_factory.hpp:74] Creating layer conv2
I0428 17:11:16.353425  2374 net.cpp:84] Creating Layer conv2
I0428 17:11:16.353430  2374 net.cpp:380] conv2 <- norm1
I0428 17:11:16.353438  2374 net.cpp:338] conv2 -> conv2
I0428 17:11:16.353448  2374 net.cpp:113] Setting up conv2
I0428 17:11:16.355026  2374 net.cpp:120] Top shape: 256 128 21 21 (14450688)
I0428 17:11:16.355047  2374 layer_factory.hpp:74] Creating layer reLU2
I0428 17:11:16.355057  2374 net.cpp:84] Creating Layer reLU2
I0428 17:11:16.355067  2374 net.cpp:380] reLU2 <- conv2
I0428 17:11:16.355103  2374 net.cpp:327] reLU2 -> conv2 (in-place)
I0428 17:11:16.355111  2374 net.cpp:113] Setting up reLU2
I0428 17:11:16.355164  2374 net.cpp:120] Top shape: 256 128 21 21 (14450688)
I0428 17:11:16.355172  2374 layer_factory.hpp:74] Creating layer norm2
I0428 17:11:16.355181  2374 net.cpp:84] Creating Layer norm2
I0428 17:11:16.355187  2374 net.cpp:380] norm2 <- conv2
I0428 17:11:16.355195  2374 net.cpp:338] norm2 -> norm2
I0428 17:11:16.355203  2374 net.cpp:113] Setting up norm2
I0428 17:11:16.355212  2374 net.cpp:120] Top shape: 256 128 21 21 (14450688)
I0428 17:11:16.355217  2374 layer_factory.hpp:74] Creating layer dropout1
I0428 17:11:16.355229  2374 net.cpp:84] Creating Layer dropout1
I0428 17:11:16.355236  2374 net.cpp:380] dropout1 <- norm2
I0428 17:11:16.355245  2374 net.cpp:327] dropout1 -> norm2 (in-place)
I0428 17:11:16.355255  2374 net.cpp:113] Setting up dropout1
I0428 17:11:16.355268  2374 net.cpp:120] Top shape: 256 128 21 21 (14450688)
I0428 17:11:16.355273  2374 layer_factory.hpp:74] Creating layer conv3
I0428 17:11:16.355283  2374 net.cpp:84] Creating Layer conv3
I0428 17:11:16.355288  2374 net.cpp:380] conv3 <- norm2
I0428 17:11:16.355298  2374 net.cpp:338] conv3 -> conv3
I0428 17:11:16.355307  2374 net.cpp:113] Setting up conv3
I0428 17:11:16.356745  2374 net.cpp:120] Top shape: 256 256 10 10 (6553600)
I0428 17:11:16.356762  2374 layer_factory.hpp:74] Creating layer reLU3
I0428 17:11:16.356772  2374 net.cpp:84] Creating Layer reLU3
I0428 17:11:16.356778  2374 net.cpp:380] reLU3 <- conv3
I0428 17:11:16.356788  2374 net.cpp:327] reLU3 -> conv3 (in-place)
I0428 17:11:16.356796  2374 net.cpp:113] Setting up reLU3
I0428 17:11:16.356851  2374 net.cpp:120] Top shape: 256 256 10 10 (6553600)
I0428 17:11:16.356859  2374 layer_factory.hpp:74] Creating layer norm3
I0428 17:11:16.356870  2374 net.cpp:84] Creating Layer norm3
I0428 17:11:16.356875  2374 net.cpp:380] norm3 <- conv3
I0428 17:11:16.356883  2374 net.cpp:338] norm3 -> norm3
I0428 17:11:16.356891  2374 net.cpp:113] Setting up norm3
I0428 17:11:16.356899  2374 net.cpp:120] Top shape: 256 256 10 10 (6553600)
I0428 17:11:16.356905  2374 layer_factory.hpp:74] Creating layer conv4
I0428 17:11:16.356916  2374 net.cpp:84] Creating Layer conv4
I0428 17:11:16.356922  2374 net.cpp:380] conv4 <- norm3
I0428 17:11:16.356931  2374 net.cpp:338] conv4 -> conv4
I0428 17:11:16.356940  2374 net.cpp:113] Setting up conv4
I0428 17:11:16.359392  2374 net.cpp:120] Top shape: 256 256 9 9 (5308416)
I0428 17:11:16.359410  2374 layer_factory.hpp:74] Creating layer pool1
I0428 17:11:16.359427  2374 net.cpp:84] Creating Layer pool1
I0428 17:11:16.359433  2374 net.cpp:380] pool1 <- conv4
I0428 17:11:16.359441  2374 net.cpp:338] pool1 -> pool1
I0428 17:11:16.359450  2374 net.cpp:113] Setting up pool1
I0428 17:11:16.359607  2374 net.cpp:120] Top shape: 256 256 3 3 (589824)
I0428 17:11:16.359619  2374 layer_factory.hpp:74] Creating layer norm4
I0428 17:11:16.359630  2374 net.cpp:84] Creating Layer norm4
I0428 17:11:16.359637  2374 net.cpp:380] norm4 <- pool1
I0428 17:11:16.359645  2374 net.cpp:338] norm4 -> norm4
I0428 17:11:16.359654  2374 net.cpp:113] Setting up norm4
I0428 17:11:16.359663  2374 net.cpp:120] Top shape: 256 256 3 3 (589824)
I0428 17:11:16.359669  2374 layer_factory.hpp:74] Creating layer dropout2
I0428 17:11:16.359676  2374 net.cpp:84] Creating Layer dropout2
I0428 17:11:16.359681  2374 net.cpp:380] dropout2 <- norm4
I0428 17:11:16.359688  2374 net.cpp:327] dropout2 -> norm4 (in-place)
I0428 17:11:16.359695  2374 net.cpp:113] Setting up dropout2
I0428 17:11:16.359704  2374 net.cpp:120] Top shape: 256 256 3 3 (589824)
I0428 17:11:16.359709  2374 layer_factory.hpp:74] Creating layer ip1
I0428 17:11:16.359727  2374 net.cpp:84] Creating Layer ip1
I0428 17:11:16.359735  2374 net.cpp:380] ip1 <- norm4
I0428 17:11:16.359745  2374 net.cpp:338] ip1 -> ip1
I0428 17:11:16.359755  2374 net.cpp:113] Setting up ip1
I0428 17:11:16.364723  2374 net.cpp:120] Top shape: 256 256 (65536)
I0428 17:11:16.364743  2374 layer_factory.hpp:74] Creating layer reLU4
I0428 17:11:16.364766  2374 net.cpp:84] Creating Layer reLU4
I0428 17:11:16.364773  2374 net.cpp:380] reLU4 <- ip1
I0428 17:11:16.364780  2374 net.cpp:327] reLU4 -> ip1 (in-place)
I0428 17:11:16.364789  2374 net.cpp:113] Setting up reLU4
I0428 17:11:16.364845  2374 net.cpp:120] Top shape: 256 256 (65536)
I0428 17:11:16.364855  2374 layer_factory.hpp:74] Creating layer dropout3
I0428 17:11:16.364862  2374 net.cpp:84] Creating Layer dropout3
I0428 17:11:16.364867  2374 net.cpp:380] dropout3 <- ip1
I0428 17:11:16.364876  2374 net.cpp:327] dropout3 -> ip1 (in-place)
I0428 17:11:16.364884  2374 net.cpp:113] Setting up dropout3
I0428 17:11:16.364892  2374 net.cpp:120] Top shape: 256 256 (65536)
I0428 17:11:16.364897  2374 layer_factory.hpp:74] Creating layer ip2
I0428 17:11:16.364907  2374 net.cpp:84] Creating Layer ip2
I0428 17:11:16.364912  2374 net.cpp:380] ip2 <- ip1
I0428 17:11:16.364920  2374 net.cpp:338] ip2 -> ip2
I0428 17:11:16.364929  2374 net.cpp:113] Setting up ip2
I0428 17:11:16.365495  2374 net.cpp:120] Top shape: 256 256 (65536)
I0428 17:11:16.365507  2374 layer_factory.hpp:74] Creating layer reLU5
I0428 17:11:16.365517  2374 net.cpp:84] Creating Layer reLU5
I0428 17:11:16.365524  2374 net.cpp:380] reLU5 <- ip2
I0428 17:11:16.365530  2374 net.cpp:327] reLU5 -> ip2 (in-place)
I0428 17:11:16.365537  2374 net.cpp:113] Setting up reLU5
I0428 17:11:16.365595  2374 net.cpp:120] Top shape: 256 256 (65536)
I0428 17:11:16.365603  2374 layer_factory.hpp:74] Creating layer dropout4
I0428 17:11:16.365612  2374 net.cpp:84] Creating Layer dropout4
I0428 17:11:16.365617  2374 net.cpp:380] dropout4 <- ip2
I0428 17:11:16.365627  2374 net.cpp:327] dropout4 -> ip2 (in-place)
I0428 17:11:16.365634  2374 net.cpp:113] Setting up dropout4
I0428 17:11:16.365643  2374 net.cpp:120] Top shape: 256 256 (65536)
I0428 17:11:16.365650  2374 layer_factory.hpp:74] Creating layer ip3
I0428 17:11:16.365659  2374 net.cpp:84] Creating Layer ip3
I0428 17:11:16.365664  2374 net.cpp:380] ip3 <- ip2
I0428 17:11:16.365674  2374 net.cpp:338] ip3 -> ip3
I0428 17:11:16.365684  2374 net.cpp:113] Setting up ip3
I0428 17:11:16.365952  2374 net.cpp:120] Top shape: 256 121 (30976)
I0428 17:11:16.365962  2374 layer_factory.hpp:74] Creating layer ip3_ip3_0_split
I0428 17:11:16.365972  2374 net.cpp:84] Creating Layer ip3_ip3_0_split
I0428 17:11:16.365978  2374 net.cpp:380] ip3_ip3_0_split <- ip3
I0428 17:11:16.365985  2374 net.cpp:338] ip3_ip3_0_split -> ip3_ip3_0_split_0
I0428 17:11:16.365995  2374 net.cpp:338] ip3_ip3_0_split -> ip3_ip3_0_split_1
I0428 17:11:16.366003  2374 net.cpp:113] Setting up ip3_ip3_0_split
I0428 17:11:16.366013  2374 net.cpp:120] Top shape: 256 121 (30976)
I0428 17:11:16.366019  2374 net.cpp:120] Top shape: 256 121 (30976)
I0428 17:11:16.366027  2374 layer_factory.hpp:74] Creating layer accuracy
I0428 17:11:16.366041  2374 net.cpp:84] Creating Layer accuracy
I0428 17:11:16.366049  2374 net.cpp:380] accuracy <- ip3_ip3_0_split_0
I0428 17:11:16.366055  2374 net.cpp:380] accuracy <- label_ndsb_1_split_0
I0428 17:11:16.366061  2374 net.cpp:338] accuracy -> accuracy
I0428 17:11:16.366070  2374 net.cpp:113] Setting up accuracy
…
