…
I0428 10:16:47.840517 17060 net.cpp:257] The NetState phase (0) differed from the phase (1) specified by a rule in layer accuracy
I0428 10:16:47.840723 17060 net.cpp:42] Initializing net from parameters: 
name: "SeaNet"
state {
  phase: TRAIN
}
layer {
  name: "ndsb"
  type: "Data"
  top: "data"
  top: "label"
  include {
    phase: TRAIN
  }
  transform_param {
    scale: 0.00390625
    mean_file: "../train_all_48_mean.binaryproto"
  }
  data_param {
    source: "/home/nitini/data_files/cross_val_files/cv_training_lmdb"
    batch_size: 256
    backend: LMDB
  }
}
layer {
  name: "conv1"
  type: "Convolution"
  bottom: "data"
  top: "conv1"
  param {
    lr_mult: 1
  }
  param {
    lr_mult: 2
  }
  convolution_param {
    num_output: 64
    kernel_size: 3
    stride: 2
    weight_filler {
      type: "xavier"
    }
    bias_filler {
      type: "constant"
    }
  }
}
layer {
  name: "reLU1"
  type: "ReLU"
  bottom: "conv1"
  top: "conv1"
}
layer {
  name: "norm1"
  type: "LRN"
  bottom: "conv1"
  top: "norm1"
  lrn_param {
    local_size: 5
    alpha: 0.0001
    beta: 0.75
  }
}
layer {
  name: "conv2"
  type: "Convolution"
  bottom: "norm1"
  top: "conv2"
  param {
    lr_mult: 1
  }
  param {
    lr_mult: 2
  }
  convolution_param {
    num_output: 64
    kernel_size: 3
    stride: 1
    weight_filler {
      type: "xavier"
    }
    bias_filler {
      type: "constant"
    }
  }
}
layer {
  name: "reLU2"
  type: "ReLU"
  bottom: "conv2"
  top: "conv2"
}
layer {
  name: "norm2"
  type: "LRN"
  bottom: "conv2"
  top: "norm2"
  lrn_param {
    local_size: 5
    alpha: 0.0001
    beta: 0.75
  }
}
layer {
  name: "conv3"
  type: "Convolution"
  bottom: "norm2"
  top: "conv3"
  param {
    lr_mult: 1
  }
  param {
    lr_mult: 2
  }
  convolution_param {
    num_output: 64
    kernel_size: 2
    stride: 1
    weight_filler {
      type: "xavier"
    }
    bias_filler {
      type: "constant"
    }
  }
}
layer {
  name: "reLU3"
  type: "ReLU"
  bottom: "conv3"
  top: "conv3"
}
layer {
  name: "pool1"
  type: "Pooling"
  bottom: "conv3"
  top: "pool1"
  pooling_param {
    pool: MAX
    kernel_size: 3
    stride: 3
  }
}
layer {
  name: "norm3"
  type: "LRN"
  bottom: "pool1"
  top: "norm3"
  lrn_param {
    local_size: 5
    alpha: 0.0001
    beta: 0.75
  }
}
layer {
  name: "ip1"
  type: "InnerProduct"
  bottom: "norm3"
  top: "ip1"
  param {
    lr_mult: 1
  }
  param {
    lr_mult: 2
  }
  inner_product_param {
    num_output: 256
    weight_filler {
      type: "xavier"
    }
    bias_filler {
      type: "constant"
    }
  }
}
layer {
  name: "reLU4"
  type: "ReLU"
  bottom: "ip1"
  top: "ip1"
}
layer {
  name: "dropout1"
  type: "Dropout"
  bottom: "ip1"
  top: "ip1"
  dropout_param {
    dropout_ratio: 0.5
  }
}
layer {
  name: "ip2"
  type: "InnerProduct"
  bottom: "ip1"
  top: "ip2"
  param {
    lr_mult: 1
  }
  param {
    lr_mult: 2
  }
  inner_product_param {
    num_output: 256
    weight_filler {
      type: "xavier"
      std: 0.01
    }
    bias_filler {
      type: "constant"
      value: 0
    }
  }
}
layer {
  name: "reLU5"
  type: "ReLU"
  bottom: "ip2"
  top: "ip2"
}
layer {
  name: "dropout2"
  type: "Dropout"
  bottom: "ip2"
  top: "ip2"
  dropout_param {
    dropout_ratio: 0.5
  }
}
layer {
  name: "ip3"
  type: "InnerProduct"
  bottom: "ip2"
  top: "ip3"
  param {
    lr_mult: 1
  }
  param {
    lr_mult: 2
  }
  inner_product_param {
    num_output: 121
    weight_filler {
      type: "xavier"
      std: 0.01
    }
    bias_filler {
      type: "constant"
      value: 0
    }
  }
}
layer {
  name: "accuracy"
  type: "Accuracy"
  bottom: "ip3"
  bottom: "label"
  top: "accuracy"
  include {
    phase: TRAIN
  }
}
layer {
  name: "loss"
  type: "SoftmaxWithLoss"
  bottom: "ip3"
  bottom: "label"
  top: "loss"
}
I0428 10:16:47.840931 17060 layer_factory.hpp:74] Creating layer ndsb
I0428 10:16:47.840958 17060 net.cpp:84] Creating Layer ndsb
I0428 10:16:47.840971 17060 net.cpp:338] ndsb -> data
I0428 10:16:47.841007 17060 net.cpp:338] ndsb -> label
I0428 10:16:47.841027 17060 net.cpp:113] Setting up ndsb
I0428 10:16:47.905256 17060 db.cpp:34] Opened lmdb /home/nitini/data_files/cross_val_files/cv_training_lmdb
I0428 10:16:47.911152 17060 data_layer.cpp:67] output data size: 256,3,48,48
I0428 10:16:47.911171 17060 data_transformer.cpp:22] Loading mean file from: ../train_all_48_mean.binaryproto
I0428 10:16:47.932270 17060 net.cpp:120] Top shape: 256 3 48 48 (1769472)
I0428 10:16:47.932284 17060 net.cpp:120] Top shape: 256 (256)
I0428 10:16:47.932296 17060 layer_factory.hpp:74] Creating layer label_ndsb_1_split
I0428 10:16:47.932309 17060 net.cpp:84] Creating Layer label_ndsb_1_split
I0428 10:16:47.932338 17060 net.cpp:380] label_ndsb_1_split <- label
I0428 10:16:47.932363 17060 net.cpp:338] label_ndsb_1_split -> label_ndsb_1_split_0
I0428 10:16:47.932375 17060 net.cpp:338] label_ndsb_1_split -> label_ndsb_1_split_1
I0428 10:16:47.932384 17060 net.cpp:113] Setting up label_ndsb_1_split
I0428 10:16:47.932396 17060 net.cpp:120] Top shape: 256 (256)
I0428 10:16:47.932404 17060 net.cpp:120] Top shape: 256 (256)
I0428 10:16:47.932410 17060 layer_factory.hpp:74] Creating layer conv1
I0428 10:16:47.932423 17060 net.cpp:84] Creating Layer conv1
I0428 10:16:47.932430 17060 net.cpp:380] conv1 <- data
I0428 10:16:47.932438 17060 net.cpp:338] conv1 -> conv1
I0428 10:16:47.932451 17060 net.cpp:113] Setting up conv1
I0428 10:16:48.341368 17060 net.cpp:120] Top shape: 256 64 23 23 (8667136)
I0428 10:16:48.341418 17060 layer_factory.hpp:74] Creating layer reLU1
I0428 10:16:48.341437 17060 net.cpp:84] Creating Layer reLU1
I0428 10:16:48.341446 17060 net.cpp:380] reLU1 <- conv1
I0428 10:16:48.341459 17060 net.cpp:327] reLU1 -> conv1 (in-place)
I0428 10:16:48.341470 17060 net.cpp:113] Setting up reLU1
I0428 10:16:48.341637 17060 net.cpp:120] Top shape: 256 64 23 23 (8667136)
I0428 10:16:48.341651 17060 layer_factory.hpp:74] Creating layer norm1
I0428 10:16:48.341668 17060 net.cpp:84] Creating Layer norm1
I0428 10:16:48.341675 17060 net.cpp:380] norm1 <- conv1
I0428 10:16:48.341683 17060 net.cpp:338] norm1 -> norm1
I0428 10:16:48.341696 17060 net.cpp:113] Setting up norm1
I0428 10:16:48.341708 17060 net.cpp:120] Top shape: 256 64 23 23 (8667136)
I0428 10:16:48.341716 17060 layer_factory.hpp:74] Creating layer conv2
I0428 10:16:48.341727 17060 net.cpp:84] Creating Layer conv2
I0428 10:16:48.341733 17060 net.cpp:380] conv2 <- norm1
I0428 10:16:48.341742 17060 net.cpp:338] conv2 -> conv2
I0428 10:16:48.341753 17060 net.cpp:113] Setting up conv2
I0428 10:16:48.342259 17060 net.cpp:120] Top shape: 256 64 21 21 (7225344)
I0428 10:16:48.342278 17060 layer_factory.hpp:74] Creating layer reLU2
I0428 10:16:48.342288 17060 net.cpp:84] Creating Layer reLU2
I0428 10:16:48.342294 17060 net.cpp:380] reLU2 <- conv2
I0428 10:16:48.342303 17060 net.cpp:327] reLU2 -> conv2 (in-place)
I0428 10:16:48.342310 17060 net.cpp:113] Setting up reLU2
I0428 10:16:48.342360 17060 net.cpp:120] Top shape: 256 64 21 21 (7225344)
I0428 10:16:48.342368 17060 layer_factory.hpp:74] Creating layer norm2
I0428 10:16:48.342377 17060 net.cpp:84] Creating Layer norm2
I0428 10:16:48.342383 17060 net.cpp:380] norm2 <- conv2
I0428 10:16:48.342391 17060 net.cpp:338] norm2 -> norm2
I0428 10:16:48.342401 17060 net.cpp:113] Setting up norm2
I0428 10:16:48.342409 17060 net.cpp:120] Top shape: 256 64 21 21 (7225344)
I0428 10:16:48.342416 17060 layer_factory.hpp:74] Creating layer conv3
I0428 10:16:48.342432 17060 net.cpp:84] Creating Layer conv3
I0428 10:16:48.342468 17060 net.cpp:380] conv3 <- norm2
I0428 10:16:48.342480 17060 net.cpp:338] conv3 -> conv3
I0428 10:16:48.342492 17060 net.cpp:113] Setting up conv3
I0428 10:16:48.342857 17060 net.cpp:120] Top shape: 256 64 20 20 (6553600)
I0428 10:16:48.342876 17060 layer_factory.hpp:74] Creating layer reLU3
I0428 10:16:48.342885 17060 net.cpp:84] Creating Layer reLU3
I0428 10:16:48.342891 17060 net.cpp:380] reLU3 <- conv3
I0428 10:16:48.342900 17060 net.cpp:327] reLU3 -> conv3 (in-place)
I0428 10:16:48.342907 17060 net.cpp:113] Setting up reLU3
I0428 10:16:48.342955 17060 net.cpp:120] Top shape: 256 64 20 20 (6553600)
I0428 10:16:48.342963 17060 layer_factory.hpp:74] Creating layer pool1
I0428 10:16:48.342982 17060 net.cpp:84] Creating Layer pool1
I0428 10:16:48.342988 17060 net.cpp:380] pool1 <- conv3
I0428 10:16:48.342995 17060 net.cpp:338] pool1 -> pool1
I0428 10:16:48.343004 17060 net.cpp:113] Setting up pool1
I0428 10:16:48.343166 17060 net.cpp:120] Top shape: 256 64 7 7 (802816)
I0428 10:16:48.343179 17060 layer_factory.hpp:74] Creating layer norm3
I0428 10:16:48.343189 17060 net.cpp:84] Creating Layer norm3
I0428 10:16:48.343195 17060 net.cpp:380] norm3 <- pool1
I0428 10:16:48.343204 17060 net.cpp:338] norm3 -> norm3
I0428 10:16:48.343212 17060 net.cpp:113] Setting up norm3
I0428 10:16:48.343221 17060 net.cpp:120] Top shape: 256 64 7 7 (802816)
I0428 10:16:48.343227 17060 layer_factory.hpp:74] Creating layer ip1
I0428 10:16:48.343238 17060 net.cpp:84] Creating Layer ip1
I0428 10:16:48.343245 17060 net.cpp:380] ip1 <- norm3
I0428 10:16:48.343253 17060 net.cpp:338] ip1 -> ip1
I0428 10:16:48.343266 17060 net.cpp:113] Setting up ip1
I0428 10:16:48.350531 17060 net.cpp:120] Top shape: 256 256 (65536)
I0428 10:16:48.350548 17060 layer_factory.hpp:74] Creating layer reLU4
I0428 10:16:48.350556 17060 net.cpp:84] Creating Layer reLU4
I0428 10:16:48.350563 17060 net.cpp:380] reLU4 <- ip1
I0428 10:16:48.350582 17060 net.cpp:327] reLU4 -> ip1 (in-place)
I0428 10:16:48.350592 17060 net.cpp:113] Setting up reLU4
I0428 10:16:48.350651 17060 net.cpp:120] Top shape: 256 256 (65536)
I0428 10:16:48.350661 17060 layer_factory.hpp:74] Creating layer dropout1
I0428 10:16:48.350673 17060 net.cpp:84] Creating Layer dropout1
I0428 10:16:48.350679 17060 net.cpp:380] dropout1 <- ip1
I0428 10:16:48.350687 17060 net.cpp:327] dropout1 -> ip1 (in-place)
I0428 10:16:48.350698 17060 net.cpp:113] Setting up dropout1
I0428 10:16:48.350710 17060 net.cpp:120] Top shape: 256 256 (65536)
I0428 10:16:48.350716 17060 layer_factory.hpp:74] Creating layer ip2
I0428 10:16:48.350726 17060 net.cpp:84] Creating Layer ip2
I0428 10:16:48.350733 17060 net.cpp:380] ip2 <- ip1
I0428 10:16:48.350739 17060 net.cpp:338] ip2 -> ip2
I0428 10:16:48.350749 17060 net.cpp:113] Setting up ip2
I0428 10:16:48.351219 17060 net.cpp:120] Top shape: 256 256 (65536)
I0428 10:16:48.351234 17060 layer_factory.hpp:74] Creating layer reLU5
I0428 10:16:48.351245 17060 net.cpp:84] Creating Layer reLU5
I0428 10:16:48.351251 17060 net.cpp:380] reLU5 <- ip2
I0428 10:16:48.351258 17060 net.cpp:327] reLU5 -> ip2 (in-place)
I0428 10:16:48.351265 17060 net.cpp:113] Setting up reLU5
I0428 10:16:48.351317 17060 net.cpp:120] Top shape: 256 256 (65536)
I0428 10:16:48.351326 17060 layer_factory.hpp:74] Creating layer dropout2
I0428 10:16:48.351335 17060 net.cpp:84] Creating Layer dropout2
I0428 10:16:48.351341 17060 net.cpp:380] dropout2 <- ip2
I0428 10:16:48.351347 17060 net.cpp:327] dropout2 -> ip2 (in-place)
I0428 10:16:48.351356 17060 net.cpp:113] Setting up dropout2
I0428 10:16:48.351363 17060 net.cpp:120] Top shape: 256 256 (65536)
I0428 10:16:48.351369 17060 layer_factory.hpp:74] Creating layer ip3
I0428 10:16:48.351378 17060 net.cpp:84] Creating Layer ip3
I0428 10:16:48.351383 17060 net.cpp:380] ip3 <- ip2
I0428 10:16:48.351392 17060 net.cpp:338] ip3 -> ip3
I0428 10:16:48.351400 17060 net.cpp:113] Setting up ip3
I0428 10:16:48.351644 17060 net.cpp:120] Top shape: 256 121 (30976)
I0428 10:16:48.351657 17060 layer_factory.hpp:74] Creating layer ip3_ip3_0_split
I0428 10:16:48.351691 17060 net.cpp:84] Creating Layer ip3_ip3_0_split
I0428 10:16:48.351697 17060 net.cpp:380] ip3_ip3_0_split <- ip3
I0428 10:16:48.351706 17060 net.cpp:338] ip3_ip3_0_split -> ip3_ip3_0_split_0
I0428 10:16:48.351716 17060 net.cpp:338] ip3_ip3_0_split -> ip3_ip3_0_split_1
I0428 10:16:48.351723 17060 net.cpp:113] Setting up ip3_ip3_0_split
I0428 10:16:48.351733 17060 net.cpp:120] Top shape: 256 121 (30976)
I0428 10:16:48.351739 17060 net.cpp:120] Top shape: 256 121 (30976)
I0428 10:16:48.351745 17060 layer_factory.hpp:74] Creating layer accuracy
I0428 10:16:48.351758 17060 net.cpp:84] Creating Layer accuracy
I0428 10:16:48.351764 17060 net.cpp:380] accuracy <- ip3_ip3_0_split_0
I0428 10:16:48.351771 17060 net.cpp:380] accuracy <- label_ndsb_1_split_0
I0428 10:16:48.351778 17060 net.cpp:338] accuracy -> accuracy
I0428 10:16:48.351789 17060 net.cpp:113] Setting up accuracy
…
