…
I0428 06:30:08.207586  2373 net.cpp:257] The NetState phase (0) differed from the phase (1) specified by a rule in layer accuracy
I0428 06:30:08.207799  2373 net.cpp:42] Initializing net from parameters: 
name: "SeaNet"
state {
  phase: TRAIN
}
layer {
  name: "ndsb"
  type: "Data"
  top: "data"
  top: "label"
  include {
    phase: TRAIN
  }
  transform_param {
    scale: 0.00390625
    mean_file: "../augmented_full_48_mean.binaryproto"
  }
  data_param {
    source: "/home/nitini/data_files/full_48_cross_val_files/cv_training_lmdb"
    batch_size: 256
    backend: LMDB
  }
}
layer {
  name: "conv1"
  type: "Convolution"
  bottom: "data"
  top: "conv1"
  param {
    lr_mult: 1
  }
  param {
    lr_mult: 2
  }
  convolution_param {
    num_output: 128
    kernel_size: 3
    stride: 2
    weight_filler {
      type: "xavier"
    }
    bias_filler {
      type: "constant"
    }
  }
}
layer {
  name: "reLU1"
  type: "ReLU"
  bottom: "conv1"
  top: "conv1"
}
layer {
  name: "norm1"
  type: "LRN"
  bottom: "conv1"
  top: "norm1"
  lrn_param {
    local_size: 5
    alpha: 0.0001
    beta: 0.75
  }
}
layer {
  name: "conv2"
  type: "Convolution"
  bottom: "norm1"
  top: "conv2"
  param {
    lr_mult: 1
  }
  param {
    lr_mult: 2
  }
  convolution_param {
    num_output: 128
    kernel_size: 3
    stride: 1
    weight_filler {
      type: "xavier"
    }
    bias_filler {
      type: "constant"
    }
  }
}
layer {
  name: "reLU2"
  type: "ReLU"
  bottom: "conv2"
  top: "conv2"
}
layer {
  name: "norm2"
  type: "LRN"
  bottom: "conv2"
  top: "norm2"
  lrn_param {
    local_size: 5
    alpha: 0.0001
    beta: 0.75
  }
}
layer {
  name: "dropout1"
  type: "Dropout"
  bottom: "norm2"
  top: "norm2"
  dropout_param {
    dropout_ratio: 0.5
  }
}
layer {
  name: "conv3"
  type: "Convolution"
  bottom: "norm2"
  top: "conv3"
  param {
    lr_mult: 1
  }
  param {
    lr_mult: 2
  }
  convolution_param {
    num_output: 256
    kernel_size: 2
    stride: 2
    weight_filler {
      type: "xavier"
    }
    bias_filler {
      type: "constant"
    }
  }
}
layer {
  name: "reLU3"
  type: "ReLU"
  bottom: "conv3"
  top: "conv3"
}
layer {
  name: "norm3"
  type: "LRN"
  bottom: "conv3"
  top: "norm3"
  lrn_param {
    local_size: 5
    alpha: 0.0001
    beta: 0.75
  }
}
layer {
  name: "conv4"
  type: "Convolution"
  bottom: "norm3"
  top: "conv4"
  param {
    lr_mult: 1
  }
  param {
    lr_mult: 2
  }
  convolution_param {
    num_output: 256
    kernel_size: 2
    stride: 1
    weight_filler {
      type: "xavier"
    }
    bias_filler {
      type: "constant"
    }
  }
}
layer {
  name: "pool1"
  type: "Pooling"
  bottom: "conv4"
  top: "pool1"
  pooling_param {
    pool: MAX
    kernel_size: 3
    stride: 3
  }
}
layer {
  name: "norm4"
  type: "LRN"
  bottom: "pool1"
  top: "norm4"
  lrn_param {
    local_size: 5
    alpha: 0.0001
    beta: 0.75
  }
}
layer {
  name: "dropout2"
  type: "Dropout"
  bottom: "norm4"
  top: "norm4"
  dropout_param {
    dropout_ratio: 0.5
  }
}
layer {
  name: "ip1"
  type: "InnerProduct"
  bottom: "norm4"
  top: "ip1"
  param {
    lr_mult: 1
  }
  param {
    lr_mult: 2
  }
  inner_product_param {
    num_output: 256
    weight_filler {
      type: "xavier"
    }
    bias_filler {
      type: "constant"
    }
  }
}
layer {
  name: "reLU4"
  type: "ReLU"
  bottom: "ip1"
  top: "ip1"
}
layer {
  name: "dropout3"
  type: "Dropout"
  bottom: "ip1"
  top: "ip1"
  dropout_param {
    dropout_ratio: 0.5
  }
}
layer {
  name: "ip2"
  type: "InnerProduct"
  bottom: "ip1"
  top: "ip2"
  param {
    lr_mult: 1
  }
  param {
    lr_mult: 2
  }
  inner_product_param {
    num_output: 256
    weight_filler {
      type: "xavier"
      std: 0.01
    }
    bias_filler {
      type: "constant"
      value: 0
    }
  }
}
layer {
  name: "reLU5"
  type: "ReLU"
  bottom: "ip2"
  top: "ip2"
}
layer {
  name: "dropout4"
  type: "Dropout"
  bottom: "ip2"
  top: "ip2"
  dropout_param {
    dropout_ratio: 0.5
  }
}
layer {
  name: "ip3"
  type: "InnerProduct"
  bottom: "ip2"
  top: "ip3"
  param {
    lr_mult: 1
  }
  param {
    lr_mult: 2
  }
  inner_product_param {
    num_output: 121
    weight_filler {
      type: "xavier"
      std: 0.01
    }
    bias_filler {
      type: "constant"
      value: 0
    }
  }
}
layer {
  name: "accuracy"
  type: "Accuracy"
  bottom: "ip3"
  bottom: "label"
  top: "accuracy"
  include {
    phase: TRAIN
  }
}
layer {
  name: "loss"
  type: "SoftmaxWithLoss"
  bottom: "ip3"
  bottom: "label"
  top: "loss"
}
I0428 06:30:08.208009  2373 layer_factory.hpp:74] Creating layer ndsb
I0428 06:30:08.208997  2373 net.cpp:84] Creating Layer ndsb
I0428 06:30:08.209015  2373 net.cpp:338] ndsb -> data
I0428 06:30:08.209051  2373 net.cpp:338] ndsb -> label
I0428 06:30:08.209071  2373 net.cpp:113] Setting up ndsb
I0428 06:30:08.332233  2373 db.cpp:34] Opened lmdb /home/nitini/data_files/full_48_cross_val_files/cv_training_lmdb
I0428 06:30:09.168723  2373 data_layer.cpp:67] output data size: 256,3,48,48
I0428 06:30:09.168748  2373 data_transformer.cpp:22] Loading mean file from: ../augmented_full_48_mean.binaryproto
I0428 06:30:09.662391  2373 net.cpp:120] Top shape: 256 3 48 48 (1769472)
I0428 06:30:09.662410  2373 net.cpp:120] Top shape: 256 (256)
I0428 06:30:09.662421  2373 layer_factory.hpp:74] Creating layer label_ndsb_1_split
I0428 06:30:09.662438  2373 net.cpp:84] Creating Layer label_ndsb_1_split
I0428 06:30:09.662448  2373 net.cpp:380] label_ndsb_1_split <- label
I0428 06:30:09.662467  2373 net.cpp:338] label_ndsb_1_split -> label_ndsb_1_split_0
I0428 06:30:09.662480  2373 net.cpp:338] label_ndsb_1_split -> label_ndsb_1_split_1
I0428 06:30:09.662489  2373 net.cpp:113] Setting up label_ndsb_1_split
I0428 06:30:09.662503  2373 net.cpp:120] Top shape: 256 (256)
I0428 06:30:09.662508  2373 net.cpp:120] Top shape: 256 (256)
I0428 06:30:09.662513  2373 layer_factory.hpp:74] Creating layer conv1
I0428 06:30:09.662531  2373 net.cpp:84] Creating Layer conv1
I0428 06:30:09.662538  2373 net.cpp:380] conv1 <- data
I0428 06:30:09.662545  2373 net.cpp:338] conv1 -> conv1
I0428 06:30:09.662559  2373 net.cpp:113] Setting up conv1
I0428 06:30:13.304865  2373 net.cpp:120] Top shape: 256 128 23 23 (17334272)
I0428 06:30:13.304914  2373 layer_factory.hpp:74] Creating layer reLU1
I0428 06:30:13.304932  2373 net.cpp:84] Creating Layer reLU1
I0428 06:30:13.304939  2373 net.cpp:380] reLU1 <- conv1
I0428 06:30:13.304951  2373 net.cpp:327] reLU1 -> conv1 (in-place)
I0428 06:30:13.304962  2373 net.cpp:113] Setting up reLU1
I0428 06:30:13.305579  2373 net.cpp:120] Top shape: 256 128 23 23 (17334272)
I0428 06:30:13.305593  2373 layer_factory.hpp:74] Creating layer norm1
I0428 06:30:13.305609  2373 net.cpp:84] Creating Layer norm1
I0428 06:30:13.305615  2373 net.cpp:380] norm1 <- conv1
I0428 06:30:13.305624  2373 net.cpp:338] norm1 -> norm1
I0428 06:30:13.305636  2373 net.cpp:113] Setting up norm1
I0428 06:30:13.305649  2373 net.cpp:120] Top shape: 256 128 23 23 (17334272)
I0428 06:30:13.305655  2373 layer_factory.hpp:74] Creating layer conv2
I0428 06:30:13.305665  2373 net.cpp:84] Creating Layer conv2
I0428 06:30:13.305671  2373 net.cpp:380] conv2 <- norm1
I0428 06:30:13.305680  2373 net.cpp:338] conv2 -> conv2
I0428 06:30:13.305690  2373 net.cpp:113] Setting up conv2
I0428 06:30:13.307065  2373 net.cpp:120] Top shape: 256 128 21 21 (14450688)
I0428 06:30:13.307085  2373 layer_factory.hpp:74] Creating layer reLU2
I0428 06:30:13.307099  2373 net.cpp:84] Creating Layer reLU2
I0428 06:30:13.307132  2373 net.cpp:380] reLU2 <- conv2
I0428 06:30:13.307142  2373 net.cpp:327] reLU2 -> conv2 (in-place)
I0428 06:30:13.307149  2373 net.cpp:113] Setting up reLU2
I0428 06:30:13.307199  2373 net.cpp:120] Top shape: 256 128 21 21 (14450688)
I0428 06:30:13.307209  2373 layer_factory.hpp:74] Creating layer norm2
I0428 06:30:13.307216  2373 net.cpp:84] Creating Layer norm2
I0428 06:30:13.307222  2373 net.cpp:380] norm2 <- conv2
I0428 06:30:13.307229  2373 net.cpp:338] norm2 -> norm2
I0428 06:30:13.307238  2373 net.cpp:113] Setting up norm2
I0428 06:30:13.307247  2373 net.cpp:120] Top shape: 256 128 21 21 (14450688)
I0428 06:30:13.307252  2373 layer_factory.hpp:74] Creating layer dropout1
I0428 06:30:13.307265  2373 net.cpp:84] Creating Layer dropout1
I0428 06:30:13.307271  2373 net.cpp:380] dropout1 <- norm2
I0428 06:30:13.307278  2373 net.cpp:327] dropout1 -> norm2 (in-place)
I0428 06:30:13.307288  2373 net.cpp:113] Setting up dropout1
I0428 06:30:13.307301  2373 net.cpp:120] Top shape: 256 128 21 21 (14450688)
I0428 06:30:13.307307  2373 layer_factory.hpp:74] Creating layer conv3
I0428 06:30:13.307314  2373 net.cpp:84] Creating Layer conv3
I0428 06:30:13.307319  2373 net.cpp:380] conv3 <- norm2
I0428 06:30:13.307327  2373 net.cpp:338] conv3 -> conv3
I0428 06:30:13.307337  2373 net.cpp:113] Setting up conv3
I0428 06:30:13.308711  2373 net.cpp:120] Top shape: 256 256 10 10 (6553600)
I0428 06:30:13.308729  2373 layer_factory.hpp:74] Creating layer reLU3
I0428 06:30:13.308739  2373 net.cpp:84] Creating Layer reLU3
I0428 06:30:13.308744  2373 net.cpp:380] reLU3 <- conv3
I0428 06:30:13.308753  2373 net.cpp:327] reLU3 -> conv3 (in-place)
I0428 06:30:13.308760  2373 net.cpp:113] Setting up reLU3
I0428 06:30:13.308807  2373 net.cpp:120] Top shape: 256 256 10 10 (6553600)
I0428 06:30:13.308815  2373 layer_factory.hpp:74] Creating layer norm3
I0428 06:30:13.308823  2373 net.cpp:84] Creating Layer norm3
I0428 06:30:13.308830  2373 net.cpp:380] norm3 <- conv3
I0428 06:30:13.308836  2373 net.cpp:338] norm3 -> norm3
I0428 06:30:13.308845  2373 net.cpp:113] Setting up norm3
I0428 06:30:13.308853  2373 net.cpp:120] Top shape: 256 256 10 10 (6553600)
I0428 06:30:13.308858  2373 layer_factory.hpp:74] Creating layer conv4
I0428 06:30:13.308867  2373 net.cpp:84] Creating Layer conv4
I0428 06:30:13.308872  2373 net.cpp:380] conv4 <- norm3
I0428 06:30:13.308881  2373 net.cpp:338] conv4 -> conv4
I0428 06:30:13.308889  2373 net.cpp:113] Setting up conv4
I0428 06:30:13.311414  2373 net.cpp:120] Top shape: 256 256 9 9 (5308416)
I0428 06:30:13.311431  2373 layer_factory.hpp:74] Creating layer pool1
I0428 06:30:13.311450  2373 net.cpp:84] Creating Layer pool1
I0428 06:30:13.311456  2373 net.cpp:380] pool1 <- conv4
I0428 06:30:13.311466  2373 net.cpp:338] pool1 -> pool1
I0428 06:30:13.311475  2373 net.cpp:113] Setting up pool1
I0428 06:30:13.311657  2373 net.cpp:120] Top shape: 256 256 3 3 (589824)
I0428 06:30:13.311672  2373 layer_factory.hpp:74] Creating layer norm4
I0428 06:30:13.311683  2373 net.cpp:84] Creating Layer norm4
I0428 06:30:13.311689  2373 net.cpp:380] norm4 <- pool1
I0428 06:30:13.311697  2373 net.cpp:338] norm4 -> norm4
I0428 06:30:13.311707  2373 net.cpp:113] Setting up norm4
I0428 06:30:13.311714  2373 net.cpp:120] Top shape: 256 256 3 3 (589824)
I0428 06:30:13.311723  2373 layer_factory.hpp:74] Creating layer dropout2
I0428 06:30:13.311732  2373 net.cpp:84] Creating Layer dropout2
I0428 06:30:13.311736  2373 net.cpp:380] dropout2 <- norm4
I0428 06:30:13.311745  2373 net.cpp:327] dropout2 -> norm4 (in-place)
I0428 06:30:13.311753  2373 net.cpp:113] Setting up dropout2
I0428 06:30:13.311761  2373 net.cpp:120] Top shape: 256 256 3 3 (589824)
I0428 06:30:13.311766  2373 layer_factory.hpp:74] Creating layer ip1
I0428 06:30:13.311780  2373 net.cpp:84] Creating Layer ip1
I0428 06:30:13.311785  2373 net.cpp:380] ip1 <- norm4
I0428 06:30:13.311795  2373 net.cpp:338] ip1 -> ip1
I0428 06:30:13.311807  2373 net.cpp:113] Setting up ip1
I0428 06:30:13.316797  2373 net.cpp:120] Top shape: 256 256 (65536)
I0428 06:30:13.316833  2373 layer_factory.hpp:74] Creating layer reLU4
I0428 06:30:13.316843  2373 net.cpp:84] Creating Layer reLU4
I0428 06:30:13.316849  2373 net.cpp:380] reLU4 <- ip1
I0428 06:30:13.316856  2373 net.cpp:327] reLU4 -> ip1 (in-place)
I0428 06:30:13.316864  2373 net.cpp:113] Setting up reLU4
I0428 06:30:13.316926  2373 net.cpp:120] Top shape: 256 256 (65536)
I0428 06:30:13.316936  2373 layer_factory.hpp:74] Creating layer dropout3
I0428 06:30:13.316946  2373 net.cpp:84] Creating Layer dropout3
I0428 06:30:13.316951  2373 net.cpp:380] dropout3 <- ip1
I0428 06:30:13.316957  2373 net.cpp:327] dropout3 -> ip1 (in-place)
I0428 06:30:13.316965  2373 net.cpp:113] Setting up dropout3
I0428 06:30:13.316978  2373 net.cpp:120] Top shape: 256 256 (65536)
I0428 06:30:13.316984  2373 layer_factory.hpp:74] Creating layer ip2
I0428 06:30:13.316993  2373 net.cpp:84] Creating Layer ip2
I0428 06:30:13.316998  2373 net.cpp:380] ip2 <- ip1
I0428 06:30:13.317005  2373 net.cpp:338] ip2 -> ip2
I0428 06:30:13.317014  2373 net.cpp:113] Setting up ip2
I0428 06:30:13.317595  2373 net.cpp:120] Top shape: 256 256 (65536)
I0428 06:30:13.317608  2373 layer_factory.hpp:74] Creating layer reLU5
I0428 06:30:13.317616  2373 net.cpp:84] Creating Layer reLU5
I0428 06:30:13.317622  2373 net.cpp:380] reLU5 <- ip2
I0428 06:30:13.317628  2373 net.cpp:327] reLU5 -> ip2 (in-place)
I0428 06:30:13.317637  2373 net.cpp:113] Setting up reLU5
I0428 06:30:13.317699  2373 net.cpp:120] Top shape: 256 256 (65536)
I0428 06:30:13.317708  2373 layer_factory.hpp:74] Creating layer dropout4
I0428 06:30:13.317719  2373 net.cpp:84] Creating Layer dropout4
I0428 06:30:13.317725  2373 net.cpp:380] dropout4 <- ip2
I0428 06:30:13.317733  2373 net.cpp:327] dropout4 -> ip2 (in-place)
I0428 06:30:13.317739  2373 net.cpp:113] Setting up dropout4
I0428 06:30:13.317747  2373 net.cpp:120] Top shape: 256 256 (65536)
I0428 06:30:13.317752  2373 layer_factory.hpp:74] Creating layer ip3
I0428 06:30:13.317764  2373 net.cpp:84] Creating Layer ip3
I0428 06:30:13.317770  2373 net.cpp:380] ip3 <- ip2
I0428 06:30:13.317776  2373 net.cpp:338] ip3 -> ip3
I0428 06:30:13.317785  2373 net.cpp:113] Setting up ip3
I0428 06:30:13.318065  2373 net.cpp:120] Top shape: 256 121 (30976)
I0428 06:30:13.318078  2373 layer_factory.hpp:74] Creating layer ip3_ip3_0_split
I0428 06:30:13.318085  2373 net.cpp:84] Creating Layer ip3_ip3_0_split
I0428 06:30:13.318090  2373 net.cpp:380] ip3_ip3_0_split <- ip3
I0428 06:30:13.318099  2373 net.cpp:338] ip3_ip3_0_split -> ip3_ip3_0_split_0
I0428 06:30:13.318109  2373 net.cpp:338] ip3_ip3_0_split -> ip3_ip3_0_split_1
I0428 06:30:13.318116  2373 net.cpp:113] Setting up ip3_ip3_0_split
I0428 06:30:13.318127  2373 net.cpp:120] Top shape: 256 121 (30976)
I0428 06:30:13.318135  2373 net.cpp:120] Top shape: 256 121 (30976)
I0428 06:30:13.318140  2373 layer_factory.hpp:74] Creating layer accuracy
I0428 06:30:13.318151  2373 net.cpp:84] Creating Layer accuracy
I0428 06:30:13.318157  2373 net.cpp:380] accuracy <- ip3_ip3_0_split_0
I0428 06:30:13.318163  2373 net.cpp:380] accuracy <- label_ndsb_1_split_0
I0428 06:30:13.318173  2373 net.cpp:338] accuracy -> accuracy
I0428 06:30:13.318181  2373 net.cpp:113] Setting up accuracy
…
