…
I0428 08:06:17.525137 22467 net.cpp:257] The NetState phase (0) differed from the phase (1) specified by a rule in layer ndsb
I0428 08:06:17.525179 22467 net.cpp:257] The NetState phase (0) differed from the phase (1) specified by a rule in layer accuracy
I0428 08:06:17.525394 22467 net.cpp:42] Initializing net from parameters: 
name: "SeaNet"
state {
  phase: TRAIN
}
layer {
  name: "ndsb"
  type: "Data"
  top: "data"
  top: "label"
  include {
    phase: TRAIN
  }
  transform_param {
    scale: 0.00390625
    mean_file: "../train_all_48_mean.binaryproto"
  }
  data_param {
    source: "/home/nitini/data_files/all_train_lmdb"
    batch_size: 256
    backend: LMDB
  }
}
layer {
  name: "conv1"
  type: "Convolution"
  bottom: "data"
  top: "conv1"
  param {
    lr_mult: 1
  }
  param {
    lr_mult: 2
  }
  convolution_param {
    num_output: 128
    kernel_size: 3
    stride: 2
    weight_filler {
      type: "xavier"
    }
    bias_filler {
      type: "constant"
    }
  }
}
layer {
  name: "reLU1"
  type: "ReLU"
  bottom: "conv1"
  top: "conv1"
}
layer {
  name: "norm1"
  type: "LRN"
  bottom: "conv1"
  top: "norm1"
  lrn_param {
    local_size: 5
    alpha: 0.0001
    beta: 0.75
  }
}
layer {
  name: "conv2"
  type: "Convolution"
  bottom: "norm1"
  top: "conv2"
  param {
    lr_mult: 1
  }
  param {
    lr_mult: 2
  }
  convolution_param {
    num_output: 128
    kernel_size: 3
    stride: 1
    weight_filler {
      type: "xavier"
    }
    bias_filler {
      type: "constant"
    }
  }
}
layer {
  name: "reLU2"
  type: "ReLU"
  bottom: "conv2"
  top: "conv2"
}
layer {
  name: "norm2"
  type: "LRN"
  bottom: "conv2"
  top: "norm2"
  lrn_param {
    local_size: 5
    alpha: 0.0001
    beta: 0.75
  }
}
layer {
  name: "dropout1"
  type: "Dropout"
  bottom: "norm2"
  top: "norm2"
  dropout_param {
    dropout_ratio: 0.5
  }
}
layer {
  name: "conv3"
  type: "Convolution"
  bottom: "norm2"
  top: "conv3"
  param {
    lr_mult: 1
  }
  param {
    lr_mult: 2
  }
  convolution_param {
    num_output: 256
    kernel_size: 2
    stride: 2
    weight_filler {
      type: "xavier"
    }
    bias_filler {
      type: "constant"
    }
  }
}
layer {
  name: "reLU3"
  type: "ReLU"
  bottom: "conv3"
  top: "conv3"
}
layer {
  name: "norm3"
  type: "LRN"
  bottom: "conv3"
  top: "norm3"
  lrn_param {
    local_size: 5
    alpha: 0.0001
    beta: 0.75
  }
}
layer {
  name: "conv4"
  type: "Convolution"
  bottom: "norm3"
  top: "conv4"
  param {
    lr_mult: 1
  }
  param {
    lr_mult: 2
  }
  convolution_param {
    num_output: 256
    kernel_size: 2
    stride: 1
    weight_filler {
      type: "xavier"
    }
    bias_filler {
      type: "constant"
    }
  }
}
layer {
  name: "pool1"
  type: "Pooling"
  bottom: "conv4"
  top: "pool1"
  pooling_param {
    pool: MAX
    kernel_size: 3
    stride: 3
  }
}
layer {
  name: "norm4"
  type: "LRN"
  bottom: "pool1"
  top: "norm4"
  lrn_param {
    local_size: 5
    alpha: 0.0001
    beta: 0.75
  }
}
layer {
  name: "dropout2"
  type: "Dropout"
  bottom: "norm4"
  top: "norm4"
  dropout_param {
    dropout_ratio: 0.5
  }
}
layer {
  name: "ip1"
  type: "InnerProduct"
  bottom: "norm4"
  top: "ip1"
  param {
    lr_mult: 1
  }
  param {
    lr_mult: 2
  }
  inner_product_param {
    num_output: 256
    weight_filler {
      type: "xavier"
    }
    bias_filler {
      type: "constant"
    }
  }
}
layer {
  name: "reLU4"
  type: "ReLU"
  bottom: "ip1"
  top: "ip1"
}
layer {
  name: "dropout3"
  type: "Dropout"
  bottom: "ip1"
  top: "ip1"
  dropout_param {
    dropout_ratio: 0.5
  }
}
layer {
  name: "ip2"
  type: "InnerProduct"
  bottom: "ip1"
  top: "ip2"
  param {
    lr_mult: 1
  }
  param {
    lr_mult: 2
  }
  inner_product_param {
    num_output: 256
    weight_filler {
      type: "xavier"
      std: 0.01
    }
    bias_filler {
      type: "constant"
      value: 0
    }
  }
}
layer {
  name: "reLU5"
  type: "ReLU"
  bottom: "ip2"
  top: "ip2"
}
layer {
  name: "dropout4"
  type: "Dropout"
  bottom: "ip2"
  top: "ip2"
  dropout_param {
    dropout_ratio: 0.5
  }
}
layer {
  name: "ip3"
  type: "InnerProduct"
  bottom: "ip2"
  top: "ip3"
  param {
    lr_mult: 1
  }
  param {
    lr_mult: 2
  }
  inner_product_param {
    num_output: 121
    weight_filler {
      type: "xavier"
      std: 0.01
    }
    bias_filler {
      type: "constant"
      value: 0
    }
  }
}
layer {
  name: "accuracy"
  type: "Accuracy"
  bottom: "ip3"
  bottom: "label"
  top: "accuracy"
  include {
    phase: TRAIN
  }
}
layer {
  name: "loss"
  type: "SoftmaxWithLoss"
  bottom: "ip3"
  bottom: "label"
  top: "loss"
}
I0428 08:06:17.525634 22467 layer_factory.hpp:74] Creating layer ndsb
I0428 08:06:17.525661 22467 net.cpp:84] Creating Layer ndsb
I0428 08:06:17.525674 22467 net.cpp:338] ndsb -> data
I0428 08:06:17.525712 22467 net.cpp:338] ndsb -> label
I0428 08:06:17.525730 22467 net.cpp:113] Setting up ndsb
I0428 08:06:17.595938 22467 db.cpp:34] Opened lmdb /home/nitini/data_files/all_train_lmdb
I0428 08:06:17.601608 22467 data_layer.cpp:67] output data size: 256,3,48,48
I0428 08:06:17.601626 22467 data_transformer.cpp:22] Loading mean file from: ../train_all_48_mean.binaryproto
I0428 08:06:17.624099 22467 net.cpp:120] Top shape: 256 3 48 48 (1769472)
I0428 08:06:17.624114 22467 net.cpp:120] Top shape: 256 (256)
I0428 08:06:17.624122 22467 layer_factory.hpp:74] Creating layer label_ndsb_1_split
I0428 08:06:17.624135 22467 net.cpp:84] Creating Layer label_ndsb_1_split
I0428 08:06:17.624145 22467 net.cpp:380] label_ndsb_1_split <- label
I0428 08:06:17.624167 22467 net.cpp:338] label_ndsb_1_split -> label_ndsb_1_split_0
I0428 08:06:17.624179 22467 net.cpp:338] label_ndsb_1_split -> label_ndsb_1_split_1
I0428 08:06:17.624188 22467 net.cpp:113] Setting up label_ndsb_1_split
I0428 08:06:17.624200 22467 net.cpp:120] Top shape: 256 (256)
I0428 08:06:17.624207 22467 net.cpp:120] Top shape: 256 (256)
I0428 08:06:17.624212 22467 layer_factory.hpp:74] Creating layer conv1
I0428 08:06:17.624227 22467 net.cpp:84] Creating Layer conv1
I0428 08:06:17.624233 22467 net.cpp:380] conv1 <- data
I0428 08:06:17.624240 22467 net.cpp:338] conv1 -> conv1
I0428 08:06:17.624253 22467 net.cpp:113] Setting up conv1
I0428 08:06:18.067672 22467 net.cpp:120] Top shape: 256 128 23 23 (17334272)
I0428 08:06:18.067721 22467 layer_factory.hpp:74] Creating layer reLU1
I0428 08:06:18.067739 22467 net.cpp:84] Creating Layer reLU1
I0428 08:06:18.067747 22467 net.cpp:380] reLU1 <- conv1
I0428 08:06:18.067759 22467 net.cpp:327] reLU1 -> conv1 (in-place)
I0428 08:06:18.067770 22467 net.cpp:113] Setting up reLU1
I0428 08:06:18.067919 22467 net.cpp:120] Top shape: 256 128 23 23 (17334272)
I0428 08:06:18.067931 22467 layer_factory.hpp:74] Creating layer norm1
I0428 08:06:18.067947 22467 net.cpp:84] Creating Layer norm1
I0428 08:06:18.067955 22467 net.cpp:380] norm1 <- conv1
I0428 08:06:18.067962 22467 net.cpp:338] norm1 -> norm1
I0428 08:06:18.067975 22467 net.cpp:113] Setting up norm1
I0428 08:06:18.067987 22467 net.cpp:120] Top shape: 256 128 23 23 (17334272)
I0428 08:06:18.067993 22467 layer_factory.hpp:74] Creating layer conv2
I0428 08:06:18.068006 22467 net.cpp:84] Creating Layer conv2
I0428 08:06:18.068011 22467 net.cpp:380] conv2 <- norm1
I0428 08:06:18.068020 22467 net.cpp:338] conv2 -> conv2
I0428 08:06:18.068030 22467 net.cpp:113] Setting up conv2
I0428 08:06:18.069552 22467 net.cpp:120] Top shape: 256 128 21 21 (14450688)
I0428 08:06:18.069584 22467 layer_factory.hpp:74] Creating layer reLU2
I0428 08:06:18.069596 22467 net.cpp:84] Creating Layer reLU2
I0428 08:06:18.069607 22467 net.cpp:380] reLU2 <- conv2
I0428 08:06:18.069646 22467 net.cpp:327] reLU2 -> conv2 (in-place)
I0428 08:06:18.069656 22467 net.cpp:113] Setting up reLU2
I0428 08:06:18.069711 22467 net.cpp:120] Top shape: 256 128 21 21 (14450688)
I0428 08:06:18.069720 22467 layer_factory.hpp:74] Creating layer norm2
I0428 08:06:18.069730 22467 net.cpp:84] Creating Layer norm2
I0428 08:06:18.069736 22467 net.cpp:380] norm2 <- conv2
I0428 08:06:18.069743 22467 net.cpp:338] norm2 -> norm2
I0428 08:06:18.069751 22467 net.cpp:113] Setting up norm2
I0428 08:06:18.069761 22467 net.cpp:120] Top shape: 256 128 21 21 (14450688)
I0428 08:06:18.069766 22467 layer_factory.hpp:74] Creating layer dropout1
I0428 08:06:18.069779 22467 net.cpp:84] Creating Layer dropout1
I0428 08:06:18.069787 22467 net.cpp:380] dropout1 <- norm2
I0428 08:06:18.069793 22467 net.cpp:327] dropout1 -> norm2 (in-place)
I0428 08:06:18.069804 22467 net.cpp:113] Setting up dropout1
I0428 08:06:18.069816 22467 net.cpp:120] Top shape: 256 128 21 21 (14450688)
I0428 08:06:18.069823 22467 layer_factory.hpp:74] Creating layer conv3
I0428 08:06:18.069831 22467 net.cpp:84] Creating Layer conv3
I0428 08:06:18.069838 22467 net.cpp:380] conv3 <- norm2
I0428 08:06:18.069844 22467 net.cpp:338] conv3 -> conv3
I0428 08:06:18.069854 22467 net.cpp:113] Setting up conv3
I0428 08:06:18.071223 22467 net.cpp:120] Top shape: 256 256 10 10 (6553600)
I0428 08:06:18.071241 22467 layer_factory.hpp:74] Creating layer reLU3
I0428 08:06:18.071251 22467 net.cpp:84] Creating Layer reLU3
I0428 08:06:18.071257 22467 net.cpp:380] reLU3 <- conv3
I0428 08:06:18.071265 22467 net.cpp:327] reLU3 -> conv3 (in-place)
I0428 08:06:18.071274 22467 net.cpp:113] Setting up reLU3
I0428 08:06:18.071321 22467 net.cpp:120] Top shape: 256 256 10 10 (6553600)
I0428 08:06:18.071329 22467 layer_factory.hpp:74] Creating layer norm3
I0428 08:06:18.071338 22467 net.cpp:84] Creating Layer norm3
I0428 08:06:18.071344 22467 net.cpp:380] norm3 <- conv3
I0428 08:06:18.071355 22467 net.cpp:338] norm3 -> norm3
I0428 08:06:18.071363 22467 net.cpp:113] Setting up norm3
I0428 08:06:18.071372 22467 net.cpp:120] Top shape: 256 256 10 10 (6553600)
I0428 08:06:18.071378 22467 layer_factory.hpp:74] Creating layer conv4
I0428 08:06:18.071388 22467 net.cpp:84] Creating Layer conv4
I0428 08:06:18.071393 22467 net.cpp:380] conv4 <- norm3
I0428 08:06:18.071401 22467 net.cpp:338] conv4 -> conv4
I0428 08:06:18.071409 22467 net.cpp:113] Setting up conv4
I0428 08:06:18.073885 22467 net.cpp:120] Top shape: 256 256 9 9 (5308416)
I0428 08:06:18.073904 22467 layer_factory.hpp:74] Creating layer pool1
I0428 08:06:18.073921 22467 net.cpp:84] Creating Layer pool1
I0428 08:06:18.073928 22467 net.cpp:380] pool1 <- conv4
I0428 08:06:18.073936 22467 net.cpp:338] pool1 -> pool1
I0428 08:06:18.073945 22467 net.cpp:113] Setting up pool1
I0428 08:06:18.074102 22467 net.cpp:120] Top shape: 256 256 3 3 (589824)
I0428 08:06:18.074115 22467 layer_factory.hpp:74] Creating layer norm4
I0428 08:06:18.074125 22467 net.cpp:84] Creating Layer norm4
I0428 08:06:18.074131 22467 net.cpp:380] norm4 <- pool1
I0428 08:06:18.074138 22467 net.cpp:338] norm4 -> norm4
I0428 08:06:18.074147 22467 net.cpp:113] Setting up norm4
I0428 08:06:18.074156 22467 net.cpp:120] Top shape: 256 256 3 3 (589824)
I0428 08:06:18.074162 22467 layer_factory.hpp:74] Creating layer dropout2
I0428 08:06:18.074174 22467 net.cpp:84] Creating Layer dropout2
I0428 08:06:18.074180 22467 net.cpp:380] dropout2 <- norm4
I0428 08:06:18.074187 22467 net.cpp:327] dropout2 -> norm4 (in-place)
I0428 08:06:18.074195 22467 net.cpp:113] Setting up dropout2
I0428 08:06:18.074203 22467 net.cpp:120] Top shape: 256 256 3 3 (589824)
I0428 08:06:18.074209 22467 layer_factory.hpp:74] Creating layer ip1
I0428 08:06:18.074223 22467 net.cpp:84] Creating Layer ip1
I0428 08:06:18.074229 22467 net.cpp:380] ip1 <- norm4
I0428 08:06:18.074236 22467 net.cpp:338] ip1 -> ip1
I0428 08:06:18.074249 22467 net.cpp:113] Setting up ip1
I0428 08:06:18.079241 22467 net.cpp:120] Top shape: 256 256 (65536)
I0428 08:06:18.079262 22467 layer_factory.hpp:74] Creating layer reLU4
I0428 08:06:18.079287 22467 net.cpp:84] Creating Layer reLU4
I0428 08:06:18.079293 22467 net.cpp:380] reLU4 <- ip1
I0428 08:06:18.079300 22467 net.cpp:327] reLU4 -> ip1 (in-place)
I0428 08:06:18.079308 22467 net.cpp:113] Setting up reLU4
I0428 08:06:18.079363 22467 net.cpp:120] Top shape: 256 256 (65536)
I0428 08:06:18.079372 22467 layer_factory.hpp:74] Creating layer dropout3
I0428 08:06:18.079380 22467 net.cpp:84] Creating Layer dropout3
I0428 08:06:18.079385 22467 net.cpp:380] dropout3 <- ip1
I0428 08:06:18.079392 22467 net.cpp:327] dropout3 -> ip1 (in-place)
I0428 08:06:18.079401 22467 net.cpp:113] Setting up dropout3
I0428 08:06:18.079408 22467 net.cpp:120] Top shape: 256 256 (65536)
I0428 08:06:18.079414 22467 layer_factory.hpp:74] Creating layer ip2
I0428 08:06:18.079423 22467 net.cpp:84] Creating Layer ip2
I0428 08:06:18.079428 22467 net.cpp:380] ip2 <- ip1
I0428 08:06:18.079435 22467 net.cpp:338] ip2 -> ip2
I0428 08:06:18.079444 22467 net.cpp:113] Setting up ip2
I0428 08:06:18.080078 22467 net.cpp:120] Top shape: 256 256 (65536)
I0428 08:06:18.080093 22467 layer_factory.hpp:74] Creating layer reLU5
I0428 08:06:18.080101 22467 net.cpp:84] Creating Layer reLU5
I0428 08:06:18.080107 22467 net.cpp:380] reLU5 <- ip2
I0428 08:06:18.080114 22467 net.cpp:327] reLU5 -> ip2 (in-place)
I0428 08:06:18.080122 22467 net.cpp:113] Setting up reLU5
I0428 08:06:18.080186 22467 net.cpp:120] Top shape: 256 256 (65536)
I0428 08:06:18.080196 22467 layer_factory.hpp:74] Creating layer dropout4
I0428 08:06:18.080207 22467 net.cpp:84] Creating Layer dropout4
I0428 08:06:18.080212 22467 net.cpp:380] dropout4 <- ip2
I0428 08:06:18.080219 22467 net.cpp:327] dropout4 -> ip2 (in-place)
I0428 08:06:18.080227 22467 net.cpp:113] Setting up dropout4
I0428 08:06:18.080238 22467 net.cpp:120] Top shape: 256 256 (65536)
I0428 08:06:18.080243 22467 layer_factory.hpp:74] Creating layer ip3
I0428 08:06:18.080253 22467 net.cpp:84] Creating Layer ip3
I0428 08:06:18.080258 22467 net.cpp:380] ip3 <- ip2
I0428 08:06:18.080265 22467 net.cpp:338] ip3 -> ip3
I0428 08:06:18.080274 22467 net.cpp:113] Setting up ip3
I0428 08:06:18.080549 22467 net.cpp:120] Top shape: 256 121 (30976)
I0428 08:06:18.080561 22467 layer_factory.hpp:74] Creating layer ip3_ip3_0_split
I0428 08:06:18.080581 22467 net.cpp:84] Creating Layer ip3_ip3_0_split
I0428 08:06:18.080588 22467 net.cpp:380] ip3_ip3_0_split <- ip3
I0428 08:06:18.080596 22467 net.cpp:338] ip3_ip3_0_split -> ip3_ip3_0_split_0
I0428 08:06:18.080610 22467 net.cpp:338] ip3_ip3_0_split -> ip3_ip3_0_split_1
I0428 08:06:18.080618 22467 net.cpp:113] Setting up ip3_ip3_0_split
I0428 08:06:18.080627 22467 net.cpp:120] Top shape: 256 121 (30976)
I0428 08:06:18.080634 22467 net.cpp:120] Top shape: 256 121 (30976)
I0428 08:06:18.080639 22467 layer_factory.hpp:74] Creating layer accuracy
I0428 08:06:18.080653 22467 net.cpp:84] Creating Layer accuracy
I0428 08:06:18.080658 22467 net.cpp:380] accuracy <- ip3_ip3_0_split_0
I0428 08:06:18.080664 22467 net.cpp:380] accuracy <- label_ndsb_1_split_0
I0428 08:06:18.080675 22467 net.cpp:338] accuracy -> accuracy
I0428 08:06:18.080684 22467 net.cpp:113] Setting up accuracy
…
