…
I0428 16:51:04.584324  2521 net.cpp:257] The NetState phase (0) differed from the phase (1) specified by a rule in layer accuracy
I0428 16:51:04.584534  2521 net.cpp:42] Initializing net from parameters: 
name: "SeaNet"
state {
  phase: TRAIN
}
layer {
  name: "ndsb"
  type: "Data"
  top: "data"
  top: "label"
  include {
    phase: TRAIN
  }
  transform_param {
    scale: 0.00390625
    mean_file: "../train_all_48_mean.binaryproto"
  }
  data_param {
    source: "/home/nitini/data_files/cross_val_files/cv_training_lmdb"
    batch_size: 256
    backend: LMDB
  }
}
layer {
  name: "conv1"
  type: "Convolution"
  bottom: "data"
  top: "conv1"
  param {
    lr_mult: 1
  }
  param {
    lr_mult: 2
  }
  convolution_param {
    num_output: 128
    kernel_size: 3
    stride: 2
    weight_filler {
      type: "xavier"
    }
    bias_filler {
      type: "constant"
    }
  }
}
layer {
  name: "reLU1"
  type: "ReLU"
  bottom: "conv1"
  top: "conv1"
}
layer {
  name: "norm1"
  type: "LRN"
  bottom: "conv1"
  top: "norm1"
  lrn_param {
    local_size: 5
    alpha: 0.0001
    beta: 0.75
  }
}
layer {
  name: "conv2"
  type: "Convolution"
  bottom: "norm1"
  top: "conv2"
  param {
    lr_mult: 1
  }
  param {
    lr_mult: 2
  }
  convolution_param {
    num_output: 128
    kernel_size: 3
    stride: 1
    weight_filler {
      type: "xavier"
    }
    bias_filler {
      type: "constant"
    }
  }
}
layer {
  name: "reLU2"
  type: "ReLU"
  bottom: "conv2"
  top: "conv2"
}
layer {
  name: "norm2"
  type: "LRN"
  bottom: "conv2"
  top: "norm2"
  lrn_param {
    local_size: 5
    alpha: 0.0001
    beta: 0.75
  }
}
layer {
  name: "dropout1"
  type: "Dropout"
  bottom: "norm2"
  top: "norm2"
  dropout_param {
    dropout_ratio: 0.5
  }
}
layer {
  name: "conv3"
  type: "Convolution"
  bottom: "norm2"
  top: "conv3"
  param {
    lr_mult: 1
  }
  param {
    lr_mult: 2
  }
  convolution_param {
    num_output: 256
    kernel_size: 2
    stride: 2
    weight_filler {
      type: "xavier"
    }
    bias_filler {
      type: "constant"
    }
  }
}
layer {
  name: "reLU3"
  type: "ReLU"
  bottom: "conv3"
  top: "conv3"
}
layer {
  name: "norm3"
  type: "LRN"
  bottom: "conv3"
  top: "norm3"
  lrn_param {
    local_size: 5
    alpha: 0.0001
    beta: 0.75
  }
}
layer {
  name: "conv4"
  type: "Convolution"
  bottom: "norm3"
  top: "conv4"
  param {
    lr_mult: 1
  }
  param {
    lr_mult: 2
  }
  convolution_param {
    num_output: 256
    kernel_size: 2
    stride: 1
    weight_filler {
      type: "xavier"
    }
    bias_filler {
      type: "constant"
    }
  }
}
layer {
  name: "pool1"
  type: "Pooling"
  bottom: "conv4"
  top: "pool1"
  pooling_param {
    pool: MAX
    kernel_size: 3
    stride: 3
  }
}
layer {
  name: "norm4"
  type: "LRN"
  bottom: "pool1"
  top: "norm4"
  lrn_param {
    local_size: 5
    alpha: 0.0001
    beta: 0.75
  }
}
layer {
  name: "dropout2"
  type: "Dropout"
  bottom: "norm4"
  top: "norm4"
  dropout_param {
    dropout_ratio: 0.5
  }
}
layer {
  name: "ip1"
  type: "InnerProduct"
  bottom: "norm4"
  top: "ip1"
  param {
    lr_mult: 1
  }
  param {
    lr_mult: 2
  }
  inner_product_param {
    num_output: 256
    weight_filler {
      type: "xavier"
    }
    bias_filler {
      type: "constant"
    }
  }
}
layer {
  name: "reLU4"
  type: "ReLU"
  bottom: "ip1"
  top: "ip1"
}
layer {
  name: "dropout3"
  type: "Dropout"
  bottom: "ip1"
  top: "ip1"
  dropout_param {
    dropout_ratio: 0.5
  }
}
layer {
  name: "ip2"
  type: "InnerProduct"
  bottom: "ip1"
  top: "ip2"
  param {
    lr_mult: 1
  }
  param {
    lr_mult: 2
  }
  inner_product_param {
    num_output: 256
    weight_filler {
      type: "xavier"
      std: 0.01
    }
    bias_filler {
      type: "constant"
      value: 0
    }
  }
}
layer {
  name: "reLU5"
  type: "ReLU"
  bottom: "ip2"
  top: "ip2"
}
layer {
  name: "dropout4"
  type: "Dropout"
  bottom: "ip2"
  top: "ip2"
  dropout_param {
    dropout_ratio: 0.5
  }
}
layer {
  name: "ip3"
  type: "InnerProduct"
  bottom: "ip2"
  top: "ip3"
  param {
    lr_mult: 1
  }
  param {
    lr_mult: 2
  }
  inner_product_param {
    num_output: 121
    weight_filler {
      type: "xavier"
      std: 0.01
    }
    bias_filler {
      type: "constant"
      value: 0
    }
  }
}
layer {
  name: "accuracy"
  type: "Accuracy"
  bottom: "ip3"
  bottom: "label"
  top: "accuracy"
  include {
    phase: TRAIN
  }
}
layer {
  name: "loss"
  type: "SoftmaxWithLoss"
  bottom: "ip3"
  bottom: "label"
  top: "loss"
}
I0428 16:51:04.584738  2521 layer_factory.hpp:74] Creating layer ndsb
I0428 16:51:04.584760  2521 net.cpp:84] Creating Layer ndsb
I0428 16:51:04.584772  2521 net.cpp:338] ndsb -> data
I0428 16:51:04.584803  2521 net.cpp:338] ndsb -> label
I0428 16:51:04.584820  2521 net.cpp:113] Setting up ndsb
I0428 16:51:04.663177  2521 db.cpp:34] Opened lmdb /home/nitini/data_files/cross_val_files/cv_training_lmdb
I0428 16:51:04.669216  2521 data_layer.cpp:67] output data size: 256,3,48,48
I0428 16:51:04.669234  2521 data_transformer.cpp:22] Loading mean file from: ../train_all_48_mean.binaryproto
I0428 16:51:04.690173  2521 net.cpp:120] Top shape: 256 3 48 48 (1769472)
I0428 16:51:04.690187  2521 net.cpp:120] Top shape: 256 (256)
I0428 16:51:04.690196  2521 layer_factory.hpp:74] Creating layer label_ndsb_1_split
I0428 16:51:04.690207  2521 net.cpp:84] Creating Layer label_ndsb_1_split
I0428 16:51:04.690217  2521 net.cpp:380] label_ndsb_1_split <- label
I0428 16:51:04.690230  2521 net.cpp:338] label_ndsb_1_split -> label_ndsb_1_split_0
I0428 16:51:04.690242  2521 net.cpp:338] label_ndsb_1_split -> label_ndsb_1_split_1
I0428 16:51:04.690249  2521 net.cpp:113] Setting up label_ndsb_1_split
I0428 16:51:04.690260  2521 net.cpp:120] Top shape: 256 (256)
I0428 16:51:04.690266  2521 net.cpp:120] Top shape: 256 (256)
I0428 16:51:04.690271  2521 layer_factory.hpp:74] Creating layer conv1
I0428 16:51:04.690284  2521 net.cpp:84] Creating Layer conv1
I0428 16:51:04.690290  2521 net.cpp:380] conv1 <- data
I0428 16:51:04.690297  2521 net.cpp:338] conv1 -> conv1
I0428 16:51:04.690310  2521 net.cpp:113] Setting up conv1
I0428 16:51:05.125638  2521 net.cpp:120] Top shape: 256 128 23 23 (17334272)
I0428 16:51:05.125679  2521 layer_factory.hpp:74] Creating layer reLU1
I0428 16:51:05.125694  2521 net.cpp:84] Creating Layer reLU1
I0428 16:51:05.125701  2521 net.cpp:380] reLU1 <- conv1
I0428 16:51:05.125711  2521 net.cpp:327] reLU1 -> conv1 (in-place)
I0428 16:51:05.125722  2521 net.cpp:113] Setting up reLU1
I0428 16:51:05.125865  2521 net.cpp:120] Top shape: 256 128 23 23 (17334272)
I0428 16:51:05.125877  2521 layer_factory.hpp:74] Creating layer norm1
I0428 16:51:05.125891  2521 net.cpp:84] Creating Layer norm1
I0428 16:51:05.125897  2521 net.cpp:380] norm1 <- conv1
I0428 16:51:05.125905  2521 net.cpp:338] norm1 -> norm1
I0428 16:51:05.125916  2521 net.cpp:113] Setting up norm1
I0428 16:51:05.125928  2521 net.cpp:120] Top shape: 256 128 23 23 (17334272)
I0428 16:51:05.125934  2521 layer_factory.hpp:74] Creating layer conv2
I0428 16:51:05.125946  2521 net.cpp:84] Creating Layer conv2
I0428 16:51:05.125952  2521 net.cpp:380] conv2 <- norm1
I0428 16:51:05.125959  2521 net.cpp:338] conv2 -> conv2
I0428 16:51:05.125969  2521 net.cpp:113] Setting up conv2
I0428 16:51:05.127337  2521 net.cpp:120] Top shape: 256 128 21 21 (14450688)
I0428 16:51:05.127360  2521 layer_factory.hpp:74] Creating layer reLU2
I0428 16:51:05.127374  2521 net.cpp:84] Creating Layer reLU2
I0428 16:51:05.127408  2521 net.cpp:380] reLU2 <- conv2
I0428 16:51:05.127420  2521 net.cpp:327] reLU2 -> conv2 (in-place)
I0428 16:51:05.127429  2521 net.cpp:113] Setting up reLU2
I0428 16:51:05.127480  2521 net.cpp:120] Top shape: 256 128 21 21 (14450688)
I0428 16:51:05.127487  2521 layer_factory.hpp:74] Creating layer norm2
I0428 16:51:05.127496  2521 net.cpp:84] Creating Layer norm2
I0428 16:51:05.127502  2521 net.cpp:380] norm2 <- conv2
I0428 16:51:05.127509  2521 net.cpp:338] norm2 -> norm2
I0428 16:51:05.127517  2521 net.cpp:113] Setting up norm2
I0428 16:51:05.127526  2521 net.cpp:120] Top shape: 256 128 21 21 (14450688)
I0428 16:51:05.127532  2521 layer_factory.hpp:74] Creating layer dropout1
I0428 16:51:05.127543  2521 net.cpp:84] Creating Layer dropout1
I0428 16:51:05.127548  2521 net.cpp:380] dropout1 <- norm2
I0428 16:51:05.127555  2521 net.cpp:327] dropout1 -> norm2 (in-place)
I0428 16:51:05.127565  2521 net.cpp:113] Setting up dropout1
I0428 16:51:05.127576  2521 net.cpp:120] Top shape: 256 128 21 21 (14450688)
I0428 16:51:05.127583  2521 layer_factory.hpp:74] Creating layer conv3
I0428 16:51:05.127590  2521 net.cpp:84] Creating Layer conv3
I0428 16:51:05.127596  2521 net.cpp:380] conv3 <- norm2
I0428 16:51:05.127604  2521 net.cpp:338] conv3 -> conv3
I0428 16:51:05.127614  2521 net.cpp:113] Setting up conv3
I0428 16:51:05.128969  2521 net.cpp:120] Top shape: 256 256 10 10 (6553600)
I0428 16:51:05.129000  2521 layer_factory.hpp:74] Creating layer reLU3
I0428 16:51:05.129010  2521 net.cpp:84] Creating Layer reLU3
I0428 16:51:05.129016  2521 net.cpp:380] reLU3 <- conv3
I0428 16:51:05.129026  2521 net.cpp:327] reLU3 -> conv3 (in-place)
I0428 16:51:05.129034  2521 net.cpp:113] Setting up reLU3
I0428 16:51:05.129089  2521 net.cpp:120] Top shape: 256 256 10 10 (6553600)
I0428 16:51:05.129099  2521 layer_factory.hpp:74] Creating layer norm3
I0428 16:51:05.129106  2521 net.cpp:84] Creating Layer norm3
I0428 16:51:05.129112  2521 net.cpp:380] norm3 <- conv3
I0428 16:51:05.129119  2521 net.cpp:338] norm3 -> norm3
I0428 16:51:05.129127  2521 net.cpp:113] Setting up norm3
I0428 16:51:05.129135  2521 net.cpp:120] Top shape: 256 256 10 10 (6553600)
I0428 16:51:05.129140  2521 layer_factory.hpp:74] Creating layer conv4
I0428 16:51:05.129151  2521 net.cpp:84] Creating Layer conv4
I0428 16:51:05.129158  2521 net.cpp:380] conv4 <- norm3
I0428 16:51:05.129166  2521 net.cpp:338] conv4 -> conv4
I0428 16:51:05.129175  2521 net.cpp:113] Setting up conv4
I0428 16:51:05.131613  2521 net.cpp:120] Top shape: 256 256 9 9 (5308416)
I0428 16:51:05.131633  2521 layer_factory.hpp:74] Creating layer pool1
I0428 16:51:05.131650  2521 net.cpp:84] Creating Layer pool1
I0428 16:51:05.131657  2521 net.cpp:380] pool1 <- conv4
I0428 16:51:05.131667  2521 net.cpp:338] pool1 -> pool1
I0428 16:51:05.131676  2521 net.cpp:113] Setting up pool1
I0428 16:51:05.131834  2521 net.cpp:120] Top shape: 256 256 3 3 (589824)
I0428 16:51:05.131849  2521 layer_factory.hpp:74] Creating layer norm4
I0428 16:51:05.131857  2521 net.cpp:84] Creating Layer norm4
I0428 16:51:05.131862  2521 net.cpp:380] norm4 <- pool1
I0428 16:51:05.131872  2521 net.cpp:338] norm4 -> norm4
I0428 16:51:05.131881  2521 net.cpp:113] Setting up norm4
I0428 16:51:05.131891  2521 net.cpp:120] Top shape: 256 256 3 3 (589824)
I0428 16:51:05.131896  2521 layer_factory.hpp:74] Creating layer dropout2
I0428 16:51:05.131902  2521 net.cpp:84] Creating Layer dropout2
I0428 16:51:05.131907  2521 net.cpp:380] dropout2 <- norm4
I0428 16:51:05.131914  2521 net.cpp:327] dropout2 -> norm4 (in-place)
I0428 16:51:05.131922  2521 net.cpp:113] Setting up dropout2
I0428 16:51:05.131930  2521 net.cpp:120] Top shape: 256 256 3 3 (589824)
I0428 16:51:05.131937  2521 layer_factory.hpp:74] Creating layer ip1
I0428 16:51:05.131952  2521 net.cpp:84] Creating Layer ip1
I0428 16:51:05.131958  2521 net.cpp:380] ip1 <- norm4
I0428 16:51:05.131968  2521 net.cpp:338] ip1 -> ip1
I0428 16:51:05.131990  2521 net.cpp:113] Setting up ip1
I0428 16:51:05.137280  2521 net.cpp:120] Top shape: 256 256 (65536)
I0428 16:51:05.137301  2521 layer_factory.hpp:74] Creating layer reLU4
I0428 16:51:05.137323  2521 net.cpp:84] Creating Layer reLU4
I0428 16:51:05.137329  2521 net.cpp:380] reLU4 <- ip1
I0428 16:51:05.137336  2521 net.cpp:327] reLU4 -> ip1 (in-place)
I0428 16:51:05.137344  2521 net.cpp:113] Setting up reLU4
I0428 16:51:05.137404  2521 net.cpp:120] Top shape: 256 256 (65536)
I0428 16:51:05.137413  2521 layer_factory.hpp:74] Creating layer dropout3
I0428 16:51:05.137423  2521 net.cpp:84] Creating Layer dropout3
I0428 16:51:05.137428  2521 net.cpp:380] dropout3 <- ip1
I0428 16:51:05.137434  2521 net.cpp:327] dropout3 -> ip1 (in-place)
I0428 16:51:05.137441  2521 net.cpp:113] Setting up dropout3
I0428 16:51:05.137449  2521 net.cpp:120] Top shape: 256 256 (65536)
I0428 16:51:05.137454  2521 layer_factory.hpp:74] Creating layer ip2
I0428 16:51:05.137465  2521 net.cpp:84] Creating Layer ip2
I0428 16:51:05.137470  2521 net.cpp:380] ip2 <- ip1
I0428 16:51:05.137478  2521 net.cpp:338] ip2 -> ip2
I0428 16:51:05.137486  2521 net.cpp:113] Setting up ip2
I0428 16:51:05.138092  2521 net.cpp:120] Top shape: 256 256 (65536)
I0428 16:51:05.138104  2521 layer_factory.hpp:74] Creating layer reLU5
I0428 16:51:05.138111  2521 net.cpp:84] Creating Layer reLU5
I0428 16:51:05.138118  2521 net.cpp:380] reLU5 <- ip2
I0428 16:51:05.138123  2521 net.cpp:327] reLU5 -> ip2 (in-place)
I0428 16:51:05.138131  2521 net.cpp:113] Setting up reLU5
I0428 16:51:05.138190  2521 net.cpp:120] Top shape: 256 256 (65536)
I0428 16:51:05.138198  2521 layer_factory.hpp:74] Creating layer dropout4
I0428 16:51:05.138206  2521 net.cpp:84] Creating Layer dropout4
I0428 16:51:05.138211  2521 net.cpp:380] dropout4 <- ip2
I0428 16:51:05.138219  2521 net.cpp:327] dropout4 -> ip2 (in-place)
I0428 16:51:05.138226  2521 net.cpp:113] Setting up dropout4
I0428 16:51:05.138234  2521 net.cpp:120] Top shape: 256 256 (65536)
I0428 16:51:05.138242  2521 layer_factory.hpp:74] Creating layer ip3
I0428 16:51:05.138250  2521 net.cpp:84] Creating Layer ip3
I0428 16:51:05.138257  2521 net.cpp:380] ip3 <- ip2
I0428 16:51:05.138265  2521 net.cpp:338] ip3 -> ip3
I0428 16:51:05.138273  2521 net.cpp:113] Setting up ip3
I0428 16:51:05.138563  2521 net.cpp:120] Top shape: 256 121 (30976)
I0428 16:51:05.138579  2521 layer_factory.hpp:74] Creating layer ip3_ip3_0_split
I0428 16:51:05.138587  2521 net.cpp:84] Creating Layer ip3_ip3_0_split
I0428 16:51:05.138592  2521 net.cpp:380] ip3_ip3_0_split <- ip3
I0428 16:51:05.138599  2521 net.cpp:338] ip3_ip3_0_split -> ip3_ip3_0_split_0
I0428 16:51:05.138610  2521 net.cpp:338] ip3_ip3_0_split -> ip3_ip3_0_split_1
I0428 16:51:05.138617  2521 net.cpp:113] Setting up ip3_ip3_0_split
I0428 16:51:05.138627  2521 net.cpp:120] Top shape: 256 121 (30976)
I0428 16:51:05.138633  2521 net.cpp:120] Top shape: 256 121 (30976)
I0428 16:51:05.138638  2521 layer_factory.hpp:74] Creating layer accuracy
I0428 16:51:05.138651  2521 net.cpp:84] Creating Layer accuracy
I0428 16:51:05.138658  2521 net.cpp:380] accuracy <- ip3_ip3_0_split_0
I0428 16:51:05.138664  2521 net.cpp:380] accuracy <- label_ndsb_1_split_0
I0428 16:51:05.138670  2521 net.cpp:338] accuracy -> accuracy
I0428 16:51:05.138679  2521 net.cpp:113] Setting up accuracy
…
